Player 4_policy_net.pth (torch, 195328 bytes, 6 tensors)

fc1.weight f4 [256, 52]
-0.07064221 0.1360588 -0.08218587 -0.044060968 0.07191441 -0.06308644 0.08391044 -0.092787035
0.07023895 0.05073469 -0.07349511 -0.09290148 0.070796266 0.07624804 -0.1373398 -0.05461994
0.08184378 -0.037570793 0.029671896 -0.0076366756 0.033468023 0.1347369 0.09359871 0.016762478
0.057745542 -0.019241422 0.04807217 -0.11445415 -0.07241191 0.10025971 -0.059411388 -0.069293685
-0.09689923 -0.10116764 -0.11388703 -0.025802188 0.09985973 -0.11990069 -0.11487656 -0.07084694
0.028085299 -0.08212539 0.04184476 0.05179232 -0.028489541 -0.014425177 -0.07359939 0.012697634
-0.0001990871 0.023141151 0.044894215 0.057616927 0.078341275 -0.014765492 0.12892091 -0.08116627
-0.045799952 0.11588304 -0.05842468 0.11367172 0.11449955 0.11810709 0.030717785 -0.13796261
-0.033599827 -0.084286034 -0.059716575 0.02703293 -0.07544019 0.109590515 -0.0075586974 0.13467251
0.10394568 -0.09836205 -0.05515329 -0.10629205 0.08369208 0.05040036 -0.081086904 0.13190088
0.08083564 0.069456056 -0.07569294 0.022485849 0.02535012 -0.018786842 -0.12519887 0.089775935
0.105254985 -0.09529626 -0.12451011 0.017269215 0.0012288748 -0.042727698 -0.06474594 -0.07822315
-0.03772647 0.10715227 -0.054276187 0.117097236 0.080858916 -0.07729936 -0.05818225 0.047205396
-0.06896044 -0.019645216 -0.0075974134 -0.06782175 0.03800411 0.10498542 0.07513763 0.11722613
-0.09343878 0.028446129 -0.031881608 0.015001955 0.11481649 0.0133882975 -0.04895491 0.039948016
0.07495288 -0.12957105 0.11682811 -0.07951971 0.058828693 0.019890921 -0.01768382 -0.10938808
-0.0013110356 0.020679584 -0.05191938 0.06521358 0.048912574 -0.043379944 0.058702506 -0.03768471
0.09619043 -0.023636166 0.026531732 -0.055148136 -0.10350212 -0.13587733 -0.10280062 -0.11750665
-0.12930198 0.022842 -0.06264457 0.023670584 0.040874086 -0.022200517 0.002589769 -0.119551316
-0.041520726 -0.1327797 -0.09376664 -0.115081504 -0.02732051 0.014478755 0.023796305 -0.119563036
-0.07358907 -0.0039633755 0.06796071 0.08727398 0.12759504 -0.100457355 0.020308884 0.11229718
-0.09413671 -0.013609983 0.114200294 -0.08623248 0.04651452 -0.116425596 0.06162986 0.033462733
-0.05284578 -0.08442019 -0.011353254 0.063405626 -0.12377127 -0.03957155 -0.027178273 0.025292277
0.045069627 -0.05435461 0.11701869 -0.099021025 -0.031368922 -0.063622884 0.11208519 0.10469184
0.07684 0.07548233 0.101484515 -0.027837494 -0.11834588 0.11270614 0.10611099 -0.092264794
0.11031864 0.004233399 -0.048505887 0.12932883 -0.12531656 0.025079817 -0.118332244 -0.11128764
0.044390272 0.12830079 -0.044650145 -0.013146642 0.08785895 -0.09075846 -0.062611595 0.0077182907
0.04555125 0.123061255 -0.0925698 -0.08569071 -0.12968886 0.07089326 -0.13602994 -0.08380497
0.07625309 -0.121472105 -0.08988411 -0.09186885 0.08867529 0.084345564 -0.004993907 0.0793379
0.11920905 -0.02940303 0.10567633 -0.13506512 -0.017539453 -0.13374543 0.07569413 -0.13045509
-0.04383581 0.08256712 -0.0119199 -0.12730652 0.014631587 -0.112859435 0.090612024 0.123430185
0.04450614 0.02774634 -0.12543847 0.13315967 0.058246043 -0.0005770765 0.083098985 0.12205522
00000000: ddac 90bd 0053 0b3e 1151 a8bd 4679 34bd
00000010: dd47 933d 7733 81bd 3dd9 ab3d 2107 bebd
00000020: 70d9 8f3d 2ecf 4f3d 9b84 96bd 2243 bebd
00000030: a2fd 903d ef27 9c3d cea2 0cbe 29b9 5fbd
00000040: b69d a73d d5e3 19bd 7a12 f33c 143d fabb
00000050: c415 093d 78f8 093e aeb0 bf3d 7751 893c
00000060: 9786 6c3d 30a0 9dbc 53e7 443d f066 eabd
00000070: b24c 94bd f654 cd3d 5b59 73bd d9e9 8dbd
00000080: 1a73 c6bd fb30 cfbd 9a3d e9bd 1c5f d3bc
00000090: 4283 cc3d 7e8e f5bd 6744 ebbd 3318 91bd
000000a0: 2413 e63c 5b31 a8bd 6965 2b3d 2f24 543d
000000b0: e662 e9bc 9457 6cbc 47bb 96bd bd09 503c
000000c0: 09c2 50b9 8392 bd3c ffe2 373d baff 6b3d
000000d0: 6471 a03d f6ea 71bc d803 043e 803a a6bd
000000e0: bb98 3bbd 1654 ed3d b84e 6fbd b8cc e83d
000000f0: bd7e ea3d 21e2 f13d dda3 fb3c 1246 0dbe
00000100: f99f 09bd 289e acbd 5e99 74bd 2a74 dd3c
00000110: 6380 9abd fe70 e03d f3ae f7bb 97e7 093e
00000120: 79e1 d43d 0b72 c9bd 6be8 61bd a5af d9bd
00000130: c166 ab3d 9c70 4e3d e410 a6bd 0611 073e
00000140: 288d a53d fa3e 8e3d e604 9bbd 3e34 b83c
00000150: 0eab cf3c dde6 99bc 2234 00be 72dc b73d
00000160: ed8f d73d b02a c3bd 28ff febd 2b78 8d3c
00000170: 3212 a13a 3d03 2fbd 8599 84bd 7533 a0bd
00000180: 1287 1abd a672 db3d b550 5ebd add0 ef3d
00000190: 5c99 a53d 204f 9ebd 8350 6ebd 725a 413d
000001a0: 223b 8dbd 01ef a0bc b9f3 f8bb 21e6 8abd
000001b0: 33aa 1b3d 9902 d73d c2e1 993d 4114 f03d
000001c0: d55c bfbd db07 e93c 4a96 02bd c3ca 753c
000001d0: e824 eb3d 975a 5b3c f284 48bd 88a0 233d
000001e0: e580 993d 46ae 04be 9343 ef3d 3bdb a2bd
000001f0: 5bf6 703d 49f2 a23c a9dd 90bc dc06 e0bd
00000200: 0ed7 abba 3b68 a93c 6aa9 54bd b38e 853d
00000210: 8d58 483d 2baf 31bd 0a72 703d 485b 1abd
00000220: 7dff c43d a2a0 c1bc 1359 d93c 03e3 61bd
00000230: ebf8 d3bd 6d23 0bbe 2289 d2bd 54a7 f0bd
00000240: bd67 04be 251f bb3c cc4b 80bd d0e8 c13c
00000250: 966b 273d dcdd b5bc 1db9 293b 52d7 f4bd
00000260: a311 2abd 67f7 07be b908 c0bd daaf ebbd
00000270: 43cf dfbc 4d38 6d3c 78f0 c23c 77dd f4bd
00000280: deb5 96bd 34df 81bb fc2e 8b3d b3bc b23d
00000290: 46a8 023e 96bc cdbd d15e a63c 10fc e53d
000002a0: bfca c0bd 68fc 5ebc d8e1 e93d a89a b0bd
000002b0: 0286 3e3d 8b70 eebd 986f 7c3d 3810 093d
000002c0: d174 58bd 7ee4 acbd 0003 3abc cfda 813d
000002d0: cb7b fdbd c715 22bd f8a4 debc c031 cf3c
000002e0: ee9a 383d f1a2 5ebd 7fa7 ef3d 89cb cabd
000002f0: b37c 00bd b74c 82bd ec8c e53d ad68 d63d
00000300: 4a5e 9d3d 7b96 9a3d 1dd7 cf3d 750b e4bc
00000310: 535f f2bd 7ad2 e63d b850 d93d 53f5 bcbd
00000320: bdee e13d 53b8 8a3b 1cae 46bd c76e 043e
00000330: fc52 00be 3074 cd3c 2d58 f2bd c6ea e3bd
00000340: 93d2 353d 4861 033e 12e3 36bd 0365 57bc
00000350: 65ef b33d 92df b9bd 823a 80bd b7e9 fc3b
00000360: f393 3a3d 8a07 fc3d 3c95 bdbd 9c7e afbd
00000370: 28cd 04be 7c30 913d 6f4b 0bbe f1a1 abbd
00000380: 942a 9c3d 5ec6 f8bd 2915 b8bd bc25 bcbd
00000390: 649b b53d 5ebd ac3d eea3 a3bb e97b a23d
000003a0: e023 f43d a0de f0bc d56c d83d 834e 0abe
000003b0: e6ae 8fbc 90f4 08be 8605 9b3d 0596 05be
000003c0: 2e8d 33bd f318 a93d af4b 43bc a45c 02be
000003d0: 53b9 6f3c d922 e7bd cc92 b93d f7c8 fc3d
000003e0: 124c 363d 4b4c e33c f172 00be 025b 083e
000003f0: 6793 6e3d f346 17ba cd2f aa3d 16f8 f93d

fc1.bias f4 [256]
0.09978859 -0.12480888 0.0792593 -0.019064156 0.04168862 -0.040328834 0.017561357 -0.040203724
0.09592338 0.02330668 0.032443393 0.117904276 0.099320374 0.13114804 -0.04945229 -0.07779306
-0.10237312 0.024044689 -0.0771006 0.06581155 -0.08190145 0.12385998 0.07969106 -0.082667
-0.05220886 -0.00491535 -0.08554007 0.035121027 0.043656874 -0.004542386 0.07427169 -0.09887157
0.111357585 -0.054681618 0.037039425 0.04041329 0.08870004 -0.01286346 0.08827168 -0.018363457
-0.09903473 -0.018303614 -0.11551421 -0.03760949 -0.014620429 0.0789673 -0.04033738 -0.06829114
-0.06745487 -0.07998352 -0.019611906 -0.033189934 0.122780584 -0.030935585 -0.13855357 -0.00757141
0.056030497 -0.13420975 0.111390576 0.0855815 -0.048249766 0.008883768 -0.09572917 -0.1049697
-0.027624074 0.064362615 0.11753348 -0.11182892 0.10250638 0.13550615 0.03436614 -0.0028274732
-0.12332618 -0.118565105 -0.11238018 -0.03612235 -0.088054374 0.04052124 -0.011807239 -0.060772136
-0.102743536 0.12199289 0.006501418 -0.06709596 0.13859403 0.11880167 -0.1264945 -0.10129078
0.006116568 0.07553675 -0.07874086 0.081077814 -0.05505131 0.02086323 -0.11533235 -0.13498335
0.05132529 0.0844324 0.027212312 0.03006673 0.083748996 0.058219545 0.0042112633 -0.10720107
-0.13211441 0.1273922 -0.12460857 -0.004259072 0.057786968 -0.085848376 -0.06621371 -0.0012884537
-0.11281447 0.07852231 0.07202756 -0.0006232651 0.08180084 -0.046890523 0.11097387 -0.11559842
-0.10130997 0.08393072 -0.0056518055 0.12186903 -0.012573268 0.0046114875 0.0584102 -0.09531339
-0.13642752 0.039179638 0.10379359 -0.09493314 -0.12575957 -0.002112426 0.066660024 -0.006318416
-0.026169166 0.006822771 -0.008952472 0.12770656 -0.010081233 -0.11579418 0.12874685 0.13149984
-0.10694725 -0.076002605 -0.086962014 0.076658584 0.01437912 0.070237026 -0.117329895 -0.0718021
-0.0027495278 0.02160324 0.064883515 -0.006509849 0.13178876 0.009446429 -0.057460092 0.103888996
0.11889942 -0.11087318 -0.018320922 0.108404785 0.07794155 0.02958041 0.11693853 -0.12144328
-0.049151715 0.056774653 0.100655034 0.11696308 -0.08900638 -0.1174636 -0.11864265 -0.045357373
-0.0506176 0.11612942 -0.0690369 0.101963125 -0.09701929 -0.040097445 0.06647415 -0.102043815
-0.03788373 0.1100136 0.08632435 -0.0065411595 -0.0391152 0.0075910985 -0.111130886 0.081421465
-0.019788675 0.092181295 0.06758548 0.037273113 -0.101068415 -0.03929726 -0.107805476 -0.022869954
-0.0026590682 0.12729186 0.1012886 -0.0069664777 0.12715209 0.12700848 0.10830467 -0.04320243
0.06226417 0.11069287 -0.06245281 -0.1095356 0.12699676 0.02105673 -0.08552058 -0.09296999
-0.056230262 -0.0756713 -0.02842464 -0.024771607 0.13148765 0.03810282 0.05324093 -0.060233213
-0.07192891 -0.10584358 0.11927823 0.080615215 -0.07380469 -0.10702141 0.08756184 0.11440474
-0.117961 -0.015545689 -0.11790711 -0.11917471 0.045329865 -0.027542045 0.0017279729 0.13330908
0.03498894 -0.10235963 -0.008772644 0.12034198 0.050630808 0.08966488 0.038346972 -0.10956846
-0.10732836 0.021330522 0.11480111 -0.12292173 0.062454663 -0.0736245 -0.012663183 0.099070765
00000000: f65d cc3d cc9b ffbd b352 a23d 6f2c 9cbc
00000010: b0c1 2a3d d92f 25bd d6dc 8f3c a9ac 24bd
00000020: 7a73 c43d a7ed be3c 5de3 043d cc77 f13d
00000030: 7b68 cb3d ac4b 063e 7c8e 4abd f851 9fbd
00000040: 00a9 d1bd 5ef9 c43c ebe6 9dbd 35c8 863d
00000050: f3bb a7bd 4daa fd3d 1135 a33d 514d a9bd
00000060: f5d8 55bd f210 a1bb a22f afbd 11db 0f3d
00000070: 8dd1 323d 4cd8 94bb c11b 983d 2d7d cabd
00000080: 720f e43d d5f9 5fbd a7b6 173d 6888 253d
00000090: 5ea8 b53d 43c1 52bc c8c7 b43d f66e 96bc
000000a0: b8d2 cabd 76f1 95bc b792 ecbd 690c 1abd
000000b0: 868a 6fbc 9cb9 a13d cf38 25bd 3adc 8bbd
000000c0: c725 8abd 66ce a3bd 26a9 a0bc 2bf2 07bd
000000d0: 6374 fb3d a06c fdbc fde0 0dbe 9719 f8bb
000000e0: 3c80 653d 486e 09be be20 e43d 5a45 af3d
000000f0: 8ca1 45bd 398d 113c a80d c4bd 5bfa d6bd
00000100: e24b e2bc 8cd0 833d 65b5 f03d 9006 e5bd
00000110: ddee d13d 20c2 0a3e 82c3 0c3d 214d 39bb
00000120: 7092 fcbd 43d2 f2bd 9427 e6bd 07f5 13bd
00000130: da55 b4bd 9af9 253d 2673 41bc 34ec 78bd
00000140: 346b d2bd 69d7 f93d d909 d53b 9b69 89bd
00000150: 98eb 0d3e 4a4e f33d c687 01be 8a71 cfbd
00000160: 7e6d c83b 03b3 9a3d e342 a1bd 200c a63d
00000170: 7c7d 61bd 5de9 aa3c 5e33 ecbd 1339 0abe
00000180: 783a 523d e5ea ac3d 5bec de3c 814e f63c
00000190: 9884 ab3d 9e77 6e3d a3fe 893b 3c8c dbbd
000001a0: 0049 07be 1a73 023e c732 ffbd af8f 8bbb
000001b0: 07b2 6c3d 46d1 afbd 0e9b 87bd 55e1 a8ba
000001c0: 460b e7bd 4ed0 a03d 2f83 933d 9d62 23ba
000001d0: 3387 a73d 4710 40bd 4546 e33d ddbe ecbd
000001e0: 9a7b cfbd dfe3 ab3d c832 b9bb 7896 f93d
000001f0: 1c00 4ebc f61b 973b 893f 6f3d ab33 c3bd
00000200: a8b3 0bbe d47a 203d bc91 d43d 4e6c c2bd
00000210: 1ec7 00be a170 0abb 0d85 883d b70a cfbb
00000220: b860 d6bc 8d91 df3b 64ad 12bc 82c5 023e
00000230: c22b 25bc 8025 edbd 37d6 033e e5a7 063e
00000240: 2907 dbbd 41a7 9bbd 2419 b2bd 2dff 9c3d
00000250: 6796 6b3c 6ed8 8f3d a84a f0bd fb0c 93bd
00000260: 6c31 34bb 47f9 b03c a6e1 843d 9250 d5bb
00000270: a2f3 063e 32c5 1a3c 465b 6bbd c1c3 d43d
00000280: 8a81 f33d 7a11 e3bd c215 96bc 5403 de3d
00000290: d29f 9f3d 9e52 f23c 787d ef3d 41b7 f8bd
000002a0: 4f53 49bd 8a8c 683d 3a24 ce3d 578a ef3d
000002b0: fa48 b6bd c290 f0bd ebfa f2bd a7c8 39bd
000002c0: 6754 4fbd 43d5 ed3d 3863 8dbd 0bd2 d03d
000002d0: 0db2 c6bd 383d 24bd 9923 883d 59fc d0bd
000002e0: f82b 1bbd cf4e e13d d2ca b03d 3957 d6bb
000002f0: 4337 20bd c0be f83b 9798 e3bd 4cc0 a63d
00000300: dc1b a2bc 8cc9 bc3d 426a 8a3d b1ab 183d
00000310: f5fc cebd 2af6 20bd 1ec9 dcbd c559 bbbc
00000320: c343 2ebb cc58 023e 6670 cf3d 0d47 e4bb
00000330: 2834 023e 830e 023e d7ce dd3d 08f5 30bd
00000340: b708 7f3d f2b2 e23d 85ce 7fbd 3354 e0bd
00000350: 700b 023e 2a7f ac3c 6a25 afbd 0d67 bebd
00000360: b451 66bd 8ef9 9abd cada e8bc d3ed cabc
00000370: b3a4 063e b411 1c3d 2913 5a3d 1ab7 76bd
00000380: 774f 93bd 85c4 d8bd 2548 f43d 9719 a53d
00000390: ea26 97bd 0a2e dbbd 9f53 b33d 084d ea3d
000003a0: 8995 f1bd 58b3 7ebc 4879 f1bd df11 f4bd
000003b0: cfab 393d db9f e1bc 267d e23a 2d82 083e
000003c0: 9050 0f3d eda1 d1bd 23bb 0fbc db75 f63d
000003d0: 4062 4f3d 38a2 b73d b711 1d3d 6e65 e0bd
000003e0: f9ce dbbd 59bd ae3c d81c eb3d 63be fbbd
000003f0: 76d0 7f3d 71c8 96bd 3d79 4fbc 9de5 ca3d

fc2.weight f4 [128, 256]
-0.021506742 -0.036437094 0.02560576 -0.058526486 -0.0017246306 0.061296947 0.022489838 0.01675731
0.051765613 -0.017538026 0.037271485 -0.046706267 0.018688202 0.026115917 -0.04577008 0.04959076
-0.032586277 -0.026196726 0.0070821196 0.015765674 -0.02451627 0.030888334 0.009492695 0.034974404
-0.057165623 0.021202229 0.016961701 0.059269987 0.060880706 0.017732307 -0.020203188 0.047050975
-0.00723657 0.044464655 -0.033579335 0.02004905 -0.0020669252 0.040526927 -0.04592365 -0.049221292
0.05323474 -0.035579212 -0.032766238 0.014858149 -0.036711656 -0.049636498 -0.05556777 -0.041517623
-0.01250352 0.062066585 -0.022352278 -0.05303528 0.023702972 -0.020223372 0.010717988 -0.0002022013
0.028326482 -0.029140435 0.014969759 -0.059812017 -0.035920054 -0.04643867 -0.00955493 0.04429815
0.007984012 -0.05036603 -0.035349756 -0.013377808 -0.039294057 -0.022018597 -0.038118906 0.01016368
-0.013916507 0.046219446 -0.054892294 0.051613785 -0.061053388 0.05681342 -0.061417073 -0.046790175
0.051356718 -0.05170872 0.039809346 -0.05837494 -0.055902913 -0.028982073 0.033521824 -0.04997375
0.036791474 -0.04501638 -0.04884281 -0.0028113723 0.023659587 0.026470229 0.047478847 0.052521348
-0.012291804 -0.012240738 0.03247747 -0.012328453 0.034608006 0.055785432 -0.053353317 -0.010033689
-0.016653016 -0.016710624 0.059919007 -0.026610754 -0.015813865 -0.019993238 0.045441218 -0.05363942
0.059327267 0.0130178705 0.02778954 0.027108118 -0.021703482 -0.04562316 0.051661916 -0.04866959
-0.03259054 -0.027843088 -0.012464926 -0.028194517 -0.036008835 -0.03966491 -0.047019728 0.012044951
0.042470932 0.015217759 0.003876552 -0.029824585 -0.033857435 0.0031728 -0.02755104 -0.038566373
-0.016662493 0.042161047 -0.045011654 -0.035848007 0.049822703 -0.04980965 0.00021927059 0.03245613
-0.005672686 -0.016048856 -0.023938648 0.0064318925 -0.029088162 -0.056451015 -0.031143405 0.039267242
0.0037588254 0.014831632 -0.04824709 -0.0021538213 -0.0023059547 0.041290715 0.04602123 0.044566594
-0.025884815 -0.03638374 -0.01407589 -0.04399346 -0.02948416 0.0153886825 -0.0045896024 -0.0018462315
0.045743622 0.024777137 0.036352783 -0.02781535 0.017046325 0.038869157 -0.0042607337 -0.05538804
0.012357272 0.031266004 -0.02740971 0.0070216954 -0.05157508 -0.0012177154 -0.008444555 0.056785412
-0.04161878 -0.0058217347 -0.0053132027 0.055489197 -0.012012541 -0.025032878 -0.015114501 -0.0039327517
-0.04547607 -0.013043605 0.0464186 0.04158672 -0.03172794 0.010244131 0.0562485 0.020730995
0.050445102 0.053490296 -0.0471029 0.037606217 -0.013699278 -0.014419667 0.009911858 -0.0073670223
0.022917703 -0.01923965 0.03386178 0.05098018 0.022535712 0.028572991 0.036471583 0.021761075
0.03709022 0.0337115 0.00029759854 0.035719454 -0.016489707 -0.03971477 -0.016952433 -0.003790304
0.00517381 -0.020953491 -0.012353212 -0.02733332 -0.036529094 0.010836534 0.022141948 0.0071494356
-0.05218762 0.04099951 0.032062046 0.02381879 0.032714717 -0.046591543 -0.015718006 -0.039949246
0.05574672 0.009455666 -0.047340512 0.03537686 0.012043193 0.04051494 -0.052209623 -0.05261664
0.007854596 -0.024451457 0.059913978 -0.03372152 -0.025725663 0.062467694 0.0060144663 -0.038853906
00000000: e82e b0bc 103f 15bd 2cc3 d13c 78b9 6fbd
00000010: 000d e2ba 8212 7b3d 9c3c b83c a046 893c
00000020: 2e08 543d e8ab 8fbc fca9 183d 124f 3fbd
00000030: 0018 993c 0cf1 d53c 6879 3bbd ae1f 4b3d
00000040: 3079 05bd 849a d6bc 2011 e83b 0427 813c
00000050: 58d6 c8bc 8809 fd3c 4087 1b3c 5241 0f3d
00000060: 8026 6abd 4cb0 ad3c 44f3 8a3c 16c5 723d
00000070: 0c5e 793d 5843 913c 2881 a5bc 86b8 403d
00000080: c020 edbb 9220 363d 7c8a 09bd e83d a43c
00000090: 4075 07bb 90ff 253d 701a 3cbd 449c 49bd
000000a0: ac0c 5a3d 82bb 11bd e435 06bd 986f 733c
000000b0: f65e 16bd a44f 4bbd 089b 63bd 620e 2abd
000000c0: 90db 4cbc 8839 7e3d 201c b7bc 863b 59bd
000000d0: bc2c c23c 7cab a5bc 809a 2f3c 0006 54b9
000000e0: f00c e83c ecb7 eebc b843 753c 72fd 74bd
000000f0: e820 13bd 7a36 3ebd 488c 1cbc fa71 353d
00000100: 60cf 023c 9c4c 4ebd e8ca 10bd 982e 5bbc
00000110: cef2 20bd 5860 b4bc 9222 1cbd 9085 263c
00000120: 1002 64bc 9a50 3d3d bed6 60bd fa68 533d
00000130: 1e13 7abd 30b5 683d 7890 7bbd 0ea7 3fbd
00000140: 6c5b 523d 86cc 53bd 200f 233d 901a 6fbd
00000150: 74fa 64bd d06b edbc 2e4e 093d 46b1 4cbd
00000160: a8b2 163d 1863 38bd 660f 48bd 003f 38bb
00000170: c0d1 c13c 18d8 d83c 2e79 423d a020 573d
00000180: 9063 49bc 608d 48bc 1807 053d 48fd 49bc
00000190: 20c1 0d3d 447f 643d 0289 5abd 5864 24bc
000001a0: e86b 88bc b8e4 88bc a26d 753d ccfe d9bc
000001b0: 148c 81bc dcc8 a3bc 9220 3a3d 02b5 5bbd
000001c0: 2601 733d e848 553c e4a6 e33c d811 de3c
000001d0: 80cb b1bc 5adf 3abd 729b 533d c459 47bd
000001e0: a87d 05bd 3017 e4bc b039 4cbc 30f8 e6bc
000001f0: 007e 13bd ac77 22bd c297 40bd 3058 453c
00000200: 00f6 2d3d e853 793c c00d 7e3b b052 f4bc
00000210: 18ae 0abd c0ee 4f3b b8b2 e1bc c6f7 1dbd
00000220: c87f 88bc 10b1 2c3d 245e 38bd 5cd5 12bd
00000230: e412 4c3d 3405 4cbd 00ec 6539 b8f0 043d
00000240: f0e1 b9bb e478 83bc fc1a c4bc a0c2 d23b
00000250: 4c4a eebc 2e39 67bd 7420 ffbc b0d6 203d
00000260: a056 763b 6000 733c be9e 45bd 2027 0dbb
00000270: 801f 17bb 7420 293d c280 3c3d 768b 363d
00000280: 640c d4bc 1e07 15bd 909e 66bc 7c32 34bd
00000290: c488 f1bc d020 7c3c 6064 96bb 40fd f1ba
000002a0: aa5d 3b3d 6cf9 ca3c a8e6 143d 04dd e3bc
000002b0: bca4 8b3c 4435 1f3d a09d 8bbb 92de 62bd
000002c0: 2876 4a3c c810 003d 548a e0bc 4016 e63b
000002d0: 6440 53bd c09b 9fba 085b 0abc d297 683d
000002e0: 7478 2abd 40c4 bebb 601a aebb a448 633d
000002f0: 40d0 44bc c011 cdbc d0a2 77bc 50de 80bb
00000300: 1e45 3abd d8b4 55bc 6e21 3e3d d656 2a3d
00000310: 28f5 01bd 00d7 273c d464 663d 0cd4 a93c
00000320: 869f 4e3d a418 5b3d f8ee 40bd fa08 1a3d
00000330: f072 60bc 7840 6cbc 5865 223c 1067 f1bb
00000340: e8bd bb3c 789c 9dbc a6b2 0a3d 98d0 503d
00000350: d09c b83c e811 ea3c 3a63 153d 4844 b23c
00000360: eaeb 173d 1215 0a3d 0007 9c39 904e 123d
00000370: 6c15 87bc f4ab 22bd d4df 8abc c066 78bb
00000380: 1089 a93b a8a6 abbc 2065 4abc 20ea dfbc
00000390: 889f 15bd b88b 313c 0863 b53c d045 ea3b
000003a0: b0c2 55bd 1aef 273d 7e53 033d a01f c33c
000003b0: deff 053d c6d6 3ebd 0cc3 80bc d2a1 23bd
000003c0: ac56 643d f0eb 1a3c 20e8 41bd 54e7 103d
000003d0: d050 453c fef2 253d c2d9 55bd 8c84 57bd
000003e0: 90b0 003c 6c4e c8bc 5c68 753d 941f 0abd
000003f0: a0be d2bc 20de 7f3d 0015 c53b 4625 1fbd

fc2.bias f4 [128]
-0.026964635 0.046414636 0.0028346702 0.048567206 0.027296193 -0.03167677 0.0042939708 -0.025026768
-0.037425235 0.0022200197 0.037497 -0.043243818 -0.0024630353 -0.026096426 -0.00056832284 -0.00024665147
-0.010830931 -0.056054935 -0.046545886 -0.047800876 -0.001890704 -0.033102922 0.005485274 -0.012617856
-0.015887469 -0.024292521 -0.062498458 0.0029642656 0.012196884 0.004756406 0.053299457 0.0061784983
-0.036928087 -0.031092212 -0.039347038 0.046235874 -0.051747836 -0.035236195 0.021825656 0.013704196
-0.058075152 -0.0010911822 0.058908276 0.008447468 0.006487906 0.027299702 0.05594045 -0.0056804046
0.023678146 -0.025017224 0.028033756 -0.03243705 -0.056755595 0.01790797 0.015761815 0.037738256
-0.0187774 -0.045879185 0.028419979 -0.013019837 0.033907875 0.03488408 0.025511995 0.001695104
-0.058756754 0.01397188 0.024196409 0.009991199 -0.009022608 -0.026337303 -0.034754783 -0.062359728
0.042175382 0.030475698 0.037856303 0.057956316 0.013460822 0.042092793 -0.03553889 -0.03926348
0.047513187 0.019842505 0.04325398 0.039601423 0.050064765 0.0054853186 -0.056899548 0.047648303
0.055529706 -0.06121754 -0.045159653 0.030147195 0.01220388 -0.025799267 -0.03993664 0.060299955
0.030846938 -0.060218573 0.05958339 -0.028035276 0.04505326 -0.007066004 0.055672094 0.00939554
-0.034850284 0.0462526 -0.03171631 -0.036809683 -0.055117503 -0.025547184 -0.057876088 0.03520637
-0.023286358 -0.060654595 -0.039352775 -0.047179952 0.02439741 -0.0394629 0.04775972 -0.062128253
-0.020224571 0.00043096393 -0.062341698 0.012507096 0.04364802 -0.041853763 -0.035964757 -0.015081264
00000000: f0e4 dcbc 461d 3e3d e0c5 393b 68ee 463d
00000010: 449c df3c 80bf 01bd 70b4 8c3b f004 cdbc
00000020: 344b 19bd c07d 113b 7496 193d 6e20 31bd
00000030: e06a 21bb 2cc8 d5bc 80fb 14ba 0051 81b9
00000040: 3874 31bc dc99 65bd e6a6 3ebd daca 43bd
00000050: 80d1 f7ba ee96 07bd d0bd b33b 20bb 4ebc
00000060: 7026 82bc 1c01 c7bc 62fe 7fbd 2044 423b
00000070: 70d5 473c a0db 9b3b 8850 5a3d 0075 ca3b
00000080: e841 17bd 18b5 febc 5c2a 21bd d461 3d3d
00000090: 8af5 53bd d453 10bd b8cb b23c 9087 603c
000000a0: 36e0 6dbd 0006 8fba ce49 713d 4067 0a3c
000000b0: 8098 d43b a0a3 df3c d021 653d b022 babb
000000c0: acf8 c13c ecf0 ccbc 0ca7 e53c b6dc 04bd
000000d0: 8e78 68bd bcb3 923c ec1e 813c 6e93 1a3d
000000e0: 10d3 99bc d0eb 3bbd 04d1 e83c 2851 55bc
000000f0: fce2 0a3d 9ce2 0e3d 88fe d03c 402e de3a
00000100: ecaa 70bd 50ea 643c 8c37 c63c 20b2 233c
00000110: 90d3 13bc 54c1 d7bc 085b 0ebd ea6c 7fbd
00000120: 18c0 2c3d 2ca8 f93c 360f 1b3d 9a63 6d3d
00000130: c88a 5c3c 7e69 2c3d 3a91 11bd bed2 20bd
00000140: 309d 423d c08c a23c 162b 313d 1a35 223d
00000150: b610 4d3d 30be b33b 800f 69bd de2a 433d
00000160: 1e73 633d 3ebf 7abd 54f9 38bd 40f7 f63c
00000170: c8f2 473c fc58 d3bc 9a94 23bd 16fd 763d
00000180: b8b2 fc3c c0a7 76bd b60d 743d 3caa e5bc
00000190: c489 383d f089 e7bb 6c08 643d c0ef 193c
000001a0: 2cbf 0ebd 5e73 3d3d f6e8 01bd c0c5 16bd
000001b0: e4c2 61bd 5448 d1bc 7a0f 6dbd 8e34 103d
000001c0: 08c3 bebc f470 78bd 6030 21bd c43f 41bd
000001d0: 14dd c73c daa3 21bd b29f 433d 327a 7ebd
000001e0: 00ae a5bc 00f3 e139 025a 7fbd 90ea 4c3c
000001f0: 44c8 323d da6e 2bbd c84f 13bd 6817 77bc

fc3.weight f4 [13, 128]
-0.030181559 -0.075512126 -0.022898098 0.063364044 0.005404838 -0.016605068 -0.016568337 0.03861703
-0.0429221 0.03454934 0.05436233 -0.06544747 0.056872167 0.044630025 -0.07006554 0.044032045
-0.081974484 0.062334407 0.027606595 -0.041957334 0.04591348 0.05990225 0.014772723 0.06145577
0.0139310295 0.057129104 -0.061969217 0.04041357 0.05631625 0.012967552 0.040517207 -0.029669136
-0.060430802 -0.046666276 0.05073763 -0.06320987 -0.051101577 -0.024737228 -0.0029859883 -0.06353417
0.049762424 -0.05626188 0.0049360385 0.061898526 -0.02740503 -0.016166646 0.045097463 0.015131434
-0.02136291 0.06824208 0.005239928 -0.066643625 -0.02294939 0.050385714 0.0781623 0.06782236
0.08807661 0.060519323 -0.062601715 0.07519434 0.039111402 -0.03927243 0.07153572 -0.04511876
0.01992899 0.021685133 0.0023121762 0.07903224 -0.06593024 -0.054202218 -0.008654381 0.07366581
-0.022641182 0.0009602211 -0.026183898 0.0028543952 0.027753552 0.012849446 -0.031699065 -0.08288504
0.073945865 -0.029899364 0.023306174 -0.017945716 0.02191812 -0.05702516 -0.039393436 -0.04641944
0.07500907 0.07647093 -0.01700344 -0.034077097 -0.038017605 0.019837657 -0.0044309087 0.028600376
0.082843915 0.053520605 0.03840403 0.022103766 0.0780475 0.08580663 0.015485637 0.034277864
0.022449898 -0.037982613 -0.012217675 -0.08819245 -0.052488387 -0.024319986 -0.0030203168 -0.042683914
-0.031917766 0.04972442 0.032406386 -0.08649046 0.07921744 0.07329049 -0.055782806 0.061195042
0.0126931975 -1.384524e-05 0.013569641 -0.05803423 -0.054538306 0.079963215 0.085305 -0.023618303
0.006912199 0.041882366 0.011577655 -0.011119677 -0.0027183453 -0.021030614 -0.023135923 0.08265407
-0.01693393 0.07368123 -0.08827256 0.009300408 0.036098376 0.0146215735 0.017723465 0.065491885
-0.08674434 0.04259937 -0.084430486 0.0061496045 0.05559617 -0.06106995 -0.08752371 0.016016455
-0.032019023 0.0134987505 0.005512502 -0.035120536 -0.032015726 0.06986555 0.07628396 -0.052231126
0.021548998 -0.047085974 0.036265023 0.038341746 -0.0809966 0.018503362 0.02518941 -0.02257736
-0.08188618 -0.07796414 0.05642646 -0.04963332 -0.009745826 -0.054702226 0.055861305 0.0004495383
0.05591082 -0.07797324 -0.044191625 -0.021681646 0.022857826 0.035632506 0.063728176 0.06084656
0.022726517 0.08092785 -0.084329486 0.03418044 -0.03471068 0.04632615 0.06104932 -0.063764565
0.029021665 -0.04454965 -0.004222261 -0.056909088 -0.0015485489 -0.024110546 0.07794249 -0.02443157
-0.06607261 -0.011752248 0.005490744 -0.08006309 0.032505937 -0.057799038 -0.0481861 -0.03346859
-0.06229892 -0.03518891 0.07581417 0.04213883 -0.08308509 -0.022038765 0.08629096 0.062335536
0.01779894 0.03247604 -0.020130072 0.00299211 0.085192695 -0.048572555 0.056582503 0.044615433
-0.0594774 0.06978898 0.08253697 0.021195702 -0.060136385 0.015120371 0.023134246 0.022790233
0.03599379 -0.0809484 -0.010984375 0.018438604 -0.019713534 -0.058378115 -0.05004388 0.049024433
0.08585242 0.023568 -0.03865492 -0.04690838 -0.0030866875 -0.021120775 -0.07823881 -0.0008949883
0.015702346 -0.03346878 0.029002383 0.08123443 -0.008594111 -0.0031858908 -0.04489436 0.06629154
00000000: 513f f7bc 1aa6 9abd cb94 bbbc 02c5 813d
00000010: 111b b13b 5a07 88bc 52ba 87bc e42c 1e3d
00000020: 15cf 2fbd 9c83 0d3d 09ab 5e3d 5309 86bd
00000030: caf2 683d f9cd 363d 867e 8fbd f25a 343d
00000040: 3de2 a7bd 5d52 7f3d 3a27 e23c 74db 2bbd
00000050: c60f 3c3d 105c 753d 4b09 723c 0cb9 7b3d
00000060: f93e 643c 3500 6a3d 6fd3 7dbd b388 253d
00000070: deab 663d db75 543c 5ff5 253d b00c f3bc
00000080: 4a86 77bd 2325 3fbd 43d2 4f3d 2d74 81bd
00000090: e34f 51bd baa5 cabc 92b0 43bb 341e 82bd
000000a0: afd3 4b3d db72 66bd 7ebe a13b 4f89 7d3d
000000b0: 8380 e0bc ea6f 84bc 1eb8 383d d6e9 773c
000000c0: 4501 afbc 81c2 8b3d b4b3 ab3b 747c 88bd
000000d0: 5c00 bcbc 4061 4e3d 8e13 a03d 73e6 8a3d
000000e0: 8261 b43d 1ce3 773d 5435 80bd 7dff 993d
000000f0: 4733 203d 21dc 20bd 5281 923d 73ce 38bd
00000100: 1f42 a33c 05a5 b13c e187 173b a8db a13d
00000110: 6f06 87bd 2503 5ebd 1bcb 0dbc 1ade 963d
00000120: 007a b9bc 59b7 7b3a 9d7f d6bc ce10 3b3b
00000130: 6b5b e33c 7c86 523c e1d6 01bd a2bf a9bd
00000140: ee70 973d 83ef f4bc 97ec be3c e502 93bc
00000150: a18d b33c 3793 69bd 035b 21bd 5022 3ebd
00000160: 5b9e 993d ca9c 9c3d cc4a 8bbc 6d94 0bbd
00000170: 59b8 1bbd 9582 a23c 2831 91bb 564b ea3c
00000180: 12aa a93d 6c38 5b3d 8b4d 1d3d f512 b53c
00000190: 5ed7 9f3d 63bb af3d 78b7 7d3c f266 0c3d
000001a0: d9e8 b73c a893 1bbd a52c 48bc 3e9e b4bd
000001b0: 10fe 56bd b53a c7bc 82f0 45bb 54d5 2ebd
000001c0: 34bc 02bd d5ab 4b3d 8fbc 043d e921 b1bd
000001d0: c13c a23d 5319 963d 837c 64bd a7a7 7a3d
000001e0: 21f7 4f3c da48 68b7 3353 5e3c 4db5 6dbd
000001f0: 8f63 5fbd c1c3 a33d 63b4 ae3d 2c7b c1bc
00000200: ba7f e23b d88c 2b3d 34b0 3d3c 4e2f 36bc
00000210: 4426 32bb 6548 acbc 8c87 bdbc 8946 a93d
00000220: 06b9 8abc 2fe6 963d 3ec8 b4bd bd60 183c
00000230: e4db 133d 538f 6f3c cd30 913c 9c20 863d
00000240: 04a7 b1bd ad7c 2e3d e4e9 acbd 9f82 c93b
00000250: cfb8 633d 7c24 7abd a23f b3bd f134 833c
00000260: 6126 03bd dd29 5d3c 38a2 b43b 8dda 0fbd
00000270: ec22 03bd ab15 8f3d c43a 9c3d 4ef0 55bd
00000280: 8687 b03c 39dd 40bd a28a 143d 3c0c 1d3d
00000290: 8ce1 a5bd 5d94 973c 065a ce3c 28f4 b8bc
000002a0: f1b3 a7bd aaab 9fbd 6f1f 673d 4f4c 4bbd
000002b0: f5ac 1fbc 710f 60bd d3ce 643d 02b0 eb39
000002c0: be02 653d 6fb0 9fbd 4702 35bd b59d b1bc
000002d0: 5640 bb3c 64f3 113d eb83 823d 3e3a 793d
000002e0: f62c ba3c 80bd a53d f0b4 acbd ca00 0c3d
000002f0: c92c 0ebd 7dc0 3d3d da0e 7a3d ff96 82bd
00000300: d8be ed3c b279 36bd e45a 8abb 8119 69bd
00000310: aef8 caba 7b83 c5bc 50a0 9f3d b724 c8bc
00000320: 1451 87bd 808c 40bc b3eb b33b 1ef8 a3bd
00000330: f224 053d afbe 6cbd ca5e 45bd 5c16 09bd
00000340: 272d 7fbd 3f22 10bd 7644 9b3d c499 2c3d
00000350: 8428 aabd a48a b4bc 51b9 b03d 8c53 7f3d
00000360: 15cf 913c 9905 053d d2e7 a4bc 4717 443b
00000370: 8279 ae3d 04f4 46bd 0ec3 673d acbe 363d
00000380: 939e 73bd 86ed 8e3d 2509 a93d 9ca2 ad3c
00000390: 9251 76bd 6fbb 773c 0884 bd3c 95b2 ba3c
000003a0: 396e 133d 46c8 a5bd cff7 33bc 8e0c 973c
000003b0: 477e a1bc e41d 6fbd d0fa 4cbd d8cd 483d
000003c0: 65d3 af3d ae11 c13c 9f54 1ebd 0023 40bd
000003d0: 064a 4abb 7a05 adbc ab3b a0bd a69d 6aba
000003e0: 35a2 803c 8f16 09bd 6896 ed3c 3d5e a63d
000003f0: 50ce 0cbc 61ca 50bb 26e3 37bd dcc3 873d

fc3.bias f4 [13]
0.0179825 -0.06794999 0.08335379 -0.008783414 -0.06935365 0.037624482 -0.06235272 0.08188838
0.0034839849 0.056103345 0.048439488 -0.020138733 0.040481426
00000000: 0950 933c 5d29 8bbd 64b5 aa3d 4fe8 0fbc
00000010: 4909 8ebd 211c 1a3d 9165 7fbd 18b5 a73d
00000020: 9153 643b 9fcc 653d 7c68 463d fcf9 a4bc
00000030: dacf 253d
