Player 1_policy_net.pth (torch, 195328 bytes, 6 tensors)

fc1.weight f4 [256, 52]
0	0xbd564480	-0.05231142
1	0xbdab9458	-0.08377904
2	0xbd204dfc	-0.03913687
3	0xbd05010a	-0.032471694
4	0x3e013e27	0.12621365
5	0xbdcc187c	-0.099656075
6	0x3b9acd96	0.004724215
7	0x3dc77ab2	0.09740199
8	0xbcd4b37c	-0.025964491
9	0xbc7cd769	-0.015432217
10	0xbcba81e4	-0.022767015
11	0x3de7ef3f	0.113249294
12	0x3d9b290f	0.07576191
13	0xbd99a847	-0.075027995
14	0xbcdc57be	-0.026897307
15	0xbddec876	-0.10878079
16	0x3dafcb0b	0.08583649
17	0x3e05eb89	0.13078131
18	0x3e02355a	0.12715665
19	0xbde22c44	-0.11043599
20	0x3d64a454	0.055820778
21	0xbd5687e1	-0.052375678
22	0x3d82b237	0.06381648
23	0xbd27e1c1	-0.04098678
24	0x3de0a623	0.10969188
25	0x3d3b2641	0.04569078
26	0x3d9f631b	0.07782575
27	0x3dfb2f8b	0.122649275
28	0x3ca911a0	0.020638287
29	0x3d0b4dc8	0.034009725
30	0x3d45a62d	0.04825418
31	0x3e0ce9c1	0.13761045
32	0xbe0b8bfe	-0.13627622
33	0x3ae8c6e3	0.0017759468
34	0xbc189297	-0.0093122935
35	0xbd69f2e9	-0.057116423
36	0xbc8651d5	-0.016396442
37	0xbda174b9	-0.07883591
38	0xbd0be8e8	-0.034157664
39	0xbddb330a	-0.10703094
40	0x3dc94f2b	0.09829553
41	0x3bd31489	0.006441657
42	0xbc620d60	-0.013797134
43	0x3dce06a7	0.100598626
44	0x3daf0b4d	0.08547077
45	0x3c6310e8	0.013859011
46	0x3d91e6b6	0.07124083
47	0xbd8b7b30	-0.068106055
48	0xbda90745	-0.0825334
49	0xbceecae9	-0.02914949
50	0x3d7e190d	0.06203561
51	0x3d3d21b8	0.046174735
52	0x3de9ed28	0.11422187
53	0xbd9e3545	-0.07725004
54	0xbae04a20	-0.0017111935
55	0x3daffc5c	0.085930556
56	0xbd805222	-0.062656656
57	0x3ccd4c7e	0.025060888
58	0xbd484eac	-0.048903152
59	0x3df753c7	0.12076526
60	0xbd451b39	-0.048121665
61	0x3d19eb2e	0.0375778
62	0xbdf6b84e	-0.12046872
63	0x3d3da6e1	0.046301726
64	0xbdc013bf	-0.09378766
65	0xbdd54daf	-0.104152076
66	0x3dbe8183	0.09302046
67	0x3dae599b	0.08513185
68	0xbc4da640	-0.012551844
69	0x3d0e51a5	0.03474583
70	0xbe077d1c	-0.13231319
71	0x3dcb7db9	0.09936089
72	0xbdd5bec4	-0.10436776
73	0xbe06e8dc	-0.13174766
74	0x3df4ea73	0.1195878
75	0x3a2a8804	0.0006505253
76	0x3c01deff	0.007926702
77	0xbd99f897	-0.07518118
78	0x3d9ecc52	0.07753815
79	0xbcb662a4	-0.022263832
80	0x3dcd709c	0.10031244
81	0xbca51079	-0.020149456
82	0x3db6634a	0.08905657
83	0x3de4c263	0.11169889
84	0xbdcb0fb4	-0.099151045
85	0xbda05b3b	-0.07829901
86	0x3d9e2bbc	0.077231854
87	0x3d8f6196	0.07001035
88	0xbde5249f	-0.111886255
89	0x3c56f601	0.013120175
90	0x3d719a02	0.058984764
91	0x3d978294	0.07397953
92	0x3bdbfe4b	0.0067136637
93	0x3dafcdc6	0.0858417
94	0xbe056ee0	-0.13030577
95	0xbd34529e	-0.044024102
96	0xbaad3130	-0.0013213512
97	0x3c90d78f	0.017680911
98	0xbd81d5d8	-0.063396156
99	0xbd9e720b	-0.07736596
100	0xbd1d61a9	-0.038423214
101	0xbdfadd9a	-0.122492984
102	0x3da5aa74	0.08089152
103	0xbdc2dad4	-0.095143944
104	0x3da70272	0.08154763
105	0x3de8707e	0.11349581
106	0xbdc01692	-0.09379305
107	0x3dc3294b	0.095293604
108	0x3de4e362	0.11176182
109	0x3cfad584	0.03061939
110	0x3dd03acb	0.10167464
111	0x3de4e824	0.1117709
112	0x3d63c9b1	0.05561227
113	0xbccae17b	-0.02476572
114	0x3d5ae849	0.05344418
115	0xbdc18d3f	-0.09450769
116	0x3d768a11	0.060190264
117	0x3dcd5c9b	0.10027429
118	0xbde0116d	-0.10940824
119	0xbe0d6708	-0.13808835
120	0xbc747b61	-0.014921994
121	0x3d042abc	0.032267317
122	0xbd5e77e2	-0.054313548
123	0x3dce0fee	0.10061632
124	0xbe0785bf	-0.13234614
125	0xbd8c1dee	-0.06841646
126	0x3da7a369	0.08185465
127	0xbdd1367d	-0.10215471
128	0x3da2ae9b	0.079434596
129	0xbd42481a	-0.047432043
130	0x3d08fb24	0.03344263
131	0xbdef65da	-0.116893485
132	0x3dd4e03a	0.1039433
133	0xbdcb8db5	-0.09939138
134	0xbd9decaf	-0.077111594
135	0x3dc405a8	0.09571391
136	0x3cbd607c	0.023117296
137	0x3d20d34a	0.039264
138	0xbd5ad9ef	-0.053430494
139	0x3dff3530	0.124613166
140	0xbd1f25c2	-0.038854368
141	0xbdcf97f9	-0.10136408
142	0x3dfa60a8	0.12225467
143	0x3cc63c60	0.02419871
144	0x3ddca4bd	0.10773609
145	0xbde1562f	-0.11002766
146	0x3d7483ec	0.059696123
147	0xbd8d4a06	-0.068988845
148	0x3de7741f	0.11301445
149	0x3df40db4	0.11916676
150	0xbdcd1bd8	-0.100150764
151	0x3dba6d7f	0.09102916
152	0x3afc5cd3	0.0019253738
153	0xbdd5626f	-0.10419165
154	0xbccc283c	-0.024921529
155	0xbdd81f0c	-0.10552797
156	0xbd916ca7	-0.07100802
157	0x3c4ffc02	0.012694361
158	0x3db56730	0.08857572
159	0x3ce344ce	0.02774277
160	0xbdc5b609	-0.09653861
161	0xbdb8bf25	-0.09020833
162	0x3984717f	0.00025261563
163	0x3e0a67f4	0.13516217
164	0x3da23211	0.07919706
165	0xbdb493d0	-0.088172555
166	0xbd6f7630	-0.05846232
167	0xbdb14d20	-0.086572886
168	0xbdda6681	-0.10664082
169	0xbe059198	-0.13043821
170	0x3d8035aa	0.062602356
171	0xbd7e61df	-0.062105056
172	0xbbdcebfc	-0.0067419987
173	0x3d918ce5	0.071069516
174	0x3cc0cb86	0.023534548
175	0x3cf643a7	0.030061556
176	0xbdabd65a	-0.08390494
177	0x3db20be6	0.08693676
178	0xbddfdafb	-0.10930439
179	0x3dee2c03	0.11629488
180	0xbdfee8ef	-0.12446772
181	0xbdf70d57	-0.12063091
182	0xbcff680a	-0.03117754
183	0xbdaeb049	-0.085297175
184	0x3d820d4c	0.063501924
185	0xbd38971e	-0.04506599
186	0xbd49167c	-0.04909371
187	0x3e0d2eb9	0.13787355
188	0xbd24bb91	-0.04021794
189	0x3d9668ee	0.073442325
190	0xbdafd5e7	-0.085857205
191	0x3d858414	0.065193325
192	0xbd96bc1c	-0.07360098
193	0xbdf4d78e	-0.11955176
194	0xbdbfe59a	-0.09369965
195	0xbd9d0769	-0.07667429
196	0x3d88cac5	0.066793
197	0xbd6776f2	-0.05650992
198	0xbdc2ccc7	-0.095117144
199	0x3d09c21f	0.033632394
200	0x3d75d82e	0.06002062
201	0xbda9b88f	-0.08287155
202	0x3d8b94b6	0.06815474
203	0x3cdd3c73	0.027006363
204	0xbe057945	-0.13034542
205	0x3dc18cef	0.09450709
206	0x3d3d4c1e	0.04621517
207	0xbd446c82	-0.047955044
208	0x3e0c4775	0.13699134
209	0x3c487fdd	0.012237516
210	0x3ddc64a8	0.10761386
211	0x3d84f113	0.06491294
212	0x3b27d407	0.0025608556
213	0xbd5bc461	-0.05365408
214	0xbdb1e6f3	-0.08686628
215	0xbd2a4ea8	-0.04157892
216	0xbbf8bfb9	-0.0075912145
217	0x3d1eda94	0.03878267
218	0xbd8dc92c	-0.06923136
219	0xbdf65815	-0.12028519
220	0xbc2cde66	-0.010551071
221	0x3d977778	0.07395834
222	0x3e04a49c	0.12953418
223	0xbdcf72a6	-0.10129289
224	0xbdbec349	-0.093145914
225	0xbdbecd43	-0.09316494
226	0x3dd68031	0.10473669
227	0xbc9fd923	-0.019512719
228	0xbd171fee	-0.036895685
229	0x3e080e60	0.13286734
230	0x3dd1fcdd	0.10253308
231	0xbe0b69e2	-0.1361461
232	0xbcc007c0	-0.023441195
233	0x3b044d70	0.0020187758
234	0x3ca9d349	0.020730631
235	0x3e035f65	0.12829359
236	0x3db8e406	0.09027867
237	0x3e0c5832	0.13705519
238	0x3d865074	0.06558314
239	0x3cb07e57	0.021544619
240	0xbdfd5679	-0.12370009
241	0xbdaf2065	-0.08551101
242	0x3ae4db6f	0.0017460416
243	0x3d8177a8	0.06321651
244	0x3dae4b02	0.085104
245	0xbe05290b	-0.13003938
246	0x3ba0a0e5	0.0049019926
247	0x3dd0a597	0.10187834
248	0xbdbce596	-0.092234775
249	0x3be85adc	0.0070909094
250	0xbe018f23	-0.12652259
251	0xbd524821	-0.05133832
252	0xbde59def	-0.11211764
253	0xbd6d3832	-0.05791492
254	0xbc103a94	-0.008803029
255	0x3c39e402	0.011345865

fc1.bias f4 [256]
0	0x3b2e4f22	0.002659746
1	0xbdbd17d8	-0.092330635
2	0xbd7b6d93	-0.061383795
3	0x3dc7574f	0.0973345
4	0x3dd1e990	0.10249627
5	0x3ce7dda3	0.028303927
6	0x3e0b49fc	0.13602442
7	0x3e06e886	0.13174638
8	0x3defe3d7	0.11713379
9	0xbdd876a3	-0.10569503
10	0xbd5783ad	-0.05261581
11	0x3d641c7f	0.05569124
12	0xbdf0a85e	-0.117508635
13	0x3e07d235	0.13263781
14	0x3dfb074d	0.12257252
15	0xbd4af4b4	-0.049549773
16	0x3d00e47f	0.03146791
17	0xbe0c17e9	-0.13680996
18	0xbd4caed6	-0.049971424
19	0xbd8483f2	-0.06470479
20	0xbe04e71d	-0.12978788
21	0x3b8cd89f	0.004298284
22	0xbdca36cc	-0.09873733
23	0x3d0e6f5b	0.034774166
24	0x3d99d6e2	0.07511689
25	0x3e05307a	0.13006774
26	0x3cf0f5bf	0.029414056
27	0xbcaf7147	-0.02141632
28	0x3dd5fc61	0.10448528
29	0x3deb1557	0.114786796
30	0xbc207eec	-0.0097958855
31	0x3d920638	0.071300924
32	0x3d32ef4c	0.043685243
33	0x3d1fb904	0.038994804
34	0x3caa372b	0.02077826
35	0xbd2549ba	-0.040353514
36	0x3de891b7	0.11355918
37	0xbc13b7db	-0.0090160025
38	0x3cabd2ca	0.020974535
39	0x3d0832f2	0.03325171
40	0x3dfa3a45	0.12218145
41	0x3d595bbf	0.05306601
42	0x3d386084	0.04501392
43	0xbdc72faa	-0.09725888
44	0x3d1d755f	0.038442012
45	0x3d836b14	0.06416908
46	0x3d843eb9	0.06457276
47	0xbc0ffb8d	-0.008788002
48	0x3d5d717e	0.054063313
49	0x3dd7dd1d	0.10540221
50	0xbc62180e	-0.01379968
51	0x3dc1a60d	0.094555
52	0x3d02eeda	0.031966068
53	0xbdd880fa	-0.10571475
54	0x3dae862c	0.08521685
55	0xbdd34c23	-0.10317256
56	0xbdf2bfbf	-0.11852979
57	0x3d0399df	0.032129165
58	0xbdc29489	-0.09500987
59	0xbd29c314	-0.041445807
60	0x3d67f2df	0.056628104
61	0xbdee87ff	-0.11647033
62	0xbe06dc33	-0.13169937
63	0x3d941fcf	0.072326295
64	0xbe0c6e8a	-0.13714042
65	0xbb448b78	-0.0029990356
66	0xbda54626	-0.080700204
67	0x3e089359	0.13337459
68	0x3cbed115	0.023293057
69	0xbda26475	-0.07929317
70	0x3d7912a6	0.0608088
71	0xbc4a733c	-0.012356576
72	0x3e0abc98	0.13548505
73	0x3d9689af	0.0735048
74	0x3e00ea6d	0.12589426
75	0xbe0ad9af	-0.13559602
76	0xbda61f40	-0.08111429
77	0x3ddfe26f	0.10931861
78	0x3c42f6f4	0.0118996985
79	0x3dcbf1c7	0.09958225
80	0xbdcce5df	-0.10004782
81	0xbd6a7a04	-0.05724527
82	0x3d0dd661	0.034628276
83	0x3d580c60	0.052746177
84	0x3de711fc	0.11282727
85	0x3e0540e9	0.13013043
86	0xbdc3d60a	-0.09562309
87	0x3d6ff74c	0.05858545
88	0x3dcce7c7	0.100051455
89	0xbdf63c64	-0.12023237
90	0xbdb89047	-0.09011894
91	0xbe0a432c	-0.13502187
92	0xbbbb51b1	-0.0057165255
93	0x3dec7af0	0.11546886
94	0xbd26790b	-0.04064278
95	0xbe088264	-0.1333099
96	0xbde78c95	-0.11306111
97	0x3d17857e	0.036992542
98	0x3de0364c	0.10947856
99	0xbd4e562d	-0.050375152
100	0xbd7b66e2	-0.061377414
101	0x3dd8baa8	0.10582477
102	0xbc941e32	-0.018080804
103	0x3ccab2b6	0.02474342
104	0xbd1b4b35	-0.03791352
105	0x3ab90a4a	0.0014117446
106	0x3dfca5cb	0.1233631
107	0xbc4e59b2	-0.012594627
108	0x3d319144	0.043351427
109	0x3cb6e6b2	0.022326801
110	0x3d8a5c14	0.06755844
111	0xbddab534	-0.10679093
112	0x3e09fce9	0.13475384
113	0x3dffa302	0.12482263
114	0xbdc47ec7	-0.09594493
115	0xbd73e0b8	-0.05954048
116	0x3e0b1da4	0.13585526
117	0x3e096033	0.13415603
118	0x3df275de	0.11838888
119	0xbe087e1d	-0.13329358
120	0xbd9c1c6f	-0.07622611
121	0xbc0fa49a	-0.008767271
122	0xbdd0e226	-0.101993844
123	0xbe07dac4	-0.13267046
124	0x3df34f56	0.118803665
125	0x3d224cf4	0.03962417
126	0xbddb7d80	-0.107172966
127	0xbda1d768	-0.079024136
128	0x3d00088f	0.031258162
129	0xbe061282	-0.13092998
130	0x3d82561e	0.06364082
131	0x3ddaf04b	0.106903635
132	0xbddb5004	-0.10708621
133	0xbd7630cb	-0.060105126
134	0x3d8dd9a4	0.06926277
135	0x3df4870d	0.119398214
136	0x3ddc578f	0.10758888
137	0x3a85aae6	0.0010198026
138	0xbdf5042c	-0.11963686
139	0xbd8dc2da	-0.069219306
140	0x3de389a4	0.11110237
141	0x3d09f43c	0.033680186
142	0xbc791f45	-0.015205209
143	0x3cd22deb	0.025656661
144	0x3d6497c7	0.05580881
145	0x3e057848	0.13034165
146	0x3ddfb094	0.109223515
147	0xbe03a8c3	-0.12857346
148	0x3dd10b32	0.102072135
149	0xbde099c7	-0.10966831
150	0xbda4c5eb	-0.08045562
151	0x3dea50f8	0.11441225
152	0xbd216edd	-0.039412368
153	0xbd0ae821	-0.03391278
154	0xbca99e12	-0.020705257
155	0x3d9c3171	0.07626618
156	0xbde92faa	-0.11386044
157	0x3d821420	0.06351495
158	0xbdbe3ff4	-0.09289542
159	0x3c77b2c3	0.015118304
160	0x3df466f7	0.119337015
161	0x3b966c1f	0.0045905258
162	0xbc80c625	-0.015719483
163	0x3e074f87	0.13213931
164	0x3d077381	0.033069137
165	0xbc0e2595	-0.008675952
166	0xbc9f0e26	-0.019415926
167	0xbd901bc0	-0.07036543
168	0xbd9cea41	-0.07661868
169	0xbd197a2d	-0.03747003
170	0x3d788df0	0.060682237
171	0xbccb9b3c	-0.024854295
172	0xbd977995	-0.07396237
173	0x3c8b9e24	0.01704318
174	0xbdbf3731	-0.09336699
175	0x3de841f1	0.11340702
176	0x3de7a1de	0.113101706
177	0xbda9271b	-0.08259412
178	0x3dd00572	0.101572886
179	0x3e066acd	0.13126679
180	0x3d11b785	0.03557541
181	0x3dc0c6c9	0.09412915
182	0x3b4f2980	0.003161043
183	0x3df82bc6	0.12117724
184	0xbcbda493	-0.023149764
185	0xbd73dcd6	-0.059536777
186	0x3c80f694	0.015742578
187	0x3df0afe4	0.117522985
188	0x3e04f333	0.12983398
189	0xbd5d50f9	-0.0540323
190	0x3df517b7	0.11967414
191	0x3d9b7a2d	0.075916626
192	0xbd6b774a	-0.05748681
193	0xbdf7a3e3	-0.12091806
194	0xbd68e8c7	-0.05686262
195	0xbddbec0d	-0.107383825
196	0x3ce8b57c	0.028406851
197	0x3c42546d	0.011860949
198	0x3dfc4783	0.12318327
199	0xbc363f36	-0.011123469
200	0x3d85db3f	0.065359585
201	0xbc3b84ef	-0.011445268
202	0xbdde42fd	-0.10852621
203	0x3d91cd06	0.07119183
204	0xbcafc244	-0.021454938
205	0x3d34e264	0.044161215
206	0x3d008cc5	0.03138425
207	0xbc5009ce	-0.01269765
208	0x3d256baf	0.0403859
209	0x3d461d00	0.0483675
210	0xbd962c35	-0.073326506
211	0x3d97a598	0.074046314
212	0xbc1acf0a	-0.009448776
213	0xbdf0eae5	-0.117635526
214	0x3daef9b0	0.08543718
215	0x3cf6b08c	0.030113481
216	0x3d53b172	0.051682897
217	0xbdc00cce	-0.09377442
218	0x3dffb79f	0.12486195
219	0xbd313779	-0.043265793
220	0xbdf8a656	-0.12141101
221	0x3db0a313	0.08624854
222	0x3ddd2c2c	0.10799441
223	0x3e09811f	0.13428162
224	0xbd098cb7	-0.03358146
225	0x3d310a5a	0.043222763
226	0xbdbfc4a4	-0.09363678
227	0xbe08f419	-0.13374366
228	0x3dd30c9b	0.10305139
229	0xbd33aaed	-0.04386418
230	0xbda1d32b	-0.07901605
231	0x3b8ad190	0.0042364076
232	0x3db1a15a	0.086733535
233	0xbd884ba6	-0.06655054
234	0x3bfe5361	0.0077614044
235	0x3dfbe894	0.1230022
236	0xbc868ff5	-0.016426066
237	0xbdc9c204	-0.09851459
238	0xbd8f0a39	-0.06984372
239	0x3d24eaed	0.040263105
240	0xbd4a0926	-0.04932513
241	0xbb86f986	-0.004119101
242	0xbd7ad47a	-0.06123779
243	0x3cc6f290	0.024285585
244	0xbe09ca85	-0.13456161
245	0x3d91f53d	0.071268536
246	0xbd48b72e	-0.04900282
247	0x3d93f994	0.072253376
248	0x3e035388	0.12824833
249	0x3d59f1e5	0.053209204
250	0x3d9923c8	0.07477528
251	0x3d4d9a4a	0.05019597
252	0xbdefbcb9	-0.11705918
253	0xbd84b754	-0.064802796
254	0xbd3d53ad	-0.046222378
255	0xbddbb572	-0.10727967

fc2.weight f4 [128, 256]
0	0x3cda1be0	0.02662462
1	0xbcfae048	-0.030624524
2	0x3d12d28a	0.035845317
3	0x3a91d580	0.001112625
4	0x3d4ccf84	0.05000259
5	0xbd5f317c	-0.05449055
6	0xbc43f310	-0.011959806
7	0x3d743f28	0.059630543
8	0x3d18e100	0.03732395
9	0x3cba2708	0.02272369
10	0x3c47e570	0.012200698
11	0xbcfeb47c	-0.031091921
12	0x3d4a17ee	0.049339227
13	0xbd291364	-0.041278258
14	0x3d61aeb6	0.055098258
15	0x3d747534	0.059682086
16	0x3d0e4d14	0.034741476
17	0x3d09728a	0.0335565
18	0xbc06c588	-0.008225806
19	0xbd20f3c6	-0.03929498
20	0xbd702bd2	-0.05863554
21	0x3c6db370	0.014508113
22	0x3d3c3846	0.045952104
23	0xbc8fcbb8	-0.017553195
24	0x3bd48780	0.0064858794
25	0x3c83b3e0	0.016076982
26	0xbd2aa2b2	-0.041659065
27	0xbc1bd278	-0.009510629
28	0xbc2ba9c8	-0.010477491
29	0x3b63aca0	0.0034740344
30	0x3d4cbeae	0.049986534
31	0x3ce16fb0	0.027519077
32	0xbd4b33d8	-0.04960999
33	0x3cf39f6c	0.029739104
34	0x3cc2112c	0.023689829
35	0x3cbb897c	0.022892706
36	0xbc91297c	-0.017719977
37	0xbc9ba878	-0.01900123
38	0x3d222e0e	0.039594702
39	0xbc83556c	-0.016031943
40	0xbd462cae	-0.048382454
41	0x3bc29930	0.0059386715
42	0x3ced3f3c	0.028960817
43	0xbd4a3e0a	-0.04937557
44	0x3a56e900	0.0008198172
45	0xbc5b9220	-0.013401538
46	0xbc28b598	-0.010297202
47	0xbd29732a	-0.041369595
48	0xbcd54e90	-0.026038438
49	0x3cf5fb88	0.030027166
50	0xbd367a20	-0.04455006
51	0x3d701a38	0.058618754
52	0xbc2297b0	-0.00992386
53	0xbd6ba1fa	-0.05752752
54	0x3cea4240	0.028596044
55	0xbc606e58	-0.013698183
56	0xbd6651b4	-0.056230262
57	0xbcc46a44	-0.023976453
58	0xbd3188dc	-0.04334341
59	0x3d4a454c	0.049382493
60	0xbb14aa60	-0.002268456
61	0x3d757fbc	0.05993627
62	0xbd6f2f0e	-0.058394484
63	0xbcfaf25c	-0.030633144
64	0x3c41c978	0.011827819
65	0xbd558dce	-0.05213719
66	0x3d04f3f8	0.03245923
67	0x3cc891b8	0.024483547
68	0xbd37582e	-0.04476183
69	0x3d5688c2	0.052376516
70	0x3ae4c680	0.0017454177
71	0x3d4de090	0.050262988
72	0xbc670660	-0.014100641
73	0xbc7d23f8	-0.01545047
74	0x3d55ddc8	0.05221346
75	0xbcb9e684	-0.022692926
76	0xbc85f8cc	-0.016353987
77	0xbcb5f110	-0.022209674
78	0x3b0abe20	0.0021170452
79	0x3d0fc4ba	0.035099722
80	0x3ce9a7e0	0.028522432
81	0x3d72aaac	0.059244797
82	0xbd20a6e2	-0.03922165
83	0xbcc4e538	-0.024035081
84	0x3d3bf60c	0.045888945
85	0x3c542e70	0.012950525
86	0x3cb00048	0.02148451
87	0xbcaf255c	-0.021380119
88	0xbb8105f0	-0.0039374754
89	0xbd39e9fa	-0.045389153
90	0xbb5edf00	-0.003400743
91	0xbcefbb28	-0.029264048
92	0xbcf51140	-0.029915452
93	0x3d2f49fa	0.04279516
94	0xbbeffa50	-0.0073235407
95	0xbc38f310	-0.011288419
96	0x3bfa1810	0.007632263
97	0xbd0e0c90	-0.03467995
98	0xbaddbc00	-0.001691699
99	0xbc106558	-0.008813225
100	0xbd3162dc	-0.04330717
101	0xbd2cf4da	-0.042225696
102	0xbbdfcc20	-0.0068297535
103	0x3be98780	0.0071267486
104	0x3d7670f0	0.0601663
105	0x3d0e7846	0.03478267
106	0x3d183570	0.037160337
107	0x3d30841c	0.04309474
108	0xbd437e80	-0.04772806
109	0xbce107d0	-0.027469546
110	0xbd05f644	-0.03270556
111	0xbc037378	-0.008023135
112	0x3cd0ded8	0.025496885
113	0x3add4280	0.001688078
114	0x3c3caae8	0.011515357
115	0x3ca902bc	0.020631187
116	0x3cda6c90	0.026663095
117	0xbcadbe3c	-0.021208875
118	0x3d2de468	0.042454153
119	0x3d6cb4b0	0.057789505
120	0x3bbd54d0	0.0057779327
121	0xbd50f34c	-0.051013276
122	0x3c9f4098	0.01943998
123	0x3d5781e4	0.052614108
124	0xbd18cbb4	-0.03730364
125	0xbd322544	-0.04349257
126	0xbd62c23e	-0.055361025
127	0x3d4f02fa	0.050539948
128	0x3ca94120	0.020660937
129	0xbaf6e700	-0.0018837154
130	0xbc4c6a18	-0.012476467
131	0xbd7e54ca	-0.06209258
132	0x3bd5d170	0.006525211
133	0xbd0c9386	-0.034320377
134	0xbc4e8500	-0.012604952
135	0x3d5fbb7a	0.05462215
136	0xbd0513fc	-0.03248976
137	0xbd7e94dc	-0.062153682
138	0xbcceae24	-0.025229521
139	0x3cc159f8	0.02360247
140	0xbc2c1c00	-0.010504723
141	0xbccce138	-0.025009736
142	0xbcb60be0	-0.02222246
143	0x39de4300	0.00042393059
144	0x3ccb1338	0.024789438
145	0xba26e200	-0.0006366074
146	0x3cbb8550	0.022890717
147	0x3c32a4b0	0.010903522
148	0x3ccfee00	0.025382042
149	0x3d4c179c	0.049827203
150	0xbcedd474	-0.02903197
151	0x3d2293b2	0.039691634
152	0xbad7ff80	-0.0016479343
153	0xbcc5debc	-0.02415406
154	0xbcae2618	-0.021258399
155	0x3ce33ac4	0.027737983
156	0x3ce16898	0.027515694
157	0xbc9b71ec	-0.01897522
158	0x3d34f322	0.044177182
159	0x3d1e7a80	0.038691044
160	0xbbf2bea0	-0.007407978
161	0x3c9ad784	0.018901594
162	0xbc9dd14c	-0.01926484
163	0xbc082c38	-0.008311324
164	0x3d05a99e	0.032632463
165	0x3d755e74	0.05990453
166	0xbd7d3b2c	-0.06182401
167	0x3c88e0c0	0.016708732
168	0xbd4a55dc	-0.049398288
169	0xbd1e722a	-0.038683094
170	0x3d4996aa	0.04921595
171	0x3d57e08a	0.05270437
172	0xbb79c4c0	-0.0038111657
173	0xbc8320c0	-0.016006827
174	0xbd4bbd9e	-0.04974138
175	0xbbf34180	-0.0074235797
176	0x3c29c850	0.0103627
177	0xbc6b3110	-0.014354959
178	0xbd4a97f8	-0.049461335
179	0xbd70d93e	-0.05880093
180	0xbb975e20	-0.004619375
181	0xbc774ca8	-0.01509396
182	0xbd1f70e2	-0.038926013
183	0x3d3033ca	0.04301814
184	0xbd14a1dc	-0.036287174
185	0x3d12303c	0.03569053
186	0xbc5614d0	-0.0130664855
187	0x3c876b80	0.016530752
188	0xbc90239c	-0.017595105
189	0xbcc0e7b8	-0.023547992
190	0x3d3ce7d4	0.046119526
191	0xbd241050	-0.04005462
192	0xbd27d396	-0.04097327
193	0xbbf42040	-0.0074501336
194	0x3cc8d798	0.024516866
195	0x3d1386b0	0.03601712
196	0xbcb68da8	-0.022284344
197	0xbcbe6e38	-0.023245916
198	0x3d14cde4	0.036329165
199	0xbc6341f8	-0.013870709
200	0xbcc43cb8	-0.023954734
201	0x3ae286c0	0.001728259
202	0xbd012d98	-0.031537622
203	0xbc8f17dc	-0.017467432
204	0x3d6da806	0.058021568
205	0x3d6816c8	0.05666235
206	0xbd0fb0d8	-0.03508076
207	0x3d5566e6	0.052100085
208	0x3d3efa16	0.04662522
209	0x3d0e4fd4	0.0347441
210	0x3c3676c8	0.011136718
211	0x3d44f1fa	0.04808233
212	0x3d5201a6	0.051271103
213	0xbd48c1ec	-0.049013063
214	0x3cc468a4	0.023975678
215	0x3d276832	0.040870853
216	0xbd3a944e	-0.04555159
217	0xbd4575ec	-0.048208162
218	0xbb912c10	-0.0044303015
219	0xbcfba0bc	-0.030716293
220	0x3c4b9888	0.012426503
221	0x3d70897c	0.058724865
222	0x3ca47ad0	0.020078093
223	0xbd43d2c8	-0.04780844
224	0x3c040ae0	0.008059233
225	0x3d01d4e0	0.031697154
226	0xbd7faffe	-0.0624237
227	0xbcffa2b8	-0.03120552
228	0x3c6c3fc0	0.014419496
229	0xbd337bf4	-0.043819383
230	0x3d4bc094	0.049744204
231	0xbd46dca4	-0.048550263
232	0x3b5ce7a0	0.0033707395
233	0xbd769b86	-0.060206912
234	0x3c9ffbc0	0.019529223
235	0x3bbdc990	0.0057918504
236	0x3cb6ea40	0.022328496
237	0xbd13adda	-0.03605447
238	0x3d196240	0.037447214
239	0x3c7d3188	0.015453704
240	0x3cbb80dc	0.022888593
241	0x3a3b3a00	0.00071421266
242	0x3cbfc6d4	0.023410238
243	0x3d5ffc20	0.054683805
244	0xbd7153a2	-0.05891765
245	0x3d29cb22	0.04145349
246	0xbbbbb980	-0.0057289004
247	0x3ca902b8	0.02063118
248	0xbc3ec968	-0.011644699
249	0x3c268208	0.010162838
250	0xbd4fd8ba	-0.050743796
251	0xbd2371de	-0.039903514
252	0xbd090650	-0.033453286
253	0x3d523ab0	0.0513255
254	0x3d5313c8	0.051532537
255	0xbd090874	-0.033455327

fc2.bias f4 [128]
0	0xbc230ad0	-0.009951308
1	0x3b946c30	0.0045294985
2	0x3c9a7790	0.01885584
3	0x3c9738e0	0.018459737
4	0xbd1fef52	-0.039046593
5	0x3d0c4a24	0.034250394
6	0x3cc02584	0.023455389
7	0xbd32c3e0	-0.043643832
8	0x3c0c9ef0	0.0085828155
9	0x3c84ee5c	0.01622694
10	0xbcc4fe64	-0.024047084
11	0xbd429484	-0.047504917
12	0xbd7f48f6	-0.06232544
13	0xbd0755c4	-0.033040777
14	0xbd2bdd44	-0.041959062
15	0x3c97ec20	0.01854521
16	0xbd4cdba0	-0.05001414
17	0xbd7f1592	-0.06227643
18	0x3b859050	0.0040760413
19	0xbd189a22	-0.037256368
20	0xba9eb140	-0.0012107268
21	0xbd630800	-0.05542755
22	0xbc03cc28	-0.00804428
23	0xba998f00	-0.0011715591
24	0x3cba4cf4	0.022741772
25	0x3d74abb4	0.05973406
26	0x3d5d3ee2	0.054015048
27	0x3d682000	0.056671143
28	0xbd4e4da4	-0.050367013
29	0x3d6518da	0.055931903
30	0xbca3df10	-0.020003825
31	0xbc646800	-0.013940811
32	0x3d7db468	0.061939627
33	0x3c4feff8	0.01269149
34	0xbd4e9488	-0.05043462
35	0xbcbe8538	-0.023256883
36	0x3c699528	0.014256753
37	0xbd4649f8	-0.048410386
38	0x3c9589b4	0.018254139
39	0xbcccf9f0	-0.025021523
40	0xbbdddc40	-0.0067706406
41	0x3b563d80	0.0032690465
42	0xbd1b917c	-0.03798054
43	0xbd647982	-0.05577994
44	0xbd35d8c8	-0.04439619
45	0xbd73916c	-0.059464857
46	0xbd5dbff8	-0.054138154
47	0xbc249370	-0.010044917
48	0xbd39064e	-0.04517203
49	0xbd70e4ea	-0.05881206
50	0xbbf37d50	-0.00743071
51	0xbd1f8bd8	-0.038951725
52	0x3ca97944	0.020687707
53	0xbbfb9dc0	-0.0076787174
54	0xbb397f20	-0.0028304532
55	0xbcbd86b8	-0.023135528
56	0x3c8a8250	0.016907841
57	0xbd1031e8	-0.035203844
58	0xbd3a472c	-0.04547803
59	0x3c99c158	0.018768951
60	0xbd509bd2	-0.05092985
61	0x3c8bb6d8	0.01705496
62	0xbcff3cec	-0.03115698
63	0xbab5ee80	-0.0013880283
64	0xbd10fee0	-0.035399318
65	0xbd788514	-0.06067379
66	0x3caebc30	0.02132997
67	0xbca12b28	-0.019673899
68	0x3c835650	0.016032368
69	0x3cd4cf60	0.02597779
70	0xbcc90320	-0.024537623
71	0xbcee47e4	-0.029087014
72	0xbd5c7928	-0.05382648
73	0xbceae68c	-0.028674386
74	0xbbf07250	-0.007337846
75	0x3c426a58	0.011866175
76	0xbd0c644c	-0.034275338
77	0xbd6bd0a2	-0.057572015
78	0xbd725a00	-0.059167862
79	0x3d757f6c	0.059935972
80	0x3d08a0c6	0.03335645
81	0x3c09da30	0.008413836
82	0xbd6ee490	-0.058323443
83	0x3d1fc8fe	0.03901004
84	0x3bc5f250	0.006040849
85	0xbd7c0b42	-0.061534174
86	0x3bde0470	0.0067754313
87	0xbd676520	-0.056492925
88	0x3cff34c0	0.031153083
89	0xbd3c9364	-0.046039
90	0x3cd8845c	0.026430301
91	0x3c0105b8	0.007874899
92	0x3d6b3640	0.057424784
93	0x3c9aa790	0.018878728
94	0x3d2da7ee	0.04239648
95	0x3d4f57fe	0.050621025
96	0xbce46db4	-0.027884342
97	0x3d7f0b40	0.06226659
98	0xbd1a7e80	-0.037718296
99	0xbd3defaa	-0.04637114
100	0xbd16c35e	-0.03680741
101	0xbd61e9e0	-0.05515468
102	0xbd662640	-0.05618882
103	0xbd4fa86c	-0.05069773
104	0x3c2d4288	0.010574944
105	0xbb1f6ee0	-0.0024327561
106	0x3c28ee50	0.010310724
107	0x3d6348c6	0.055489324
108	0x3b25c5a0	0.0025294796
109	0x3c7627b0	0.015024111
110	0xbd4e0ed6	-0.050307117
111	0x3cf258ac	0.029583298
112	0x3d6b3330	0.057421863
113	0xbc844cb4	-0.016149856
114	0x3d03e856	0.032203995
115	0x3d1c5174	0.038163617
116	0xbad19e80	-0.0015992671
117	0xbd03a074	-0.032135442
118	0xbb3e3de0	-0.002902858
119	0x3d664850	0.056221306
120	0xbbf05480	-0.007334292
121	0xbcfdca3c	-0.030980222
122	0xbd0d60b2	-0.034516044
123	0x3d06c360	0.032901168
124	0x3d795524	0.060872212
125	0x3ccf0584	0.025271185
126	0x3d05b160	0.03263986
127	0x3ca1698c	0.019703649

fc3.weight f4 [13, 128]
0	0x3d8d52b3	0.06900539
1	0xbda9719a	-0.08273621
2	0x3d8d32b4	0.068944365
3	0x3d04eb62	0.03245104
4	0xbd7712fa	-0.06032083
5	0xbd750d55	-0.059827168
6	0x3d832bf0	0.06404865
7	0xbd8b44d5	-0.06800238
8	0xbc2e513e	-0.010639487
9	0x3d83845f	0.06421732
10	0xbd8bfdfa	-0.068355516
11	0xbd65c0fa	-0.05609224
12	0x3d9256fb	0.071454965
13	0x3d90cecc	0.070706934
14	0x3d5f3fd9	0.05450425
15	0x3d65ab63	0.05607165
16	0xbd6996f5	-0.05702873
17	0x3da72fc4	0.081634074
18	0xbd6d2c93	-0.057903837
19	0xbcb38ee9	-0.02191873
20	0xbd34bd14	-0.04412563
21	0xbd648c4d	-0.055797864
22	0x3d911dca	0.0708576
23	0x3cfb96d8	0.030711576
24	0xbd6b342d	-0.057422806
25	0xbd3b7eb8	-0.045775145
26	0x3d040e74	0.032240346
27	0xbd91c10c	-0.07116899
28	0x3bd4ca9f	0.006493881
29	0xbd15665e	-0.036474578
30	0x3b2ac294	0.002605592
31	0xbd8db8b4	-0.06919995
32	0xbbb739d7	-0.005591612
33	0xbd0cf01f	-0.034408685
34	0xbcd5c37b	-0.026094189
35	0x3d54f51d	0.05199157
36	0xbd13c12f	-0.036072906
37	0xbbd5de7b	-0.006526766
38	0xbaf75b2e	-0.0018871778
39	0xbcc4c003	-0.02401734
40	0xbd9af62a	-0.07566483
41	0x3d4323b6	0.04764148
42	0xbd85d6c4	-0.06535104
43	0xbdb3374f	-0.08750784
44	0xbabc5942	-0.0014369863
45	0x3da757b9	0.08171029
46	0xbdae7a6a	-0.085194424
47	0x3d0b0422	0.03393949
48	0xbb1e9cb9	-0.00242023
49	0xbc802bb9	-0.015645849
50	0x3c973158	0.018456146
51	0x3da0afc4	0.07846025
52	0x3da9d061	0.08291698
53	0x3d75f86f	0.060051378
54	0xbd1d7df5	-0.0384502
55	0x3da806ec	0.08204445
56	0x3d6f16f7	0.05837151
57	0x3d8196e9	0.06327612
58	0xbd31d6a1	-0.043417577
59	0x3caaa35b	0.020829847
60	0x3d871091	0.06594957
61	0xbcee5258	-0.029091999
62	0x3d7469fa	0.05967138
63	0x3dab7b93	0.08373179
64	0xbdac2182	-0.084048286
65	0x3d342c90	0.04398781
66	0xbd9c1a1a	-0.07622166
67	0xbc114a9d	-0.008867887
68	0xbd0abf30	-0.033873737
69	0xbd973084	-0.073823005
70	0x3d0c540d	0.034259845
71	0xbc86e08e	-0.016464498
72	0xbbad3d35	-0.0052868375
73	0xbd8fd7d1	-0.070235856
74	0xbcd0c97e	-0.025486704
75	0x3d577780	0.0526042
76	0xbd2de31a	-0.04245291
77	0x3c48c47f	0.01225388
78	0x3d1acf83	0.037795555
79	0x3d5dd84f	0.054161366
80	0xbd963388	-0.073340476
81	0xbd93c7f5	-0.07215873
82	0xbd4e657e	-0.05038976
83	0xbc041e27	-0.0080638295
84	0x3d651841	0.055931333
85	0x3ceb01c0	0.028687358
86	0x3c8d2c34	0.017232992
87	0x3dadb40d	0.084816076
88	0x3d9168e8	0.071000874
89	0x3d114116	0.03546246
90	0x3c600fcb	0.01367564
91	0x3b1decd4	0.002409746
92	0x3d34f6d1	0.044180695
93	0xbbb97b8c	-0.00566048
94	0x3cf18c0c	0.029485725
95	0xbd59af65	-0.053145785
96	0xbd761764	-0.0600809
97	0x3d73f41a	0.059558965
98	0xbd8a7f39	-0.06762547
99	0x3da92221	0.08258463
100	0x3d43e3b1	0.047824565
101	0x3cd18809	0.025577562
102	0x3d3c28e9	0.045937452
103	0xbd7ee08e	-0.06222587
104	0x3d8e3814	0.0694429
105	0x3ca886e7	0.020572139
106	0xbc69fb75	-0.014281143
107	0x3c41a55b	0.011819209
108	0xbb2f5c9e	-0.0026758085
109	0x3d549f61	0.051909808
110	0x3dab8030	0.08374059
111	0x3d95c6ce	0.073133096
112	0x3d90baac	0.07066855
113	0xbd8f445c	-0.069954604
114	0x3c0e6a8f	0.008692398
115	0x3cb74b73	0.022374844
116	0x3da67e0c	0.0812951
117	0xbba7f4c7	-0.0051256153
118	0xb95643b0	-0.00020433846
119	0x3d10cac5	0.035349626
120	0xbd044f90	-0.03230244
121	0xbd47db6e	-0.04879325
122	0x3c15d6f4	0.009145487
123	0xbdb3d3f6	-0.08780663
124	0xbdace392	-0.08441843
125	0x3d233cda	0.039852954
126	0xbd917526	-0.071024224
127	0x3d7ce126	0.061738156
128	0x3cf7a6cc	0.030230902
129	0xbd753d23	-0.059872758
130	0xbda7d385	-0.08194641
131	0x3d782ca6	0.060589455
132	0x3d94f575	0.0727338
133	0xbd4540fb	-0.048157673
134	0xbda8890c	-0.082292646
135	0x3c19c283	0.009384754
136	0x3b2ebbc0	0.00266622
137	0xbd9d80b1	-0.076905616
138	0x3caf2094	0.02137784
139	0x3b87119c	0.0041219722
140	0xbd290eec	-0.041273996
141	0x3d45904c	0.048233315
142	0x3d79486e	0.06086009
143	0xbbc123a5	-0.0058941417
144	0x3b91a2e9	0.004444469
145	0x3da8e8a7	0.082475
146	0x3d957923	0.072984956
147	0x3b8f2b77	0.004369195
148	0x3d22fb99	0.039790723
149	0xbd6c7131	-0.057725135
150	0xbc34e29c	-0.011040356
151	0x3c0c3326	0.008557117
152	0xbb83d1b3	-0.004022801
153	0x3b535435	0.0032246236
154	0x3da2acd6	0.07943122
155	0xbd2a16af	-0.04152554
156	0x3d8553e8	0.065101445
157	0x3b9a857f	0.004715621
158	0x3d7478fb	0.05968569
159	0x3d3801dd	0.044923652
160	0xbbea17be	-0.0071439436
161	0x3d765a91	0.060144965
162	0x3c811d22	0.015760962
163	0xbd555852	-0.052086182
164	0x3da3cbaa	0.0799783
165	0xbd258839	-0.040413115
166	0x3d1fde28	0.039030224
167	0xbd3a6936	-0.045510493
168	0x3daaef30	0.08346403
169	0xbd5b2eec	-0.053511545
170	0xbd9a62d1	-0.07538379
171	0xbd649606	-0.055807136
172	0xbda14bc8	-0.07875782
173	0xbbdc3359	-0.0067199883
174	0x3da608e2	0.08107163
175	0xbdb10d9b	-0.08645173
176	0x3c266cdd	0.010157791
177	0x3d91a290	0.071110845
178	0x3d6c8dfe	0.0577526
179	0xbda9d5a3	-0.08292701
180	0xbd9dcec4	-0.07705453
181	0xbd15fbc1	-0.036617044
182	0xbd63eecb	-0.055647653
183	0x3cda2767	0.026630117
184	0xbd65d639	-0.0561125
185	0x3c679bd5	0.014136274
186	0xbd524755	-0.05133756
187	0xbcb33976	-0.021877985
188	0xbd8829a1	-0.06648565
189	0xbc9adba7	-0.018903567
190	0x3d12ccae	0.03583973
191	0x3dad13b8	0.08451027
192	0x3d2d5f04	0.042326942
193	0xbd255b91	-0.040370528
194	0xbc869d78	-0.016432509
195	0xbda803ba	-0.08203836
196	0xbcfdcc32	-0.030981157
197	0x3c9360c9	0.017990487
198	0xbcc83d98	-0.024443433
199	0xbad17662	-0.0015980715
200	0x3ca22b9c	0.019796185
201	0x3da7cc16	0.08193223
202	0x3d162bf3	0.036663007
203	0xbda04dd2	-0.07827343
204	0x3d32f3e1	0.043689612
205	0xbd425b07	-0.04745009
206	0x3d6087ed	0.05481713
207	0xbc8df4ef	-0.017328708
208	0x3cdd1bcf	0.0269908
209	0x3d340012	0.04394538
210	0xbd123b45	-0.035701055
211	0x3bdfdf72	0.0068320567
212	0x3d4d20cf	0.050080117
213	0x3cf0f864	0.029415317
214	0xbd4d111c	-0.050065145
215	0xbc5b6d45	-0.013392751
216	0x3c2376c1	0.009977044
217	0xbd93eee6	-0.07223301
218	0x3ca4b58d	0.020106101
219	0x3daddbd0	0.084891915
220	0x3d9cb511	0.07651723
221	0xbc50be5b	-0.012740697
222	0xbd0425a5	-0.032262463
223	0xbd771f95	-0.060332853
224	0xbcff9ec1	-0.03120363
225	0x3c61ce11	0.01378204
226	0xbd5fb3ea	-0.05461494
227	0x3d4820f8	0.048859566
228	0xbdaaaa37	-0.08333247
229	0x3c952a27	0.018208576
230	0xbd193f52	-0.037413903
231	0xbdb25bd0	-0.08708918
232	0x3d6d70d2	0.057968922
233	0x3d56d086	0.052444957
234	0xbd8f6785	-0.07002167
235	0xbd98bdfb	-0.07458111
236	0xbc9844d4	-0.018587507
237	0xbd533012	-0.051559515
238	0xbdade548	-0.084909976
239	0x3d28ddd8	0.04122719
240	0x3d3343f8	0.043765992
241	0xbc239282	-0.009983661
242	0xbd9880da	-0.074464515
243	0x3d1ff951	0.039056126
244	0x3c3cdff6	0.011528006
245	0x3ce26163	0.027634328
246	0xbd072264	-0.03299178
247	0x3d934ca2	0.07192351
248	0xbd36c933	-0.044625472
249	0x3c319889	0.01083959
250	0xbcaa86b8	-0.020816192
251	0x3bf1d141	0.0073796813
252	0xbd4ddf1c	-0.0502616
253	0xbd2c4177	-0.04205462
254	0xbd194092	-0.037415095
255	0xbda97c64	-0.08275679

fc3.bias f4 [13]
0	0xbc98a24d	-0.018632079
1	0xbbca6c0e	-0.006177432
2	0xbd07ba0b	-0.03313641
3	0x3c18ca0e	0.009325517
4	0xbd2d3721	-0.042288903
5	0xbd887da0	-0.06664586
6	0x3dac663b	0.084179364
7	0x3dafc5a1	0.085826166
8	0xbcec0b88	-0.028814092
9	0x3d81df74	0.063414484
10	0xbcdf8be0	-0.027288377
11	0xbab1f35b	-0.0013576554
12	0xbd8b950a	-0.06815536
