Player 2_policy_net.pth (torch, 195328 bytes, 6 tensors)

fc1.weight f4 [256, 52]
00000000: 8071 cabc 35e4 17bb 0443 b93d 5e83 c2bc
00000010: b7d7 003e 5a0b e0bd 09db dbbc 5813 093e
00000020: 8716 003e 4f58 bc3d 772f 1f3d a157 6f3d
00000030: 8ba3 d3bd 85cc ccbd 1cc7 fa3d e7ae e7bc
00000040: fd42 c8bc 2815 b3bd 9cf1 b13d 58ca de3d
00000050: aa2f 5cbc c05f 4abc 48ac be3d 8754 6cbd
00000060: efc9 b23d 7caa f4bd 2396 e2bd c747 b53c
00000070: 2456 c8bd f576 b63c c9b5 58bb 024d b03d
00000080: b771 08be 1477 f7bd a0c5 923d ca27 b93c
00000090: e666 92bd cc84 de3b c250 413c 591d bf3d
000000a0: 222f 91bc 9aff f63d b91c 17bc b981 bc3d
000000b0: 2635 083d 1f28 74bd 88f3 d8bd ad9f 653d
000000c0: 5b26 bbbd 07cc dcbd 2b2c a63c c0ba 3fbd
000000d0: 4150 fc3d 8edb 3bbd e671 c03d 6fa4 58bd
000000e0: 8d74 c1bd 169c fdbd b6f3 ff3d 3e98 bebd
000000f0: 0724 0b3e 6f25 b93d 390f 253d b889 f3bd
00000100: c729 4fbb 4806 81bc 0f97 ce3d fb1e 073e
00000110: 23d7 583c fca8 9bbd 7edc 043e 0b48 b03d
00000120: c20a c9bd c844 b9bd 0795 60bd 245b c83d
00000130: 0dac d23d 5241 54ba 157a f33d 5158 e33d
00000140: 1475 dcbd 4188 a9bd 4b5d c9bc 1d3a 74bd
00000150: 39e8 833d bfd0 01bd bb4f 273b fab6 41bd
00000160: fca5 4bbd 063f 083e ffd6 173d 7bdb e5bd
00000170: cdfa dabd 8b20 63bd a90e 8dbd ca17 9fbd
00000180: 56e0 8cbd 2c8a 6abd 3f2f 9e3d ff22 f6bc
00000190: 0079 b8bd 89f0 fe3c 093e febd 7001 233d
000001a0: e6d8 d93d f89b c43d c88c debd 0f45 c8bd
000001b0: b90c c93d e5b3 733c 0703 f1bd fff6 933d
000001c0: c008 093e a26b 66bd f2db 8d3b 9bc1 c1bd
000001d0: 48c5 5bbd e3d0 0a3e 738a 46bd 1baa 3abd
000001e0: 6e42 d43d 8d5d f6bc 27a1 a2bd 24d0 573a
000001f0: f0e1 b13c a93b 833d b18b ccbd ceb7 483d
00000200: 817d 6fbd 09d6 853d de53 a8bd 5d0c 9cbd
00000210: e3ef 893d cb12 0d3e 9c94 ef3c e0ce 60bd
00000220: 2db0 b53d 10ca 2c3d 52da 9e3c 5c22 7bbd
00000230: 0fdb a53d 8a8d 003e 0c46 a03d 0436 52bd
00000240: 8699 2d3d d584 063e 57ba 44ba e193 fa3d
00000250: 9db4 4bbd 57e5 bebd c38e f9bc 1416 d03b
00000260: 3454 033e 1fe1 adbd de3e e9bd 7430 a83d
00000270: 1186 37bc 6998 dabd 391e dfbd a25f f6b9
00000280: 108d b1bd cd9a 5abd ee21 a33d 1c5f 8cbd
00000290: 1435 463d 40b6 81bd 98a2 233d 86bd dd3b
000002a0: eb28 3fbd 8037 ef3d 51ce 78bd 4238 45bc
000002b0: 72cf f33d 38c2 9fbd 25c2 aa3d 5eb1 06be
000002c0: 0b95 253d ad57 383c 8c17 393d 33d0 87bd
000002d0: 4a5d 8c3d 10b4 d03c 5bad 6bbc eee3 6d3d
000002e0: 974b 3ebd f12f c13d 17c5 f93d 3bd8 a4bd
000002f0: 4a50 89bd f592 b8bd 3513 143d 5e77 e5bd
00000300: 089d 0abe c688 cb3d f067 febd dc2b 66bb
00000310: 5c9c c33d 696a 00be 6960 d4bd c49c 4a3c
00000320: 03a8 163d 247a 00be aaa8 023e 8fd1 aebd
00000330: ea87 00bc ff4c 803d 0cfd e7bd 3458 dd3d
00000340: ff19 dcbc 0c7b cebb 9929 a8bd c925 003e
00000350: fe26 453c 6cd4 debd 41b3 bc3d 0881 62bc
00000360: dfce c33d 4d58 5bbd a278 983d f7ce cfbd
00000370: ee7f aebd 0845 5abc 7224 a0bd 6974 27bd
00000380: 075a 02be b33f babd 480c 423d 434a f8bc
00000390: e60d 813d d937 afbd 04bb d93c 4e88 163d
000003a0: 690b dabd 7cf3 ac3d d33c deba 272a 8f3d
000003b0: adc6 0a3e cc1b 7a3d ae9a 03be 2c43 a1bd
000003c0: a94c a03d de70 ef3b 47ba 6f3d 86a7 efbd
000003d0: a4b8 a8bd 3104 ec3d 8c80 ff3c 5c19 00be
000003e0: d188 0c3c 049f f93d 6415 883b acb3 01be
000003f0: fcf6 f53d 0f14 b7bd 6dc5 7bbd 1100 a63c
-0.024712324 -0.0023176793 0.09045985 -0.023744281 0.12582289 -0.10939665 -0.026837843 0.13386285
0.12508593 0.09196531 0.038863625 0.05843318 -0.10333928 -0.099999465 0.12245008 -0.028281642
-0.024446005 -0.087442696 0.086886615 0.10878438 -0.013439098 -0.01235193 0.09310204 -0.0576978
0.08729922 -0.1194658 -0.110637926 0.022128953 -0.09782055 0.02227352 -0.0033067337 0.08608438
-0.13324629 -0.12083259 0.071666 0.02260198 -0.071485326 0.006790733 0.011799039 0.093317695
-0.01772267 0.12060471 -0.009223157 0.0920443 0.03325381 -0.059608575 -0.10593325 0.05606048
-0.09138175 -0.10781103 0.020284733 -0.046808958 0.12319995 -0.04586368 0.093967244 -0.05289119
-0.094460584 -0.12383287 0.12497656 -0.09306382 0.13587962 0.09040343 0.04029772 -0.11891502
-0.0031610595 -0.015750065 0.10087406 0.13195412 0.013234886 -0.076005906 0.12974736 0.08607491
-0.09816505 -0.09046322 -0.054829624 0.09783009 0.10286722 -0.00080968917 0.1188852 0.111008294
-0.107645184 -0.082779415 -0.024580618 -0.059625734 0.06440777 -0.031693216 0.00255297 -0.04729364
-0.049718842 0.13305292 0.03707027 -0.11223503 -0.10692368 -0.055450957 -0.06887562 -0.07768209
-0.06878726 -0.057260677 0.07723855 -0.030045984 -0.09007454 0.031120555 -0.12414176 0.039796293
0.10637073 0.09600061 -0.10866696 -0.09778797 0.0981688 0.014874433 -0.117681555 0.07224845
0.13382244 -0.05625499 0.004329198 -0.094607554 -0.05365494 0.13556246 -0.04847188 -0.04557238
0.10364233 -0.030073905 -0.079408936 0.00082326145 0.02171418 0.06407864 -0.099875815 0.049003415
-0.0584693 0.065349646 -0.082191214 -0.076195456 0.06735208 0.137767 0.029245667 -0.05488479
0.088714935 0.04218489 0.019391213 -0.061312065 0.08098423 0.12553993 0.078258604 -0.051321045
0.04238274 0.13136609 -0.00075045734 0.12235237 -0.049732793 -0.09321087 -0.030463582 0.006350288
0.1282509 -0.08490204 -0.11388944 0.08212367 -0.0112013975 -0.10673601 -0.108944364 -0.00046992028
-0.08669484 -0.053370286 0.07965456 -0.06854078 0.048390463 -0.063335896 0.039949983 0.0067669777
-0.04666988 0.11680508 -0.060743634 -0.012037339 0.119048014 -0.07800716 0.083378114 -0.13153598
0.04042534 0.011251372 0.04518847 -0.06631508 0.06853731 0.025476485 -0.014384593 0.0580787
-0.046458807 0.09432972 0.12195795 -0.08049055 -0.06704767 -0.09012405 0.03615113 -0.11204408
-0.13536465 0.09938197 -0.12422168 -0.0035121357 0.095513076 -0.12540592 -0.10369951 0.012366477
0.036781322 -0.12546593 0.12759653 -0.08536064 -0.007844904 0.06264686 -0.11327562 0.10807839
-0.026867865 -0.0063012894 -0.08211059 0.12514414 0.012033222 -0.1088036 0.092138775 -0.013824709
0.09560942 -0.053551007 0.07444884 -0.10146897 -0.085204944 -0.013322122 -0.078194514 -0.0408825
-0.12729655 -0.09094181 0.047374994 -0.030308848 0.06301479 -0.08555574 0.026578434 0.036751084
-0.106467076 0.084448785 -0.0016955383 0.06990462 0.13552351 0.061061665 -0.12851974 -0.0787414
0.07827122 0.007307156 0.058527257 -0.117018744 -0.082383424 0.11524237 0.031189226 -0.12509674
0.008577541 0.12188533 0.0041529406 -0.12666196 0.12009999 -0.08939373 -0.061467577 0.020263704

fc1.bias f4 [256]
00000000: 13b5 cebd 11d3 953d b7da 3cbd 58ca 46bc
00000010: 1057 9abd 6706 0abd 7c3d 1d3c f9ae d53c
00000020: b1bd d53d 4bd2 8fbd 2a53 1b3d 4bf3 a9bd
00000030: 2974 ae3b 26da 00be aa69 aebd 74ca 99bd
00000040: 459c e1bd 5797 853d a716 c4bd 8b26 fd3d
00000050: 4e38 95bd 53ac 03be 1743 a2bd a3e3 4c3d
00000060: bdc1 0a3e 9961 0d3e 127d ecbd c0af 293c
00000070: f484 b2bc 6b75 e03d 591a cbbd dc8e b6bd
00000080: e2c9 3cbd 5a2d 31bc 0dc8 b13d da54 093e
00000090: 03b1 f2bd 88de 92bd b226 05be 05fe bdbd
000000a0: 7499 c0bd d178 38bd 7849 0dbd 3114 af3b
000000b0: ff1e f43d 4b29 c33b 485d 0a3e cf5c e7bc
000000c0: 8c19 cd3d 34eb 8f3d b4d5 9fbd 7ff7 87bd
000000d0: 4c31 093e 680a 5d3d 58e7 e13c 9010 fa3b
000000e0: b73d ec3c a056 13bd aca2 043e b499 bc3d
000000f0: bbc3 88bd 118d 9d3d 6735 3e3d 056a 013e
00000100: e0d2 ae3b 3a4b cdbd 8642 d6bc 2c9d 853c
00000110: 9e51 543d 8149 a93d 3635 0dbe f229 fc3d
00000120: 4062 e13b a462 d13d 52c6 9c3d a342 bb3d
00000130: 5022 dbbd e30a 8238 b172 cebd 6bc7 803d
00000140: a512 adbd a38d 29bd 84e2 a9bd 6321 3d3d
00000150: 76f0 cbbd 9bbf aabd b0c1 07be 54ff ebbd
00000160: c359 b7bd c81e b23c b8bc 113c efcc fd3d
00000170: 5bc1 4bbd b5fc 133c 018c 8cbd 415a 71bc
00000180: 20ad 003e d24a c53d d3e6 64bd 809d debd
00000190: 3961 c63d d595 d03d 024f f9bc f26a e83d
000001a0: 9eaf ebbd d565 04be 016e f43d 4e40 e23c
000001b0: 15d6 753d 43cc 0c3d 9e9b 08be d759 ff3d
000001c0: eb7e 76bd 1014 5d3a 7eef 203d 2b95 b2bd
000001d0: cf03 3e3d 0169 053e 482d 993b aade e9bd
000001e0: 6991 a13d 6f50 03be 2842 debd 9bc8 e5bc
000001f0: 8652 8fbd 46dc 90bd 70e1 093e 1f08 7d3d
00000200: d074 b53b 00a5 d93b 8721 a8bd ccb2 f7bc
00000210: 81df c33d b915 0b3e 2823 86bd 061b 0bbd
00000220: 0b6b 403b 544e 0abe 54b5 063e 4e66 73bd
00000230: d1da 103d d9ed 8f3d 76a4 f13d 074a 92ba
00000240: 660c 63bc 3366 9c3d 0e31 c8bd 1458 05be
00000250: 8f71 0b3e 510e f33d d997 fcbd 4fc2 f03d
00000260: 900b 4c3d 3b8f cbbd cca5 6bbd bbf2 7c3d
00000270: cd8f 59bd 1e3a 093d cbc5 87bb 4444 04be
00000280: 5917 06be 71da 62bd 7a13 12bd 41f5 cebc
00000290: 52d7 eb3d 7467 eb3d 4bb4 08be dfd4 8c3d
000002a0: e3c6 07be b315 703d 9262 acbd a4ba 583d
000002b0: 3420 dd3d 2ebb ab3d 58dd 40bd 1c7f a93d
000002c0: ba14 c3bd ccb6 bfbc 7457 c6bd 220b b7bb
000002d0: 116e ad3d a15a f2bd 3119 f6bd 40c7 6b3d
000002e0: 65de 153d 673b 263d ac09 f3bb a5ae c33d
000002f0: 7c80 0c3e 6262 fa3a 67e7 e63d 2170 303a
00000300: 0ec3 ccbd 50de af3c 6cec 353c 2920 ef3b
00000310: 87a3 123d 7965 8abd 7253 013e 12c2 df3d
00000320: 9a0d 8fbd e810 1cbc b26f dcbd 2641 acbd
00000330: 9ea6 553d de98 09bd cf33 acbd 7cb5 d23d
00000340: 2c82 c53d ecfd fa3d 3bf9 03be ed14 9f3d
00000350: d9ea 8fbd 6876 fb3d 9e50 b83d e2a7 853c
00000360: 89a4 d73d 5b69 be3d 3b26 3fbd 61e9 04bd
00000370: 6626 c4bd f94c bc3b 631f 1bbd 50a0 b43d
00000380: b061 27bd 380a e2bc 592e 503c 7b64 71bd
00000390: 91e1 8fbd 7127 c5bc db44 e0bb a3c0 cc3d
000003a0: 6996 cc3d 07b0 803c 516a 9cbd 8d2c b0bd
000003b0: 6383 95bd a948 bdbd ac1c fe3d fcc9 723d
000003c0: 1ea9 40bd dd0b ed3d 5171 fabd d7b1 04bb
000003d0: a93f 3c3d 3b68 973d 6434 16bd 4292 d1bc
000003e0: 0620 d73c f0db fabd 4b45 b0bd 0168 7fbd
000003f0: 0341 97bd 1043 2f3c efcb 44bd 4cd3 3cbd
-0.10093131 0.07315648 -0.04610702 -0.012133203 -0.07536137 -0.033697512 0.009597179 0.02608441
0.104365714 -0.07022532 0.03792111 -0.082983576 0.005323906 -0.12583217 -0.085162476 -0.07509318
-0.11016134 0.065230064 -0.09574633 0.12360867 -0.0728613 -0.12858705 -0.079229526 0.05002178
0.13550468 0.13806762 -0.11547293 0.0103568435 -0.021791913 0.10959896 -0.09917135 -0.08913967
-0.046090968 -0.010814035 0.08680735 0.13411275 -0.118501686 -0.07171351 -0.13003042 -0.09276966
-0.09404269 -0.045037095 -0.034493893 0.005342983 0.119199745 0.0059558502 0.13512146 -0.028242497
0.10014638 0.07027283 -0.078044325 -0.06639003 0.13397712 0.053965002 0.027576134 0.007631369
0.028838022 -0.035971284 0.1295268 0.09209004 -0.066779576 0.07692922 0.046437647 0.126381
0.005335197 -0.10024114 -0.026154768 0.016310297 0.05183565 0.08265973 -0.1378983 0.12312688
0.0068781674 0.10223892 0.07655014 0.09143569 -0.10699904 6.200911e-05 -0.100804694 0.06288036
-0.08450822 -0.04139484 -0.082951576 0.04617442 -0.09957974 -0.08337327 -0.1325748 -0.11523309
-0.089526676 0.021743193 0.008895092 0.123926036 -0.049744945 0.009032418 -0.06862641 -0.014730991
0.12566042 0.096334115 -0.055884194 -0.108698845 0.096865125 0.10184828 -0.030433182 0.11348523
-0.11508106 -0.12929471 0.11935044 0.027618553 0.060018618 0.034374487 -0.13340613 0.124683075
-0.060179632 0.00084334705 0.039290898 -0.08719858 0.04639035 0.13028337 0.0046745874 -0.11419423
0.07889063 -0.12823652 -0.10852462 -0.028049758 -0.06998162 -0.07073264 0.13464904 0.061775323
0.005537607 0.006641984 -0.0820952 -0.030236624 0.09564114 0.13582505 -0.06549674 -0.03396132
0.0029360678 -0.13506442 0.13155109 -0.059423737 0.03536493 0.07027788 0.117989466 -0.0011160978
-0.0138579365 0.076366805 -0.097749814 -0.1302188 0.13617538 0.11867965 -0.1233365 0.117558114
0.049815714 -0.099394284 -0.057531163 0.061754923 -0.053115655 0.03350269 -0.004143452 -0.12916666
-0.13094844 -0.055384103 -0.035663106 -0.02526343 0.115156785 0.114943415 -0.13350026 0.068765394
-0.13259463 0.058614444 -0.08417238 0.05291237 0.10797158 0.08385311 -0.04708609 0.08276197
-0.09525438 -0.023402594 -0.09684649 -0.005586044 0.08468259 -0.11833692 -0.12016524 0.057563066
0.036589045 0.040583994 -0.0074169245 0.09554795 0.13720888 0.0019102807 0.11274605 0.00067305757
-0.09998141 0.021468312 0.011103731 0.007297535 0.035800483 -0.067576356 0.12629488 0.10925688
-0.06985016 -0.009525515 -0.10763492 -0.084108636 0.05216085 -0.03359305 -0.08408319 0.10288522
0.09643969 0.12255463 -0.12888043 0.07767663 -0.070272155 0.122784436 0.089997515 0.016315404
0.105294295 0.09297439 -0.04666732 -0.03244913 -0.095776364 0.0057464805 -0.03787173 0.0881964
-0.040864646 -0.027592763 0.012706363 -0.058933716 -0.07025445 -0.024066659 -0.0068441457 0.0999768
0.09989626 0.015708936 -0.07637466 -0.086022474 -0.07300451 -0.092423744 0.124078125 0.05927466
-0.047036283 0.11574528 -0.12228645 -0.0020247602 0.04595915 0.07392927 -0.036671057 -0.025582436
0.026260387 -0.12248981 -0.086069666 -0.062355045 -0.07385447 0.010697141 -0.04804605 -0.046099946

fc2.weight f4 [128, 256]
00000000: c8d9 a23c 8271 60bd f077 b0bb 447d 5a3d
00000010: 1e83 7abd 424c 623d 003d 6fbd 8e58 643d
00000020: fec2 4abd 103d 2e3c 60a2 443d 386f 033d
00000030: 60c0 883c d0f2 5b3d 4029 ce3b 845f 323d
00000040: 70e1 73bc 04af 96bc fac2 58bd 640b 53bd
00000050: 0090 f2bb 0421 ad3c ca69 463d c075 c73b
00000060: 20c1 3bbc 509b 393d e03e 433b 4664 7f3d
00000070: bea6 603d e6db 15bd c4f5 d2bc 88dc 62bd
00000080: 5e40 36bd 404b f5ba a22e 113d a071 713d
00000090: 105e fb3c d083 073d c41d 403d 6c61 073d
000000a0: 2890 24bd 80e6 423d 1ce7 cbbc 12bd 6cbd
000000b0: 80ea 893a 02c5 5abd 7c2d 18bd b015 d93b
000000c0: 28f6 68bc b41f c4bc 3818 4e3c 12cb 41bd
000000d0: f269 6b3d 04ae 413d 8c94 c5bc d03d bb3c
000000e0: d626 3fbd 8031 9e3a c8b5 203c d4ec 9a3c
000000f0: 345e d6bc fab7 203d 5296 6dbd 7877 333d
00000100: f01a d6bc 3257 1fbd 2031 0cbd 4056 313b
00000110: a0d7 e63c 2e7c 4fbd a867 6f3c f457 273d
00000120: a46e 61bd eea6 06bd 0a64 36bd 8e21 623d
00000130: dc3f 983c 5020 a63b 5854 cb3c d880 3c3c
00000140: f2a0 363d 9097 18bc 847d a7bc 8052 253c
00000150: 24bf b5bc b08e 31bd 3c91 893c 504d 433d
00000160: c2d2 1dbd cca8 5bbd 3af7 073d 982e 0ebd
00000170: 08c5 65bd a445 613d 3c13 973c c023 3cbc
00000180: 1682 3ebd 8ac2 243d 5e7c 2ebd 2c44 173d
00000190: 40a8 f7bb 308c 823b c89d 213c 5091 f83b
000001a0: c0b4 5cbb ec19 7bbd 6af2 3b3d 7830 593c
000001b0: c084 96bb 90b4 c3bc 2084 fe3b d61e 083d
000001c0: 8e18 27bd 5082 6bbc 20bc 973b a613 7bbd
000001d0: 2016 213b c008 f5ba f851 b83c b0ab debb
000001e0: fee3 0abd 8894 403c 0cea b63c f27d 56bd
000001f0: e8e0 a9bc b875 203c d023 07bd c8fe aebc
00000200: a05d e2bb 804d 6e3b 964f 6fbd 98a6 36bd
00000210: c659 3fbd 78be 873c 489e 4a3c 50fb ed3b
00000220: a286 56bd 4027 95bb ccb1 c7bc b6e8 64bd
00000230: 6cc1 8dbc 3263 113d e828 7b3d 6499 693d
00000240: c476 40bd defe 7dbd 60c6 d2bb 8264 7c3d
00000250: 7048 04bd 4856 f0bc 5032 74bc a207 2ebd
00000260: b021 e23c 40bc baba f47e 8e3c acfe 193d
00000270: dc9d ffbc 781b 96bc e0f6 fe3c be43 343d
00000280: 7a23 093d 44e4 5abd c4ed 803c 184d e0bc
00000290: 4896 193c e68e 3b3d 4059 73bd 96b0 023d
000002a0: 3654 183d 6898 3c3c 7848 e33c 90c1 79bc
000002b0: c82c 3abc bee6 01bd 0034 f73a 086c 063d
000002c0: ac32 543d a09a 15bc 664a 7bbd 20b2 08bd
000002d0: 1036 f73b 400a dcba 1286 64bd a288 68bd
000002e0: 80c8 6a3c 3084 04bd 968e 36bd 2c0c ad3c
000002f0: 5084 6bbd 3cb8 e5bc 3443 2cbd 7831 c3bc
00000300: bcc6 e5bc 2041 4bbc 7c70 8e3c 10b9 f6bb
00000310: 648d adbc 1e77 283d 50b6 e73c 1263 073d
00000320: a0ac 62bb 1c62 a6bc 30c9 08bc 807e 683b
00000330: 7c1d 6dbd 52d7 1f3d d020 a23b f0d9 f7bb
00000340: b29c 61bd 502b c73b 2c41 14bd 4839 243c
00000350: 0c0e 14bd c6f8 24bd 24a8 93bc eafb 1abd
00000360: a0a4 f83b 3aef 683d e8ea 2cbd 582a 483c
00000370: 883f 48bd c27e 62bd 1433 46bd fa56 0fbd
00000380: 7c4a cf3c ec18 f53c 20cb 85bc 08be 10bd
00000390: 2651 383d d6aa 31bd a20b 243d 18d5 28bd
000003a0: 0e73 16bd 444c 30bd b005 f63b f05f 8fbb
000003b0: 7c40 58bd 2405 f33c 309a bfbb 262d 0f3d
000003c0: a851 19bc c0a7 df3c b4b4 8f3c c0c5 d6ba
000003d0: 1c99 1abd 3212 383d fe14 3dbd ec17 a73c
000003e0: 988e 92bc 007a 95ba 8044 0dbc fcdf 54bd
000003f0: 26c7 1cbd 5458 e43c 3643 033d 3edb 713d
0.019879237 -0.05479575 -0.0053853914 0.05334212 -0.0611602 0.055248506 -0.058407784 0.055748515
-0.049502365 0.010634676 0.048006415 0.03208849 0.016693294 0.05369836 0.0062915385 0.043548122
-0.014885291 -0.018394 -0.05292032 -0.051524535 -0.00740242 0.021133907 0.048440732 0.006087035
-0.011459619 0.045314133 0.0029792115 0.062351488 0.054846518 -0.036586665 -0.025751956 -0.055386096
-0.04449498 -0.0018714443 0.035444863 0.058946252 0.030684501 0.03308469 0.046903387 0.033051893
-0.04017654 0.047583103 -0.024890475 -0.0577975 0.0010522157 -0.053410538 -0.037152752 0.0066249
-0.0142188445 -0.023940898 0.012579016 -0.047312804 0.057474084 0.047285095 -0.024118684 0.022856623
-0.046667896 0.0012069196 0.009808965 0.018911757 -0.026167966 0.039237954 -0.058004685 0.043815106
-0.026135892 -0.038901515 -0.034226537 0.0027059466 0.02817899 -0.050655536 0.014612116 0.040855363
-0.055037156 -0.03287404 -0.044529 0.05520778 0.018585138 0.00506977 0.024820492 0.011505328
0.044587083 -0.009313479 -0.020445593 0.01009047 -0.02218587 -0.043348968 0.016792886 0.047681153
-0.038531072 -0.053627774 0.033194758 -0.034712404 -0.056096107 0.054998055 0.018441789 -0.011483133
-0.04651078 0.04022459 -0.042599075 0.03693025 -0.0075578988 0.003983997 0.009864278 0.007585682
-0.0033677071 -0.061304018 0.04588548 0.013256185 -0.0045934618 -0.02388981 0.0077672154 0.033232532
-0.0407949 -0.014374331 0.0046305805 -0.061298035 0.0024579838 -0.0018694624 0.022500023 -0.006795369
-0.033908837 0.011754163 0.0223284 -0.052366205 -0.020737126 0.009793691 -0.032993138 -0.021361724
-0.0069081336 0.0036362112 -0.05842551 -0.04459247 -0.046716474 0.016570315 0.012366839 0.007262625
-0.05237449 -0.004551798 -0.024376772 -0.055885993 -0.017304145 0.03549499 0.061318308 0.05703105
-0.046988264 -0.06201064 -0.0064323395 0.06161929 -0.032295644 -0.029338017 -0.014904574 -0.042487748
0.027603954 -0.0014246777 0.01739452 0.03759639 -0.031203203 -0.018323645 0.031123579 0.044009916
0.0334811 -0.053440347 0.015738375 -0.027380511 0.009374209 0.045790575 -0.059411287 0.031906687
0.037189685 0.011510946 0.027744517 -0.015243903 -0.011363216 -0.031714194 0.0018860102 0.03281787
0.051806137 -0.009131104 -0.06135025 -0.033373 0.0075442865 -0.0016787723 -0.055791922 -0.05677093
0.0143300295 -0.032352626 -0.044569574 0.021123968 -0.05749923 -0.028041951 -0.042056277 -0.0238273
-0.028048865 -0.012405664 0.017387621 -0.0075293854 -0.021185584 0.041129224 0.028285176 0.033053465
-0.0034587756 -0.020310454 -0.008348748 0.003547579 -0.057889447 0.039023705 0.004947759 -0.007563822
-0.055081077 0.0060781613 -0.036194965 0.010023423 -0.03614621 -0.04027631 -0.018024512 -0.0378379
0.007587984 0.05686877 -0.04221621 0.012217127 -0.048888713 -0.055296667 -0.048388556 -0.034995057
0.025304072 0.02991911 -0.01633221 -0.035337478 0.044999264 -0.043375812 0.040050156 -0.041218847
-0.03673082 -0.043041483 0.007508002 -0.0043754503 -0.052795872 0.029665537 -0.005847238 0.034955166
-0.009357847 0.02730167 0.01754222 -0.0016385838 -0.037743673 0.044939227 -0.046162598 0.020397149
-0.01789026 -0.0011404157 -0.008622289 -0.05197142 -0.03827586 0.02787415 0.03204652 0.059046976

fc2.bias f4 [128]
00000000: 863c 423d 767e 3bbd 62a5 65bd 38f0 a3bc
00000010: d08a 343c 80ad 643d 40c9 0ebc 00d6 43bd
00000020: 1690 7bbd 601c 283d 20e0 0c3b 3c85 53bd
00000030: a836 0d3c 304b 133c 8853 5f3d c245 54bd
00000040: 1052 4cbc 14e2 d03c 72e9 413d 88e3 55bd
00000050: d867 383d 54b8 65bd 3896 2f3d c0ab c1bc
00000060: 64f1 b8bc 96d8 38bd 10fe 18bc 18cc fc3c
00000070: 1854 ecbc 98a9 6f3c 94d4 05bd 3268 71bd
00000080: 6642 35bd 80e0 463a 1059 bf3c bc9a 08bd
00000090: 48cc 1cbd c09a 38bc 9092 28bc 6a1d 47bd
000000a0: ac99 953c d86e b0bc e2a9 55bd 5aef 02bd
000000b0: 3ecb 793d 1880 06bd c8e7 313d b6d8 543d
000000c0: 1076 123c 80b1 46bb aa47 1fbd 1474 403d
000000d0: 7233 7c3d 3621 6dbd 90e2 083d 1026 c7bb
000000e0: be58 343d 488b da3c 7c57 173d bae8 5ebd
000000f0: c2ab 403d 486b 69bd 4039 823c 1037 583d
00000100: 5cd3 253d 9c84 833c 2e19 16bd 10e5 82bb
00000110: 10c5 09bc dcc4 2ebd 3492 96bc ecc6 c8bc
00000120: 8c8e 193d c055 e73b c0f1 9ebc 4afd 723d
00000130: c88a 1ebc a0b1 663d 88c5 053c 00a2 b63c
00000140: 003e d93a 30b0 ff3c e85d 8bbc b0fb eabb
00000150: d8cc 993c 98e3 b33c 287c 553d 58bd a33c
00000160: fe62 6cbd ccfa 14bd 9867 fd3c dce1 6abd
00000170: 9cd9 113d 88a0 e63c 8414 f3bc 020d 0cbd
00000180: c0fb ad3c 40e7 fabc f88f 333d d43a 0cbd
00000190: 3000 41bd 70cc 743c fc5f eb3c 4a14 7d3d
000001a0: 0840 0abc 2a55 7ebd 0052 53bd 3ae6 13bd
000001b0: 1266 453d aa11 3e3d fc2a cebc 5846 2ebd
000001c0: e42c 823c 8cbb 823c ee0c 673d c8b4 fabc
000001d0: 80af e13c 68d1 6f3d e685 10bd ae8b 63bd
000001e0: 1ad5 1bbd 14e1 503d 6efe 193d 4093 f53c
000001f0: 0cb2 07bd a007 05bb 8cde 38bd 44b6 93bc
0.047421 -0.0457749 -0.056065924 -0.020012006 0.011019424 0.055829525 -0.008714974 -0.04781151
-0.061416708 0.041042686 0.0021495894 -0.051640734 0.008618988 0.008990094 0.05452302 -0.05182434
-0.012470737 0.025498427 0.04734177 -0.052218944 0.045020908 -0.056083992 0.04286787 -0.023641467
-0.022576042 -0.045128427 -0.009337917 0.030859038 -0.028848693 0.014627837 -0.032673433 -0.05893726
-0.044252776 0.00075865537 0.023357898 -0.03335069 -0.038280755 -0.011267364 -0.0102888495 -0.048612036
0.018261753 -0.02153723 -0.052163966 -0.031966545 0.060984842 -0.032837003 0.043433934 0.051964484
0.008939281 -0.00303182 -0.038886704 0.0469857 0.0615725 -0.057893 0.03341919 -0.0060775355
0.044029944 0.026677743 0.036948666 -0.054421164 0.0470388 -0.056987077 0.01589644 0.052786887
0.04048477 0.016054444 -0.036645107 -0.0039945915 -0.0084088 -0.04266821 -0.018380262 -0.024508916
0.03748946 0.0070597827 -0.019402385 0.059323587 -0.009676643 0.05632174 0.008164771 0.022294044
0.0016574264 0.031211942 -0.017012551 -0.007171117 0.018774435 0.021959111 0.052120358 0.019987747
-0.057711594 -0.03637199 0.030933186 -0.057344303 0.03560792 0.02815272 -0.029672869 -0.034192093
0.021238208 -0.030627847 0.04383847 -0.03423579 -0.04711932 0.01494132 0.028732292 0.061786927
-0.008438118 -0.062092938 -0.051591873 -0.036108233 0.048193045 0.046403565 -0.02516698 -0.042547554
0.015890546 0.01595857 0.056408815 -0.030603781 0.027549505 0.058549315 -0.035283946 -0.05555313
-0.038045026 0.0509959 0.03759616 0.02997744 -0.033128783 -0.0020298734 -0.045134112 -0.018031247

fc3.weight f4 [13, 128]
00000000: 6d01 24bd c50c 2dbc 9591 813d ba44 1b3c
00000010: 3248 c5bc 81f2 a43d d813 943d 6781 98bd
00000020: 9f5d 4fbd 1dfa a53c 726b 423d 032c 71bc
00000030: b0a8 863d f893 4bbd 929e 1bbc 7358 293d
00000040: 1c4f 52ba aed2 64bd 4a3d d8bc 6993 003d
00000050: cbb6 4d3d 041d ae3d d50e b83c 7e18 a83d
00000060: f4ec 9f3b 5e0d 2dbd c5e3 afbd c2b6 47bd
00000070: 7ca8 213b 2110 223d 1008 adbc b4ec 0fbd
00000080: 1561 b13d bdb9 94bd c850 a23d cee6 973c
00000090: e29d 463c 1b34 5bbd c572 0b3d 35ed 68bc
000000a0: 2666 8a3d a436 ed3c b5b3 a8bd e5d1 80bd
000000b0: 86e6 8f3d 4cb3 e73a 78ee 83bd e683 ac3c
000000c0: 395a dfbc 0ed9 ab3d 07e6 463d 2278 91bd
000000d0: 5105 9dbd 2322 863d c7f8 29bd 07b2 2e3d
000000e0: 7d48 0f3d 66c7 a33d f705 353c 5066 da3b
000000f0: 07e1 fe3c 4293 96bd 4ded 7abd 7b63 613d
00000100: e928 fbbc 7c0b d8bc 0421 8abd 82d7 a1bb
00000110: 47c7 5cbd 2761 193c ddd7 42bd a65e c93b
00000120: 2c0d 8f3c fd82 3e3d b0f1 95bd f4ff 6dbd
00000130: 7e31 25bd 1a0d 983c e2b8 a43d 9922 5cbd
00000140: 09d0 883d cfe6 b4bb 9df3 f539 cb0f dcbc
00000150: 3114 143d 77b3 d4ba d79a a73d d6e6 98bd
00000160: 5e24 e0bc e6ce 67bd f847 9c3d d493 48bd
00000170: 0384 9b3d ad08 5a3d 0eba a6bd 29c1 223d
00000180: 61ba d4bc 8b9b 63bb b01d 80bd b455 b33d
00000190: 59e5 8fbc e524 8abd 7029 5ebd 5693 173d
000001a0: 0be8 653d 8651 a33c 4947 7abd 66ab a63d
000001b0: 8ccb 443c 7693 05bc ee92 25bd 4839 a73d
000001c0: 5954 58bd 9544 52bd 6aa1 8cbc 4d3b 713c
000001d0: d751 9b3d 8cac a8bd 8483 92bd 773f 823d
000001e0: f7b7 8e3c 6fef 3f3d 5684 553d bb27 80bd
000001f0: ccfe 3ebc bde6 80bd 980e b73c ad01 99bd
00000200: f0ae e8bb 77e5 933d 2894 4bbd 0f00 893d
00000210: a189 a63d a14d f83c 255b 583c c8cd 96bd
00000220: 0235 9c3d 5be7 39bd d51e 49bd 7dd4 173d
00000230: e6c2 e33c d8e0 8a3d bcdf b53c cc61 5cbc
00000240: 4a44 dd3c 0c32 683d 2607 cc3c d3d3 2a3d
00000250: c999 2abd 100c 01bd 2854 4e3d 3cd6 1fbc
00000260: 879c 993d 7a1f 86bd 13a5 1ebd 74b1 413d
00000270: 6a7d 88bd 683f b43d 45a6 9cbd eca6 78bd
00000280: 0edb 813d 8ed2 bf3c a006 acbd 43bc 9ebd
00000290: 75ce 173c 9d52 19bd 2213 943d c56a 2d3d
000002a0: 212b fd3c 093a 27bd 0198 553d a312 ee3c
000002b0: 0ccb 1c3c 45bf 79bd f7cd 31bd 16a2 56bc
000002c0: b0a9 2ebd b514 a43d 7880 603d 0276 8f3d
000002d0: 34e2 683c bfff c7bc 886f a23d 81ce abbc
000002e0: 68bf 0fbd 5dc7 9b3d a763 5ebd d654 af3d
000002f0: 5856 4cba a218 12bd 7a84 77bd 7e85 983d
00000300: bc62 213d 98d0 27bd 93af 2a3c 8d48 01bd
00000310: 114e 88bd cc83 f23b dc13 363d 3041 803d
00000320: bc70 5c3c 2e42 cebc d395 0c3d 6afb babb
00000330: 38e5 e23c f942 64bd 3801 99bd dd06 d0bc
00000340: e472 3cbb b06c 413d 700c 423d e28b 3a3d
00000350: 2b07 293d b20a 95bd 1b9f cdbc 330f 923d
00000360: 9e98 993b fff3 8fbd 871d 23bc d4bd 56bd
00000370: 1f24 30bd 318a e43b 35a4 97bd f842 563d
00000380: c116 733d 9cc5 a1bd 1523 d43c 1095 4b3d
00000390: da3d 433d ac9b a03c eba3 ad3d 14ea 8ebc
000003a0: 4e91 103d 9db4 0abd ac9d 863d f232 09bd
000003b0: f22c a6bd e575 d5bc 5824 8c3c 9798 53bd
000003c0: 3ffb fcbc b170 87bc 1ab5 25bd 14de 65bd
000003d0: 2bf4 8fbd 3bdc d03b 497b 92ba ca57 82bd
000003e0: bd64 6e3d 017b a2bd 5da0 a5bd 5920 3ebd
000003f0: ce19 273d 51f9 623d 3406 58bc de14 2b3d
-0.040040422 -0.0105621265 0.06326596 0.009476835 -0.024082277 0.080540664 0.072303474 -0.074465565
-0.050626393 0.020260865 0.04746575 -0.014719966 0.06575143 -0.04970166 -0.009498255 0.041344117
-0.00080226525 -0.055864982 -0.026396412 0.03139058 0.050223153 0.08501628 0.02246801 0.082077965
0.004880542 -0.042249076 -0.085883655 -0.048758276 0.0024667075 0.039566163 -0.021122009 -0.035137847
0.08661095 -0.07261989 0.07925564 0.018542673 0.012122603 -0.05351649 0.034045 -0.014216711
0.067577645 0.028956719 -0.082374014 -0.06290034 0.07026391 0.0017677336 -0.06441969 0.021058988
-0.027264701 0.08391009 0.048559215 -0.07102992 -0.0766703 0.0654948 -0.04149702 0.04265025
0.03498124 0.079970166 0.011048785 0.0066650286 0.03111316 -0.07352306 -0.061261464 0.055026513
-0.030659156 -0.026372664 -0.067445785 -0.0049390206 -0.053900983 0.009361542 -0.047569145 0.006145316
0.017462336 0.04651164 -0.07321489 -0.058105424 -0.040330403 0.018560935 0.08043076 -0.053743932
0.066803046 -0.0055206786 0.00046911548 -0.026863 0.03615207 -0.0016227801 0.0818383 -0.074659035
-0.027361091 -0.056593798 0.076309144 -0.048969105 0.075935386 0.05323093 -0.08140956 0.039734993
-0.025967779 -0.0034730162 -0.062556624 0.08756581 -0.017565416 -0.06745318 -0.054238737 0.037005745
0.056129497 0.019936334 -0.06110314 0.081381604 0.01201142 -0.008152833 -0.040423326 0.081652224
-0.052814815 -0.051334936 -0.017166812 0.014723611 0.07583969 -0.08236036 -0.07153991 0.06359761
0.017421706 0.0468592 0.05212816 -0.06257578 -0.011657428 -0.0629401 0.022345826 -0.07471023
-0.0071009323 0.07221501 -0.04970184 0.06689464 0.081317194 0.030310454 0.013205324 -0.073634684
0.07627298 -0.045386653 -0.04910167 0.03706788 0.027802896 0.06781167 0.022201411 -0.013451051
0.027010102 0.056688353 0.024905752 0.041705918 -0.041650567 -0.031505644 0.050373226 -0.009755667
0.07500558 -0.065489724 -0.038731646 0.047288373 -0.06664546 0.08801156 -0.07648901 -0.060706064
0.063406095 0.02341583 -0.08399701 -0.07750752 0.009265532 -0.0374323 0.07230212 0.04233815
0.030904355 -0.04082683 0.052146915 0.029061621 0.0095698945 -0.060973424 -0.043409314 -0.013100168
-0.042642295 0.08011762 0.054810017 0.0700493 0.014214087 -0.024413941 0.07931429 -0.020972492
-0.03509465 0.07606385 -0.054294255 0.08561103 -0.00077948486 -0.035668023 -0.060429074 0.074473366
0.0394008 -0.040970415 0.010417837 -0.03156333 -0.06655515 0.0074009653 0.044452533 0.062624335
0.013454612 -0.025178041 0.03432257 -0.0057062404 0.02769719 -0.055727933 -0.074709356 -0.025393898
-0.0028755004 0.047222793 0.047375143 0.04554356 0.0412666 -0.072774306 -0.025100281 0.07131805
0.004687383 -0.070289604 -0.00995577 -0.052427128 -0.043003198 0.0069744815 -0.07404367 0.05230996
0.05934787 -0.07899019 0.025895635 0.049702704 0.047666408 0.01960548 0.084785305 -0.017445602
0.035294823 -0.033863652 0.06573042 -0.03349585 -0.081140414 -0.026057193 0.017107174 -0.051659193
-0.030881522 -0.016533228 -0.040455915 -0.056119993 -0.07028993 0.00637391 -0.0011175658 -0.06364401
0.05820154 -0.079336174 -0.080872275 -0.046417568 0.040796094 0.055413548 -0.013185073 0.041767947

fc3.bias f4 [13]
00000000: 24e1 b03d d735 0dbd 1c1a 61bd b1af 983c
00000010: d801 a23d ab58 aa3d 4e8e 11bd 23c2 933d
00000020: 30a4 4dbd f576 81bc fb91 a53d b2f9 a1bd
00000030: 2774 723d
0.08636692 -0.034475174 -0.05495654 0.018638464 0.07910508 0.08317693 -0.035536103 0.07214763
-0.05020541 -0.015803793 0.08084484 -0.07908954 0.059192803
