Player 3_policy_net.pth (torch, 195328 bytes, 6 tensors)

fc1.weight f4 [256, 52]
00000000: 8ed8 0d3e 1e49 823d 2dc5 1dbc 986a 9c3d
00000010: d088 e53c 45d7 533d 16b1 bcbd 94a6 00bd
00000020: 9674 b4bd 8f29 bf3c e68e e8bd dc30 15bd
00000030: 50e8 cb3d 730d 793c e3d2 93bd 898f c53d
00000040: c2d9 433d 3cdf ee3d 71f6 323d 2a4d debd
00000050: dd73 8bbd 3190 f9bd 27f2 d83d caf4 65bd
00000060: 77d0 55bd fc73 c0bd 6032 f1bd 51e7 81bd
00000070: 024e e83d 3bb7 04be 13e4 cebd 86cf 93bd
00000080: 0785 863d 0967 ea3d c22b 0abe a5c0 c23d
00000090: 35d4 f43d 758d 85bd b634 e13d fe07 aabd
000000a0: f4d5 bb3c 9903 973d 2b56 0cbe 331d 8bbd
000000b0: 1da9 e4bd f252 c03c eafa 84bd c265 663d
000000c0: dd62 d7bc 1f1e d03b 352f 0dbe 4127 b63c
000000d0: 88a7 fb3d 6c5c 003d 9bf8 f5bd 60d8 fdbd
000000e0: 4197 83bc a610 943d 40f3 4a3d eb2d acbd
000000f0: b360 ccbd 229e e5bc 6266 69bd c788 ccbd
00000100: 5abd 7abd 78f0 603d 2ad3 203c 06a6 033d
00000110: 7025 e0bd df39 00be 9554 27bd f21e b43c
00000120: 5246 47bc 6138 de3d 426f 873b 505f debd
00000130: 624a 85bd 74c6 db3d bd3a 923c 10d2 d4bd
00000140: 478d 04be 6b9b 293d 5836 0abe f1d1 633d
00000150: d7ee de3d 280f e3bd 3116 0abe b9ae bf3b
00000160: 56df c3bc 04b8 cabc 087d 173c 02e9 acbc
00000170: 89f2 8fbb 0ddc ee3d 371c 013e 746f 653d
00000180: 636a e33c 8465 a83d b898 083e c389 e7bd
00000190: 4cc5 b2bd ea73 023d 2e95 dbbb 3560 08bd
000001a0: f512 03bd 240c 97bd 2c41 ab3d dd43 703c
000001b0: b78b c5bd 83a3 c1bc cc15 c53d f7c8 883d
000001c0: c413 c43d 14ab 163d be77 00bd 9ace 593d
000001d0: 752f 3ebd 39bd cfbd 9e6a f2bd e538 c3bc
000001e0: 98ee ca3d e86e e23d e9dd d33d fe31 023c
000001f0: 5e7b 1dbd 6c5e a13d a812 543d 1c75 ffbd
00000200: 9412 a5bd 41b3 d23d a065 abbd 062d d7bc
00000210: 8ad8 87bd dc88 963d fff2 abbc 0421 013e
00000220: 4bf8 b7bd 48d4 b43d 6adc 54bd 1b9e 7c3d
00000230: 2add 623d cb82 693d 4460 c8bd e5d6 9d3d
00000240: 2935 cd3c 8662 ec3d 6fe4 3a3d 5bab 72bd
00000250: 7632 eebd e8ad 8d3c eac8 f1bb 2f45 f23d
00000260: c3df 6ebd 2c40 553d 2ffa 0bbe 13ec bbbc
00000270: 3726 85bd 531f 053c b321 dbbd 593c 453d
00000280: e73e c13c 9342 533d 0798 d0bd d49d 4f3d
00000290: fe20 d43d fd60 d63d 0a08 d33d 7091 f4bd
000002a0: 01d0 d8bd 4d31 31bd 321c 6bbd 5b57 9d3d
000002b0: f8a1 3e3d dc5c f63c 4047 803d d225 fc3d
000002c0: e304 fa3d d703 f13d 8c15 c63c 0fec 073e
000002d0: 4192 8cbd 2eb0 6ebc 6337 193d b326 063e
000002e0: 3988 a7bd 4928 823c 00b0 7bbd 32c4 f2bb
000002f0: 80ee 86bc 3554 9f3d e051 84bd a5e1 c63d
00000300: e292 74bc ec82 c7bc b3c9 a6bd eb64 e3bd
00000310: c697 473d fcad ea3c e2ca b0bd 5c9f 28bd
00000320: 7c3e abbd d908 06be 3890 dd3d 4435 2f3c
00000330: fc2b 963c 0c4e dbbd 79e8 8539 c371 703d
00000340: 5e53 d1ba ff15 f3bd 1861 22bc 4d50 f03d
00000350: fb8e ff3d acc3 88bc 51f9 86bc 16b8 c0bd
00000360: e32c 0abc a33d 56bd 2eb7 4e3d c612 0e3d
00000370: e1e7 f33d fa0c 9e3c 19d7 893d 79d9 08be
00000380: 3d72 1f3c b401 f83d 5b8d 953d f645 c6bd
00000390: 3ba3 f73c 8805 dfbd 3255 733d 88c9 b13c
000003a0: e12b 903c bd9f 053e 5b5c debd 64a7 77bd
000003b0: 322c aebd 4248 a4bc 3713 e7bd e5ca b4bd
000003c0: a0ac f13c 04a8 c7bd 0c44 e8bd 5664 863d
000003d0: 3d1c 953d b3f1 90bc db7e a83d de99 f03d
000003e0: df35 cabc 8e9e 93bd 0ed3 b63d 0623 c83b
000003f0: 99e2 863d 61ad cc3d e720 b0bd 0c42 72bc
0.1385214 0.06361602 -0.00962953 0.07637519 0.028019339 0.05171897 -0.09213464 -0.03140886
-0.088112995 0.023335246 -0.11355381 -0.03642355 0.099564195 0.01520096 -0.07217958 0.09646518
0.047815092 0.11663672 0.043692056 -0.108545616 -0.068092085 -0.121857055 0.10593062 -0.056141652
-0.05220076 -0.09397122 -0.117771864 -0.06342948 0.11343004 -0.12960522 -0.101020955 -0.07217316
0.06568342 0.11445434 -0.13493255 0.095094 0.11954538 -0.065211214 0.10996382 -0.08302306
0.02292917 0.07373733 -0.13704745 -0.06792679 -0.11165068 0.023477051 -0.064931706 0.056249388
-0.026292259 0.006351247 -0.1378754 0.022235515 0.122878134 0.03133814 -0.12010308 -0.12394786
-0.016063334 0.07229738 0.049548388 -0.08407196 -0.099793814 -0.028029505 -0.056982405 -0.09987026
-0.061215736 0.05491683 0.00981597 0.032140754 -0.10944641 -0.12522076 -0.040852148 0.021987412
-0.012162762 0.10850597 0.004133136 -0.10858023 -0.06508328 0.10731211 0.017850274 -0.10391629
-0.12944518 0.041407984 -0.13497293 0.055620138 0.10885399 -0.11086875 -0.13485028 0.005849686
-0.023910206 -0.024745949 0.009246118 -0.0211072 -0.004392926 0.11663065 0.1260842 0.056014493
0.02776069 0.082224876 0.13339508 -0.11305573 -0.08729038 0.031848826 -0.006701133 -0.033294875
-0.0320005 -0.073753625 0.0836204 0.014664617 -0.09645789 -0.023637539 0.09623298 0.06678956
0.095740825 0.036784247 -0.031364195 0.053175546 -0.046431977 -0.10143513 -0.11836742 -0.02383084
0.099087894 0.1105631 0.103450604 0.007946489 -0.03844773 0.07879338 0.051775604 -0.12473509
-0.08060184 0.10288096 -0.08368993 -0.026266586 -0.066330984 0.073503226 -0.020989893 0.1261025
-0.08982905 0.08829552 -0.051968016 0.06167422 0.0553867 0.0570095 -0.09783986 0.077070035
0.025049763 0.11542229 0.045628008 -0.05924545 -0.116307184 0.017294839 -0.007378687 0.11829602
-0.058318865 0.052063152 -0.13669656 -0.022939717 -0.065014295 0.008125144 -0.10699787 0.048153255
0.023589564 0.051577162 -0.10185247 0.050687626 0.10357855 0.10467718 0.10304268 -0.119418025
-0.105865486 -0.043259908 -0.057399936 0.07682677 0.046541184 0.030073576 0.0626359 0.12311901
0.12207963 0.117683105 0.024180196 0.13273643 -0.06863833 -0.014568372 0.037406337 0.131007
-0.08180279 0.01588835 -0.061447144 -0.007408642 -0.016471148 0.07779733 -0.06460929 0.09711007
-0.014927598 -0.02435442 -0.0814394 -0.11103233 0.048728727 0.028647415 -0.08632447 -0.041167602
-0.08361527 -0.13089313 0.10818523 0.010693852 0.01833152 -0.10708246 0.00025540942 0.05870224
-0.001597028 -0.1186943 -0.009910844 0.11734066 0.12478443 -0.016694866 -0.016476305 -0.094101116
-0.008433553 -0.052304875 0.050467663 0.034685872 0.11909462 0.019293297 0.0673048 -0.13364209
0.009731826 0.121097 0.07302352 -0.09681313 0.030229202 -0.10889727 0.05940742 0.021702543
0.017599048 0.13049217 -0.10857459 -0.06046237 -0.08504523 -0.020053986 -0.11282962 -0.088277616
0.02950126 -0.09748843 -0.11341104 0.06562106 0.07280777 -0.017693376 0.08227321 0.11748098
-0.02468389 -0.07207976 0.08926974 0.0061076907 0.06586189 0.09994007 -0.086000256 -0.014786255

fc1.bias f4 [256]
00000000: 8ace c63c f437 b9bd 3d53 d13d c837 8e3d
00000010: c905 32bd f8b7 a73d 9ee1 27bd e2a7 463d
00000020: b693 8a3c bad2 92bd 66e5 15bd afc3 7f3d
00000030: e4b7 f0bd 8cfe aabd bef6 283d 1f29 ab3d
00000040: 347e f1bc 3fb5 b2bd 13d0 f4bd 061b edbd
00000050: 5dfd 95bd 2bdf 9fbb f02a 5e3c 46bf 42bc
00000060: 3d4e ccbd b2a6 f0bd 106d 9ebd aa5e 31bd
00000070: eb32 dabd cb95 a63d 2254 c6bd 325f e0bd
00000080: 0d26 063e d402 fe3d 312e ff3d c678 903c
00000090: 0275 cfbc c094 dd3c 8803 0cbe 91f0 c9bc
000000a0: f4e4 a1bd 490a c7bd 010e a63c 443b 4c3d
000000b0: 6eba 0c3e 6b1c dd3c 26b8 003e 7690 093e
000000c0: cb81 a7bd 0539 dd3d 69c8 943d 6abc 60bd
000000d0: ec2f f7bb 698c 953d 5c92 cbbc e8c8 e1bc
000000e0: 895d 79bc 1ece ebbd 4919 8cbd 0c5a 12bd
000000f0: 2385 9abd 5ddc 813d 0d66 403a 6426 59bd
00000100: bb77 ad3d 57e0 1abd b884 d4bb ee36 c73d
00000110: 4d30 a3bd 7e6c af3d e300 f2bd 80a8 cc3d
00000120: 1c6a c83d 5474 c13b de54 db3c 997c b9bd
00000130: 691c ad3d 4287 ed3d b9a7 ca3d 5bf2 803d
00000140: 9f8d f33d b64a dbbc 5a86 683d 7288 e03d
00000150: 7003 63bd 8836 e3bd 596f 973d 88d9 9e3d
00000160: 6ed8 6ebd cf16 f63d 5098 4d3d 4e92 a1bd
00000170: ad51 ff3c 7b80 a6bd e624 803c 6f0c e3bc
00000180: 6396 1e3d 1b29 f9bd b867 3f3b eb5b 123c
00000190: 7bb6 92bd d154 493d 2866 133d 1cc5 bdbd
000001a0: 9987 073c b4c2 e2bd 8b46 f43c 95b8 e73d
000001b0: ccae 0d3e 7825 97bd e705 82bd 20c0 39bd
000001c0: d326 e33d 639c b5bd 94ff c9bd 1d5e 083e
000001d0: bf2c bf3d e170 613c be17 d0bc 30cc 003e
000001e0: 5a2e 813d 454a df3d d856 b23d e424 9fbc
000001f0: 7fa8 19bc 0a4d ab3d cb29 043e c35c 96bc
00000200: f66a a73d 4aa8 b63c 3e07 ce3d 022d 0d3e
00000210: a351 e23d 86c4 c13d 26df d03d 4001 053d
00000220: 6ff8 1a3c eebf dabd 5434 f9bd 3a83 4ebd
00000230: 5664 a93d 4168 663d 084f 57bc 2af7 02be
00000240: 69be 6e3d da68 093e 470a 733d 8880 af3c
00000250: 88af 083e adc3 25bd d773 fe3d ff7e 933c
00000260: 5905 e53c 5e50 c13d cadc 85bc 8efe 583d
00000270: f472 e7bd fa2a 6f3d 3d1a 953c 1178 aabc
00000280: 765e a03d 5162 2cbd c522 bbbd 7700 ce3d
00000290: 08d3 eebd 75a2 ed3d dcde 003e 1a6f e9bb
000002a0: b8c4 b33d 0168 0b3e 0de3 b8bd f1a0 00be
000002b0: 1bb3 0d3d 9133 993d 2643 383d eeb3 1d3d
000002c0: ca84 a63d d71f 99bd cd26 033e d340 e2bd
000002d0: 65b2 cebd c2fc 04bd 8b98 43bd 735b 333d
000002e0: 3815 8e3d 43df 96bd 4f55 57bd a10a a23c
000002f0: 7baf 073d 8149 04be e590 bb3c bdb2 e2bd
00000300: cf1f 8e3d 83e9 67bd b4f7 ba3d ad76 003e
00000310: 1d60 043e b781 d0bd 9e27 073e 9ead c73d
00000320: d3d7 ae3d 04ae ec3d 45ea babd 1d6d cc3d
00000330: abb8 ddbb 236f d1bd 2af8 04be 963c 0dbe
00000340: 28da 463d eb86 163d 8483 f0bc 83da 06bd
00000350: 00d9 dbbd c422 dcbd 9ba0 c6bc e411 e83d
00000360: 3267 f5bc 2441 a0bd ccac 07be 3941 92bc
00000370: 1d20 aa3d 1731 fd3d fefd e23d 1107 273c
00000380: 73b6 03be 2bdf 663d bafb c43d badb dabd
00000390: 9f62 e03d c022 0bbe 6cea c93d add0 87bc
000003a0: 5999 8abd 1558 afbd 0112 e23d b6a4 203c
000003b0: dc54 a73d 4a16 c4bb 6f7f 1e3d a5fd bc3d
000003c0: 5de7 853d 1d07 bfbd c370 2e3d b567 9c3d
000003d0: 825d 05be 3649 333c 855e b5bc 0e8d 0d3d
000003e0: 6aa3 633d f96a 95bd 186c 093e fc97 f93c
000003f0: 3caa 043e d838 99bd bb51 0dbe fb0e 1fbd
0.024268407 -0.09043875 0.102209546 0.06944233 -0.04346255 0.08189386 -0.04098665 0.04849995
0.016916137 -0.07169099 -0.036595725 0.062442478 -0.11753824 -0.08349332 0.041250937 0.083574526
-0.029479124 -0.08725976 -0.119537495 -0.1157742 -0.07323716 -0.0048788986 0.013560042 -0.011886423
-0.0997586 -0.117505446 -0.07735646 -0.04330317 -0.10654243 0.081340395 -0.09684016 -0.10955657
0.13100453 0.12402883 0.12459982 0.017635714 -0.025324348 0.027048469 -0.13673222 -0.024650844
-0.079049975 -0.097187586 0.02027035 0.049861208 0.13742992 0.02699109 0.12570247 0.13434014
-0.08179053 0.10801891 0.07264788 -0.054867186 -0.0075435545 0.07302172 -0.024850063 -0.02756162
-0.015220054 -0.11513923 -0.0684076 -0.035730407 -0.07544925 0.06340859 0.00073394255 -0.053015128
0.084701024 -0.037811603 -0.006485548 0.09727274 -0.07968197 0.08565615 -0.118165754 0.09993076
0.09785864 0.00590376 0.026773866 -0.09056968 0.084526844 0.11598064 0.09895272 0.06296226
0.118922465 -0.026769023 0.056768753 0.10963525 -0.0554232 -0.110943854 0.07394285 0.077563345
-0.058311872 0.12016069 0.050194085 -0.078892335 0.031166876 -0.081299745 0.015642595 -0.02771589
0.03871764 -0.12166043 0.0029206108 0.008933048 -0.07163712 0.049153153 0.035986096 -0.09266111
0.008272075 -0.11072293 0.029818794 0.11314503 0.13836211 -0.073801935 -0.06348782 -0.04534924
0.110913895 -0.08867719 -0.09863201 0.13317151 0.093347065 0.013759823 -0.025401946 0.12577891
0.06307669 0.10902838 0.087079704 -0.01942677 -0.0093785515 0.083643034 0.12906568 -0.01835478
0.08174698 0.022297043 0.10059975 0.137867 0.11050727 0.09461312 0.10198812 0.032471895
0.009458645 -0.10681139 -0.12168184 -0.050418116 0.08271091 0.056251768 -0.013141401 -0.12789598
0.058287058 0.13418904 0.059335973 0.021423593 0.1334821 -0.040469814 0.124244384 0.018004892
0.027956652 0.09439157 -0.016340632 0.052977137 -0.113012224 0.058390595 0.018200988 -0.020809205
0.07830517 -0.04208595 -0.09137491 0.100586824 -0.11661345 0.11603252 0.12585014 -0.00712384
0.087777555 0.13613893 -0.090276815 -0.12561394 0.034594636 0.07480539 0.044985913 0.038501672
0.08130796 -0.07476776 0.1280777 -0.110475205 -0.1009262 -0.03246761 -0.0477529 0.043788385
0.06937641 -0.073668025 -0.05257159 0.019780459 0.033126336 -0.12918665 0.02289624 -0.11069248
0.06939661 -0.05661918 0.09129277 0.12545271 0.1292729 -0.10180991 0.13198707 0.09749912
0.08537259 0.11556628 -0.091267146 0.09981749 -0.006766399 -0.10226276 -0.12985292 -0.13792643
0.048547894 0.03674976 -0.029359587 -0.032923233 -0.10734749 -0.107488185 -0.024246505 0.11331537
-0.029956434 -0.078249246 -0.1324951 -0.017853366 0.08306906 0.12362879 0.110836014 0.010194556
-0.12862568 0.056365173 0.096183255 -0.10686441 0.109563105 -0.13587475 0.098591655 -0.016578997
-0.0676753 -0.08561722 0.1103859 0.009804895 0.081704825 -0.0059841024 0.03869575 0.09228066
0.0653827 -0.093275286 0.042588007 0.07636968 -0.13023952 0.010942748 -0.022139797 0.03455835
0.055575766 -0.07295794 0.1342014 0.03046798 0.12955564 -0.07481545 -0.13800709 -0.038832646

fc2.weight f4 [128, 256]
00000000: d218 303d e4fd d33c e041 e83c 6030 f0bb
00000010: a478 fcbc 40f1 fdbb 3cd4 c23c 6a75 4c3d
00000020: 027c 743d bc2c 6a3d 4286 6e3d c0ef c63b
00000030: a883 72bd 3036 d33c a4ce 5c3d 18fe 48bc
00000040: 5878 6abc 849a 23bd fab9 1ebd 6c0f ed3c
00000050: f076 00bc b4d6 eabc d887 503d 50c1 db3b
00000060: 58f5 5b3c 00fc 7cbd 205f b63b 3ca5 923c
00000070: 582a 5e3c 3073 663c 48df d3bc 040f de3c
00000080: 60e3 42bc f420 253d 4cbb 023d 5889 31bc
00000090: 809f 57bb 90f9 323d 14d4 85bc e8d1 5fbd
000000a0: 445a 13bd 00ef 23bb e0b1 72bb f631 063d
000000b0: 0275 09bd 88df 173d 900b 82bc 0862 a53c
000000c0: c01d 023d 5ab6 60bd 265d 53bd 2835 bd3c
000000d0: d8d0 cf3c 4ced 2a3d f24a 45bd 2c4f 353d
000000e0: 4c54 723d 7038 20bc 2a37 413d 884d 353c
000000f0: 180c 93bc 8048 c03a a0e6 63bd f03a d4bb
00000100: c017 853b 74aa fb3c 2826 773d 8013 cfba
00000110: ac16 60bd a296 42bd f88d 68bd be34 17bd
00000120: 7043 c53c 3493 6fbd e2f6 203d d0dc c33b
00000130: 8017 873c 0086 f5bb 102b 55bd c8ab 613d
00000140: 382f c73c e651 763d 68e5 123c bacf 6f3d
00000150: 685c 1a3d a02a 37bd 8c45 90bc 08ee 053d
00000160: e656 04bd f41d 913c a839 b4bc f4e7 ed3c
00000170: 9aee 633d 0008 5a3d 1ef1 243d 006b e2ba
00000180: 18d1 d33c 9036 2fbd fc0a be3c f858 e73c
00000190: d85d 1d3c 1413 0b3d 0cff 5f3d fce0 5bbd
000001a0: 0e35 6d3d 6c4b fcbc 2006 debc 7c5c 123d
000001b0: e098 193d 681f c13c a8e2 153c 406a 71bc
000001c0: 3602 36bd aefd 043d ca15 6fbd fe64 533d
000001d0: 6466 f43c 74a6 c6bc 20fe 44bc 20f1 733c
000001e0: dcae aabc 7632 67bd d842 4fbc 2c7d 563d
000001f0: c038 18bd 98e8 cbbc 4017 b33a 6422 393d
00000200: b080 543c 08fb 98bc ae32 1f3d de92 593d
00000210: 0891 67bc 80a4 35ba eaba 4cbd 3c27 b1bc
00000220: be53 6a3d e411 e5bc 0000 94b8 48c7 d63c
00000230: e44b 12bd a2c0 20bd 885a b5bc f00f 523d
00000240: e450 be3c d284 283d 3c47 5fbd 78ad 04bd
00000250: 70a6 e33c 589b 4dbc 30b5 d83b 006b 4cbb
00000260: e81a 773d 60b0 7c3b 2822 a63c 0e93 0f3d
00000270: 4854 683c 26d6 123d 7a8c 29bd c054 94bb
00000280: 1643 71bd 4853 7b3d 9800 253d 5ec0 4ebd
00000290: 4cea 243d fc3a 0abd 66ea 253d d09a d5bc
000002a0: 1012 cc3b ec09 75bd a456 1c3d d892 2fbd
000002b0: c429 c6bc beaa 7c3d 88a7 373d 227e 64bd
000002c0: a89f 5c3c 8c58 8abc 4018 b7bc c03e fdbb
000002d0: 2ca2 133d 5a22 38bd 8a79 13bd 1670 6b3d
000002e0: c6a2 31bd 0821 253c 2002 783c 081f e93c
000002f0: 9cf4 8a3c 58ae ed3c 12e9 113d a45c 78bd
00000300: dc89 553d c4bf 733d 54d1 19bd d012 b1bb
00000310: 6873 9ebc 7889 4b3d 4608 18bd 222d 003d
00000320: 1417 eabc d414 263d a8ae 5bbd 24b5 babc
00000330: dcf1 763d 28bf 223d 42e8 3dbd d076 6f3c
00000340: d82c e2bc 70e0 b5bc e87e 2cbc b6d1 44bd
00000350: 503b 853b 587e 4e3d 2896 643c 5eca 53bd
00000360: f6f4 21bd c4b5 40bd 5035 f03c e8df 493d
00000370: 00b6 2bb9 a4c1 09bd 2099 543c 3cc8 3ebd
00000380: 841f a1bc aa98 0bbd 20e5 be3b 4a5c 5f3d
00000390: 8ca6 a8bc c466 ecbc 2cc5 8abc 90f4 0fbd
000003a0: 36e0 40bd c26b 393d acc5 573d 0404 003d
000003b0: 1a75 653d 30ff 7e3c 2408 60bd 58e0 4cbc
000003c0: c0f7 e43c e834 15bc 6a66 793d ae8c 7cbd
000003d0: b0a6 bfbc 80fd 893a 60c1 463b 6e78 0cbd
000003e0: 903e 90bc a081 d83c 60ce 703d e4aa 623d
000003f0: 6257 1abd a8ff 043d 4093 9fbb 5c15 18bd
0.04299242 0.0258779 0.028351724 -0.0073299855 -0.030819245 -0.0077497065 0.023782842 0.049916662
0.059688576 0.05717157 0.058233507 0.006071061 -0.05920759 0.025782675 0.053908005 -0.012267612
-0.014310919 -0.03994228 -0.03875158 0.028938018 -0.007840857 -0.028666832 0.0509108 0.0067063943
0.013425194 -0.061763763 0.005565539 0.017901056 0.0135599 0.014065549 -0.025863305 0.02710677
-0.011895031 0.04031463 0.0319169 -0.010835968 -0.0032901466 0.043695033 -0.016336478 -0.05464354
-0.035974756 -0.0025014281 -0.0037032291 0.03276249 -0.033558853 0.03707841 -0.015874654 0.020188347
0.031766653 -0.054861404 -0.051602505 0.023096636 0.02536814 0.04173021 -0.048167177 0.044264957
0.059162423 -0.009779081 0.04717175 0.011065848 -0.017950103 0.0014670044 -0.055639863 -0.0064767525
0.004061669 0.030720927 0.060339123 -0.0015798658 -0.05470912 -0.047506936 -0.056776017 -0.036915533
0.024080008 -0.058489993 0.039297946 0.0059772506 0.016490698 -0.0074927807 -0.05204302 0.055095464
0.024314508 0.0601367 0.0089658275 0.058547713 0.03768578 -0.044718385 -0.017611288 0.032697707
-0.032309435 0.017714478 -0.022000149 0.029041268 0.05564747 0.053230286 0.04026901 -0.001727432
0.02585654 -0.042776644 0.023198597 0.028240666 0.009604894 0.03395374 0.05468659 -0.05368136
0.057911925 -0.030797683 -0.02710253 0.03573273 0.03749931 0.023574546 0.009148277 -0.014734805
-0.044435702 0.03246849 -0.05837039 0.051609986 0.02983398 -0.024249293 -0.012023479 0.014889032
-0.020835333 -0.056444608 -0.012650214 0.052365467 -0.037163496 -0.024891183 0.0013663545 0.045198813
0.012970135 -0.018674389 0.03886669 0.05311858 -0.014133699 -0.00069291145 -0.049982943 -0.021625154
0.05720877 -0.027962632 -7.05719e-05 0.026218072 -0.035716906 -0.03924621 -0.022137895 0.05128473
0.023231931 0.041142292 -0.054511294 -0.032391995 0.027789325 -0.012549244 0.006613396 -0.0031191707
0.060328394 0.0038557276 0.020279959 0.03505235 0.0141802505 0.03584876 -0.041393735 -0.0045267045
-0.05890187 0.06135872 0.04028377 -0.050476424 0.040262505 -0.033747658 0.040506743 -0.026074797
0.006227739 -0.059823915 0.038168564 -0.04286465 -0.024189837 0.06168627 0.044837505 -0.055784352
0.013465799 -0.016887926 -0.02235043 -0.0077284276 0.03604333 -0.044954635 -0.03600458 0.05747994
-0.043368123 0.010078676 0.015137225 0.02845718 0.016962342 0.029013798 0.035622664 -0.060635224
0.052133426 0.059509054 -0.037553146 -0.005403854 -0.01934214 0.049691647 -0.037117265 0.031293042
-0.028575458 0.040547207 -0.053633362 -0.022791453 0.06028925 0.039733082 -0.046364076 0.014615729
-0.027609274 -0.022201747 -0.010528304 -0.04805156 0.0040659085 0.05041346 0.013951816 -0.051706664
-0.039540254 -0.047048345 0.029322296 0.0492858 -0.00016375631 -0.033631936 0.012975961 -0.046577677
-0.019668348 -0.03408114 0.0058256537 0.054531373 -0.020587228 -0.028857596 -0.016939722 -0.035145342
-0.047088824 0.04526878 0.05267875 0.03125383 0.05601988 0.015563771 -0.054695264 -0.01250466
0.027950168 -0.009106852 0.060888685 -0.0616576 -0.023394912 0.0010527819 0.0030327663 -0.03429454
-0.017607957 0.026428998 0.058790565 0.055338755 -0.03768099 0.032470375 -0.0048698485 -0.037129745

fc2.bias f4 [128]
00000000: 3e82 1d3d 102a 4abd 8085 49bc 1204 14bd
00000010: d890 0abc 4019 89bb fc3c 483d dc0a 5ebd
00000020: 6022 4e3d 608f a83c e0eb c0bb a8de 7bbc
00000030: 30b9 62bc b88d 103d 0618 42bd c8ad db3c
00000040: eaa1 2ebd 8ca0 f5bc 6848 493d ccc2 073d
00000050: 5883 703d d634 143d 4c68 893c 6076 f8bb
00000060: 5073 16bc e0e3 a83c fa12 4e3d 4813 acbc
00000070: 14b8 4dbd 087d 27bc f890 d9bc 3aa0 5abd
00000080: ee7f 583d e0cb bcbc 6024 b83b 58d7 7a3d
00000090: 4408 e2bc 6e72 38bd 82ec 383d 5a38 573d
000000a0: b630 003d 5c98 9dbc 00d9 5bba 08e2 503d
000000b0: 42c2 4cbd 6844 433d 22f3 1f3d 0020 3e3d
000000c0: c4dc 61bd b072 423c f877 4abd 908e e0bb
000000d0: 4e4a 3a3d 80ac 793c 845a 4e3d d427 d93c
000000e0: 9cf5 823c 24b9 ed3c 90b1 143d 3af2 0fbd
000000f0: 047e 61bd 26f3 353d 1652 083d a095 41bc
00000100: 7a16 533d 8c09 13bd a6e9 1a3d 088c 683c
00000110: ea36 6ebd 78bf a0bc 0cbf 70bd a202 1fbd
00000120: 563d 70bd 5088 a5bc 587d a03c 8ee1 103d
00000130: 42a2 5f3d e8b1 54bd cc63 15bd 98e0 843c
00000140: 2cb8 9f3c 54c2 e9bc cef6 733d 7614 783d
00000150: c01e 80bc b072 98bb 6045 b23c 660a 023d
00000160: 4055 c93a 406d 0fbd 7a62 71bd 18a1 f73c
00000170: d423 66bd 40b2 6a3c 88b7 0abd e8e2 483d
00000180: 7014 f3bb 78fa 51bd d047 263d 2c4e 43bd
00000190: 08c7 6cbd 20d3 51bb 5648 7a3d 6e0a 463d
000001a0: 402e a83c f0de 22bc 7cb3 ed3c 3c84 d03c
000001b0: b259 0bbd 6046 2e3c e0cc d83c b04b 34bd
000001c0: 90d8 a13b 98c3 a3bc 745b 243d ec34 0d3d
000001d0: f076 f7bc 5685 7ebd 22a8 6b3d c030 f33c
000001e0: ae47 663d 000b 6fbd 889a 213c 84a6 52bd
000001f0: 4015 833b 446b 9fbc 3899 2d3d fe1c 043d
0.038454287 -0.04935652 -0.012299895 -0.036136694 -0.008457385 -0.0041839182 0.048886284 -0.054209575
0.05032575 0.020576179 -0.0058874935 -0.01537291 -0.013838097 0.035291404 -0.04738619 0.026816264
-0.042634882 -0.029983781 0.049141318 0.033144757 0.05871901 0.0361832 0.016773365 -0.007582471
-0.009182766 0.020616472 0.050311066 -0.021005288 -0.05022438 -0.010222681 -0.026558384 -0.05337546
0.05285638 -0.023046434 0.0056195706 0.061240524 -0.027591832 -0.045031004 0.045147426 0.052543975
0.031296454 -0.01923769 -0.00083865225 0.05099681 -0.049989946 0.04767266 0.03905023 0.046417236
-0.05514218 0.011868164 -0.049430817 -0.0068529323 0.04548102 0.015238881 0.05037929 0.02650825
0.015986256 0.029018946 0.03630215 -0.035143115 -0.05505182 0.044421338 0.03328141 -0.011815459
0.051535107 -0.035897776 0.03782048 0.014193542 -0.05815784 -0.01962255 -0.058775946 -0.03882087
-0.058652245 -0.0202066 0.019591019 0.035371356 0.0545981 -0.051927477 -0.036472127 0.016220376
0.019497 -0.028535046 0.059561543 0.060566388 -0.015639663 -0.0046523437 0.021761596 0.031748198
0.001536049 -0.0350163 -0.058931805 0.030228183 -0.056186512 0.014324725 -0.033866435 0.04904452
-0.007418208 -0.051264256 0.04059583 -0.047681972 -0.057807 -0.003201671 0.06110414 0.04834979
0.020529866 -0.009940848 0.029016249 0.02545368 -0.034021087 0.010636896 0.02646488 -0.044017494
0.0049391463 -0.019990727 0.04012628 0.0344743 -0.030208081 -0.062138878 0.05753339 0.029686332
0.056220703 -0.0583601 0.009863503 -0.051428333 0.004000336 -0.019460328 0.04238245 0.03225421

fc3.weight f4 [13, 128]
00000000: 5597 5d3d f434 44bd a6ad 0f3d 15b8 923d
00000010: b8de 003d a598 2b3d 1c9a 0abd 8f68 033c
00000020: 47dc c73c 9c36 983d b652 3dbd af5b e73c
00000030: 3d76 033d 0c82 b4bb 5af6 ae3b c708 c5bc
00000040: 908e 5abd 5467 abbd 0cae ff39 457a 3c3d
00000050: f6b8 ffbc 4ec8 f5bb dc3d 2f3c 85f6 84bd
00000060: 9520 8fbd ce57 04bd 6b92 30bc c1c1 62bc
00000070: 74e8 963d 229a 4bbd e3a9 a13d a084 553d
00000080: 4cb1 bfbb d916 a0bb feaf 11bc 3fd8 b03c
00000090: e8b5 473d 2aa5 a73d cfd8 bb3c d5a8 3b3b
000000a0: 1326 54bd 7279 35bb 0f3d 8abc 1375 d6bc
000000b0: 2b0a 89bd 7231 083c b239 ca3c 7755 34bd
000000c0: be74 823c 9b9d 1ebc c33d 91bd c21e 35bd
000000d0: 544c 6bbd 2cd2 163d 3207 9dbd 80c8 e9bc
000000e0: f838 3dbc 9547 4cbd 2ed6 96bd 3619 9cbc
000000f0: 0d10 8bbd 272e d83c 5db3 a7bd 993b 003d
00000100: 217f acbc 09b5 6dbc cc8e 75bd debb 053d
00000110: b8f8 6fbd a342 15bd adbc 6e3d 5484 7abd
00000120: 6420 8fbd 66ce fabc 08e8 ddbc c488 e63c
00000130: 0fe5 a43d c84a 923c d9b3 b13c bce0 98bd
00000140: 3234 93bc abda 27bd 905e b33d a118 83bd
00000150: 1967 aebc 201e ffbc 872f 383d be4d 5abc
00000160: 6aa4 28bd cd53 2bbd cdbd c439 794a 8a3c
00000170: 7951 d2bc 494b ca3c 76fc 783c f8bd 243a
00000180: c8bd 11b9 5927 c73c 975a 6fbd 2a4a a7bc
00000190: 053d 0f3d ee67 27bc 49a9 933c 0353 2e3d
000001a0: 95e4 61bd bdcc 853d d8f1 3bbb 434c b4bc
000001b0: 0397 dfbc 4d17 11bc f10d 333d ae85 473d
000001c0: 45b0 22bd 4d78 ef3b d508 b0bd 0b54 87bd
000001d0: f8c7 69bc 11ee 1dbc c5ac 7aba 3b98 9b3c
000001e0: e8af 88bd 5e9f 5c3d abeb d6bc 707e 22bd
000001f0: 732c 223c 6b88 283d e813 98bd 7258 85bd
00000200: f6f7 afbc 71a8 843d a575 cabc 031a 973b
00000210: 9f29 963d 2fed 56bd b2cb 1fbd 4f42 ab3d
00000220: 9578 ac3d 652d 36bd a5a3 fe3c 7694 2e3c
00000230: c326 bd3c b93e a9bd 95c1 9ebd 4844 f4ba
00000240: c05c 14bd e107 173d d09e a6bd 36a9 b13d
00000250: 76d3 023d 865e 6b3d b246 25bd 9d2d a73d
00000260: 4a70 b23c a053 af3d 45cc a33c 1bba 5e3d
00000270: ddc9 01bd 5d2a 9cbd ee2c 21bd b966 1d3d
00000280: 8d3e d8bc 90a7 4e3d 4b33 3c3c d695 0c3c
00000290: 70fa 673d b718 5d3c dc76 8bbc cb36 b3bd
000002a0: c9c6 0b3b 22ee 58bc c6e3 38bd 27f1 7bbb
000002b0: ba4d 95bc 8b29 673d c80a 7bbd dfb0 4dbc
000002c0: 7f26 7e3d 0feb b7ba eaa5 7f3d 02ef 363d
000002d0: 8b4c 9b3d a7b3 8b3d 6b12 ee3c ec23 883d
000002e0: 42ae 9dbd a0f7 623d 5856 26bd 69f8 1f3d
000002f0: 227d 2f3d 7e4a d23c 2f14 9aba d477 963d
00000300: 0228 a5bd 92cb c83b d549 923d 9e79 4f3c
00000310: d39e f6bc 2916 d33c 6fe8 51bd 14b4 5bbd
00000320: b33f 5abd 3d22 9abd 69bd 8cbd 5d17 643d
00000330: 4153 2c3d c1ea 4dbd e896 5e3b 408e 9d3d
00000340: ee77 aebd e37b 26bc 3b9a 9f3d ad56 223d
00000350: 9a3d b2bc 16a9 1e3d 9ad1 593c d82d 7a3d
00000360: 3d20 7dbd 0a2e 243d 119f 223d bd41 8bbc
00000370: ddd4 41bb bd92 153d 60be a0bd 05e0 70bd
00000380: 20be 50bd f99b 723c 7d4d 0e3d a72c 8b3d
00000390: 3f4e 13bd bd88 6bbd dd1c cd3b 8f1b 02b7
000003a0: 01af aa3d 2d3e 95bd 7f8e abbd 4883 17bd
000003b0: 0024 34bc 0e4a 85bd 7d72 86bd 27d4 bebc
000003c0: c81d 493d 8bcf 963d c774 4bbc b91a fb3b
000003d0: f437 efbc 4ae8 b4bd 8d6e adbc d28c babc
000003e0: a499 09bd 95bb bd3c c66b 8cbd a8cb ffbb
000003f0: 9eca 14bd 8df2 65bc dd28 9e3d 4053 263d
0.0540994 -0.047902063 0.035077713 0.07164017 0.0314624 0.04189362 -0.033838376 0.008020534
0.024397029 0.07432291 -0.046221457 0.02824196 0.032095183 -0.005508667 0.005339426 -0.024052037
-0.053358614 -0.08369318 0.00048767065 0.046015043 -0.031216126 -0.007500685 0.010695901 -0.06492332
-0.069886364 -0.0323103 -0.010777096 -0.01384014 0.07368556 -0.04970754 0.078937314 0.052128434
-0.005849993 -0.004885536 -0.008892057 0.02158749 0.048757464 0.081857994 0.02293053 0.0028634567
-0.051794123 -0.0027690795 -0.016874818 -0.026178872 -0.066913925 0.00831257 0.024685714 -0.044026818
0.015924808 -0.009681131 -0.07091858 -0.044218786 -0.05744584 0.03682153 -0.07667388 -0.028537989
-0.011549227 -0.049872953 -0.0736507 -0.01905499 -0.06790171 0.026389195 -0.08188508 0.031306837
-0.021056714 -0.014508494 -0.059950635 0.032649867 -0.058586806 -0.036440503 0.058285404 -0.061161354
-0.069886 -0.030615997 -0.02708818 0.028141387 0.08051502 0.017857924 0.021692203 -0.0746474
-0.017969225 -0.040980022 0.08758271 -0.06401182 -0.021289395 -0.031142294 0.0449672 -0.013324199
-0.041172422 -0.041827966 0.00037525446 0.016881214 -0.025673615 0.024694102 0.01519691 0.0006284411
-0.00013898977 0.024310755 -0.058436003 -0.020421106 0.034970302 -0.01021765 0.018025057 0.042559635
-0.055149633 0.06533191 -0.0028678086 -0.02200902 -0.027293688 -0.008855653 0.043714467 0.04871147
-0.039718885 0.007308042 -0.085954346 -0.06607827 -0.014268868 -0.009639279 -0.0009562488 0.018993488
-0.066741765 0.053862922 -0.026235422 -0.03967136 0.009898293 0.041145723 -0.07425672 -0.0651101
-0.021480542 0.0647744 -0.0247143 0.004611255 0.07332157 -0.05247229 -0.03901262 0.08362257
0.08421437 -0.044476885 0.031083891 0.010655513 0.023089772 -0.082639165 -0.077517666 -0.0018636072
-0.036221266 0.03687275 -0.0813576 0.086748526 0.031939946 0.05746319 -0.040350623 0.08162997
0.02178206 0.08560872 0.019994864 0.054376703 -0.031686652 -0.07625268 -0.03934949 0.038428042
-0.026397014 0.05045277 0.011486839 0.008580646 0.05663532 0.013494662 -0.01702445 -0.08750685
0.0021328202 -0.013240369 -0.045139097 -0.0038443299 -0.01822554 0.056436103 -0.06128958 -0.012554376
0.06204843 -0.0014031845 0.062414087 0.04466153 0.07582959 0.06821375 0.029061517 0.066474766
-0.07699253 0.055411935 -0.040609688 0.03905526 0.042843945 0.025670286 -0.0011755283 0.07347074
-0.080642715 0.006127783 0.071429886 0.012663273 -0.03010503 0.025767403 -0.051247057 -0.053638533
-0.053283405 -0.07526062 -0.068720646 0.055686343 0.042071585 -0.050272707 0.003396446 0.07693148
-0.085189685 -0.010161373 0.07793089 0.03963344 -0.02175789 0.03873547 0.013294602 0.061078876
-0.061798323 0.04008297 0.03970248 -0.01699912 -0.002957634 0.036516894 -0.07848811 -0.05880739
-0.050962567 0.014807695 0.034741867 0.06795626 -0.035963293 -0.05750345 0.0062595443 -7.75502e-06
0.083341606 -0.0728725 -0.08376788 -0.036990434 -0.010994911 -0.065082654 -0.06564806 -0.023294521
0.049100667 0.073638044 -0.012417979 0.0076630977 -0.029201485 -0.08833368 -0.021170879 -0.022772226
-0.03359379 0.023160735 -0.06856494 -0.00780626 -0.036326043 -0.014034879 0.07722638 0.040606737

fc3.bias f4 [13]
00000000: 2c4b 95bd 5c20 d53a 4782 543c 929e 783d
00000010: 1d22 3a3d 881f 0f3c a10b 903d 7c19 e63c
00000020: b4db c3bb ba3e 99bd 8cc4 a4bd 9f9c 29bd
00000030: 5767 3f3d
-0.072897285 0.0016260254 0.012970514 0.0606981 0.04544269 0.008735545 0.07033468 0.028088324
-0.0059771184 -0.07482667 -0.08045301 -0.04140913 0.046729412
