Player 3_policy_net.pth (torch, 195328 bytes, 6 tensors)

fc1.weight f4 [256, 52]
0.07766827 -0.11956221 -0.0136836795 -0.11483948 -0.004713436 0.039550338 0.08853651 0.12458349
-0.12660557 0.006037928 0.09882 0.12992837 -0.05184041 0.029062748 0.123927444 0.044339407
-0.058251977 -0.12198995 0.1221884 -0.021430636 -0.06085388 0.10240686 0.07148463 -0.071185134
0.1180728 0.11101714 0.11242683 -0.008044653 0.13867083 -0.042805642 0.10959395 -0.114069685
0.03585353 0.04107053 0.044906314 0.08168574 -0.13680086 -0.04518538 -0.13403489 0.07744716
-0.068636514 -0.033705283 0.11358568 0.053518306 -0.043988 -0.08770031 0.029494036 0.12396986
-0.06539997 -0.08685299 -0.12124606 0.020126428 0.080135025 0.11153589 -0.049286347 -0.0106533
0.078514904 0.039780423 -0.070634015 0.12252914 0.047328357 -0.10345057 0.08681907 0.06191303
-0.02543772 0.075062 0.005478226 0.018062918 0.047182087 -0.061740424 0.023329725 0.08818785
0.009368682 0.01243009 -0.0035484552 -0.06539354 0.07171984 -0.09663547 0.021560704 0.10561211
0.066762134 -0.057740133 0.00402107 -0.044921424 0.0739016 -0.11015059 0.12475872 -0.049646996
-0.04313161 0.04364499 0.1317262 -0.013436982 0.078723915 0.030905003 -0.11796086 0.106125444
-0.07281268 0.057436686 0.051828805 -0.1266448 -0.007984743 -0.011731442 -0.08803343 0.11376528
0.060324796 0.019086093 -0.019395445 0.018619612 -0.09086618 0.097207785 0.015762134 0.11159722
-0.024974346 -0.020177428 -0.12535948 -0.13746843 -0.07142937 -0.13224018 0.023894848 0.13747214
-0.13830274 -0.022482261 -0.12967867 0.12348268 -0.035422627 -0.10855416 0.06221732 -0.0140466085
0.004513622 -0.097736076 -0.0697536 -0.086188614 -0.06491615 -0.0035727066 -0.0747032 0.021998206
-0.012965111 -0.0045062155 0.05165056 0.005776369 0.11117425 -0.09764089 0.11842042 -0.10022383
0.044187732 0.014885476 0.10332677 -0.047745112 -0.12963644 0.10567863 0.101998866 0.001073761
-0.0030433561 -0.11451919 0.084503025 0.079440065 0.12113088 0.095245086 -0.0043260404 0.12820351
-0.1286602 0.116750486 0.06704682 0.1348416 -0.06380873 0.07706773 0.10466928 -0.015056608
-0.020493655 -0.036955312 -0.02563322 0.100818 0.107041776 0.045477144 -0.04185013 -0.09698945
0.089029625 0.06354084 -0.057422087 0.12765163 0.070948124 -0.093103 -0.120658636 -0.101134576
-0.07382837 0.064129785 -0.10329329 0.12327176 -0.09942576 -0.11293715 0.11215117 -0.0298649
0.050147712 0.039001595 -0.050498277 -0.019965362 -0.11990175 -0.011596116 -0.11249567 -0.119387634
0.087653816 0.122902535 -0.11609076 0.020963674 0.09028966 0.049369466 0.109879285 -0.030611042
-0.09409004 -0.09697292 0.035005108 -0.035510853 0.018644227 0.1281528 0.08366717 -0.0353421
-0.12735589 -0.013307789 0.06534679 -0.07270929 -0.11852197 -0.027306143 -0.026764758 -0.078924865
0.05465669 -0.0061691874 0.07126863 0.102907434 0.07391352 0.06788055 0.08926108 -0.04155222
0.025351046 0.07638392 -0.049333297 -0.1318505 0.074833095 0.015610806 -0.01888646 0.11988897
0.023828508 0.035803143 -0.0082768025 0.10475631 0.062300887 0.0010457404 -0.049607717 -0.028120957
-0.10520308 0.03603632 0.12169197 0.05540131 -0.015193058 0.11002679 0.025440002 -0.07026024
00000000: 8b10 9f3d 08dd f4bd 8331 60bc f630 ebbd
00000010: 2b73 9abb 89ff 213d a152 b53d a125 ff3d
00000020: e4a4 01be d0d9 c53b 2462 ca3d f10b 053e
00000030: 9c56 54bd 0015 ee3c accd fd3d 3d9d 353d
00000040: a099 6ebd ded5 f9bd e93d fa3d 4d8f afbc
00000050: eb41 79bd b0ba d13d 8966 923d 83c9 91bd
00000060: 27d0 f13d f45c e33d 0a40 e63d b8cd 03bc
00000070: baff 0d3e f854 2fbd cb72 e03d 5e9d e9bd
00000080: 27db 123d 9239 283d afef 373d da4a a73d
00000090: 8615 0cbe 4e14 39bd 7140 09be 9e9c 9e3d
000000a0: 4d91 8cbd 8d0e 0abd 9c9f e83d 0336 5b3d
000000b0: c32c 34bd 389c b3bd 7a9d f13c e9e3 fd3d
000000c0: 6bf0 85bd fbdf b1bd db4f f8bd 2ee0 a43c
000000d0: d51d a43d ee6c e43d 7be0 49bd 2e8b 2ebc
000000e0: 6ccc a03d ccf0 223d 91a8 90bd 8ff0 fa3d
000000f0: 61db 413d e4dd d3bd 32ce b13d 8498 7d3d
00000100: c462 d0bc 1bba 993d b182 b33b aff8 933c
00000110: 0142 413d 87e3 7cbd fb1d bf3c d59b b43d
00000120: 1a7f 193c 94a7 4b3c 338d 68bb 0ced 85bd
00000130: dae1 923d d1e8 c5bd 13a0 b03c 294b d83d
00000140: 96ba 883d eb80 6cbd 2ec3 833b 87ff 37bd
00000150: b959 973d a296 e1bd 8081 ff3d a65a 4bbd
00000160: c5aa 30bd 17c5 323d 3ce3 063e ca26 5cbc
00000170: 013a a13d 7d2c fd3c 7795 f1bd 4c58 d93d
00000180: d01e 95bd bb42 6b3d 714a 543d 2daf 01be
00000190: 71d2 02bc 3c35 40bc df4a b4bd c5fd e83d
000001a0: 2217 773d 705a 9c3c 32e3 9ebc 2888 983c
000001b0: 0c18 babd e014 c73d 971f 813c 158d e43d
000001c0: 0097 ccbc 224b a5bc 3c5e 00be 86c4 0cbe
000001d0: 9049 92bd f869 07be 21bf c33c 7fc5 0c3e
000001e0: 3c9f 0dbe b82c b8bc 7cca 04be 7de4 fc3d
000001f0: 5117 11bd a551 debd 97d7 7e3d bf23 66bc
00000200: 01e7 933b da29 c8bd fada 8ebd a883 b0bd
00000210: c2f2 84bd 1224 6abb fefd 98bd 9535 b43c
00000220: 9e6b 54bc e0a8 93bb 8a8f 533d b247 bd3b
00000230: 53af e33d f2f7 c7bd 6886 f23d 2742 cdbd
00000240: 32fe 343d 36e2 733c fc9c d33d 6190 43bd
00000250: 6abf 04be 0a6e d83d c8e4 d03d 71bd 8c3a
00000260: 0b73 47bb 0989 eabd ec0f ad3d 79b1 a23d
00000270: 7813 f83d db0f c33d 75c1 8dbb c847 033e
00000280: 80bf 03be e11a ef3d d84f 893d eb13 0a3e
00000290: 27ae 82bd b0d5 9d3d d95c d63d feaf 76bc
000002a0: 4fe2 a7bc 745e 17bd c2fc d1bc ab79 ce3d
000002b0: b838 db3d 3e46 3a3d 0b6b 2bbd 68a2 c6bd
000002c0: 2a55 b63d b321 823d 6c33 6bbd 1cb7 023e
000002d0: 404d 913d c9ac bebd e01b f7bd a51f cfbd
000002e0: 5433 97bd 7a56 833d 6f8b d3bd e875 fc3d
000002f0: bc9f cbbd 984b e7bd 83af e53d 3ca7 f4bc
00000300: b067 4d3d 23c0 1f3d 48d7 4ebd 668e a3bc
00000310: 0c8f f5bd a3fd 3dbc 2164 e6bd 8181 f4bd
00000320: d883 b33d 53b4 fb3d fec0 edbd 03bc ab3c
00000330: c9e9 b83d a337 4a3d 6408 e13d 02c4 fabc
00000340: 47b2 c0bd bd99 c6bd 8461 0f3d d473 11bd
00000350: c7bb 983c 7d3a 033e b159 ab3d e1c2 10bd
00000360: 9569 02be ea08 5abc 8ad4 853d 9ce8 94bd
00000370: a6bb f2bd 22b1 dfbc c441 dbbc 5ca3 a1bd
00000380: b2df 5f3d e526 cabb 4af5 913d 22c1 d23d
00000390: f95f 973d f504 8b3d 83ce b63d a932 2abd
000003a0: ffac cf3c 2c6f 9c3d b611 4abd d103 07be
000003b0: 1842 993d 77c4 7f3c c7b7 9abc 5988 f53d
000003c0: 0134 c33c 51a6 123d 6d9b 07bc 7a8a d63d
000003d0: 372f 7f3d 3a11 893a 7631 4bbd ec5d e6bc
000003e0: b674 d7bd d29a 133d a439 f93d 7cec 623d
000003f0: 4eec 78bc ba55 e13d 8d67 d03c 9ae4 8fbd

fc1.bias f4 [256]
0.13612223 0.048563067 0.022612397 -0.042976774 -0.11119238 -0.03806624 0.10344121 -0.0920935
-0.05338503 -0.06740776 -0.12589452 0.10908219 -0.116397165 0.050113082 -0.10859749 -0.04977827
-0.010938714 0.1249708 -0.021851657 0.12473102 0.040261403 -0.028192671 0.0398237 0.062894545
0.09661461 -0.13432717 -0.10493703 0.081423 0.124293216 0.042697266 -0.007500441 -0.067857176
0.028128726 0.02288199 0.11609456 0.08899962 0.1350539 0.120217755 0.018568993 -0.092172235
-0.12283514 0.09116432 0.03330673 0.10197288 -0.09570032 0.1056425 -0.107720405 -0.07499292
-0.052929115 0.04836545 -0.02536533 -0.04155503 0.10316516 0.01680055 -0.09147912 0.104506955
-0.04285097 -0.053099487 0.047816843 -0.13712199 -0.041658714 0.12075676 -0.07297702 0.06639274
0.053197715 -0.13196672 0.0625511 0.009147162 -0.10858871 0.05125672 -0.12011814 -0.034353875
-0.11872835 -0.11561416 0.048929073 0.0907651 0.043228153 -0.13723414 -0.09548168 -0.03956877
-0.045642704 0.015840277 -0.075024195 -0.08024075 0.04676927 0.0940927 0.02820831 0.09578823
-0.074286915 -0.09762891 -0.010941276 -0.112108454 -0.11049552 0.013093808 0.07686473 0.03630758
-0.034855187 -0.008975765 0.09069886 -0.07800194 -0.051069353 -0.029656935 -0.13442566 0.13380985
0.06426952 -0.111655265 -0.10241342 -0.003519393 0.08952885 -0.11103694 0.003580278 0.051224187
0.0065924725 0.099475 -0.009626208 -0.13830402 -0.05785033 0.025094975 -0.11271074 0.122681044
0.10015306 -0.030301029 -0.03173529 -0.09888018 -0.020120261 -0.1005653 -0.073596776 0.028398221
-0.021848565 -0.04652533 0.07780318 -0.035369657 0.02548467 0.06928932 0.05637873 -0.12821306
0.034657918 0.06646951 -0.08170109 -0.12578407 0.04544289 0.045823872 0.1041557 0.13521273
0.03475917 -0.024748264 0.04136725 -0.0128456885 0.05256359 0.055249438 -0.12496932 -0.13651036
-0.13589016 -0.03154093 -0.11509339 0.11904266 0.056925785 -0.018326048 0.13209271 0.07137002
0.10091026 0.06678014 0.008896464 -0.035641417 0.093168974 0.033079654 -0.046661533 -0.0009202013
-0.122451246 -0.0047719902 0.037489902 -0.099477574 -0.08420321 -0.120606706 -0.0068462617 0.0819164
-0.0418458 0.09974325 0.03413809 0.12018574 0.026464995 -0.03662824 0.08159281 -0.027563801
-0.10690104 0.08695074 0.08163639 0.13707274 0.04137183 0.0059103062 -0.10199953 0.0067218468
0.046209745 -0.033723846 -0.01675051 0.061559785 0.057132408 -0.08478032 0.026437223 0.023748595
-0.06960798 -0.10720694 -0.024654763 0.11024796 0.10223874 -0.10288422 -0.015308993 0.13002463
-0.077265166 -0.062511995 -0.04168966 -0.10571832 0.062145527 -0.082466826 -0.0034688236 0.07424624
0.061899092 -0.04036535 -0.057657477 0.08632881 -0.05432831 -0.08471901 0.025661604 0.02317175
-0.108814284 -0.06881884 -0.014116024 -0.044114 0.0022614065 0.12782119 -0.042643882 0.028873596
0.11270439 -0.07500803 0.05588905 0.054078124 0.06366935 0.13248806 -0.12062073 -0.1369367
0.052725364 0.02916574 0.112324074 0.08738426 0.05054288 0.09080189 -0.03262663 0.021617671
-0.03850551 0.022710279 0.113335244 -0.062006697 0.055124264 -0.107511565 -0.10982233 -0.1154253
00000000: a063 0b3e 11ea 463d a23d b93c 6a08 30bd
00000010: d5b8 e3bd 58eb 1bbd fcd8 d33d 849b bcbd
00000020: 43aa 5abd 140d 8abd 7eea 00be 7c66 df3d
00000030: a361 eebd 6043 4d3d 5c68 debd 4de4 4bbd
00000040: 4b38 33bc b1f0 ff3d 3f02 b3bc fa72 ff3d
00000050: 24e9 243d 51f4 e6bc 2d1e 233d dbce 803d
00000060: e1dd c53d 108d 09be 3ae9 d6bd 1ac1 a63d
00000070: 718d fe3d 54e3 2e3d 42c6 f5bb b4f8 8abd
00000080: 376e e63c 0373 bb3c fcc2 ed3d 6f45 b63d
00000090: 924b 0a3e ba34 f63d 001e 983c ccc4 bcbd
000000a0: fd90 fbbd 5cb4 ba3d a36c 083d 28d7 d03d
000000b0: 88fe c3bd 185b d83d 849c dcbd e395 99bd
000000c0: 33cc 58bd da1a 463d f4ca cfbc 9b35 2abd
000000d0: 4148 d33d 4fa1 893c 6859 bbbd be07 d63d
000000e0: 8084 2fbd d97e 59bd 98db 433d b569 0cbe
000000f0: 54a2 2abd 524f f73d fa74 95bd ebf8 873d
00000100: d9e5 593d 4922 07be cb1a 803d fadd 153c
00000110: c263 debd 91f2 513d 8000 f6bd a6b6 0cbd
00000120: d927 f3bd 1ec7 ecbd da69 483d 0ee3 b93d
00000130: 0110 313d 1b87 0cbe e68b c3bd dd12 22bd
00000140: d8f3 3abd 78c3 813c 49a6 99bd 4355 a4bd
00000150: 2291 3f3d acb3 c03d 1d15 e73c 9f2c c43d
00000160: bd23 98bd aaf1 c7bd 0a43 33bc 1e99 e5bd
00000170: 7a4b e2bd 6987 563c 416b 9d3d 42b7 143d
00000180: 50c4 0ebd 160f 13bc 53c0 b93d 7bbf 9fbd
00000190: 192e 51bd 1af3 f2bc e1a6 09be 7305 093e
000001a0: bd9f 833d 84ab e4bd 21be d1bd 9ea5 66bb
000001b0: e75a b73d 5667 e3bd 19a3 6a3b 74d0 513d
000001c0: ab05 d83b 8cb9 cb3d 3eb7 1dbc 929f 0dbe
000001d0: 78f4 6cbd fa93 cd3c e3d4 e6bd 3340 fb3d
000001e0: 0c1d cd3d dd39 f8bc ddfc 01bd b181 cabd
000001f0: 3fd3 a4bc 2ef5 cdbd e8b9 96bd 63a3 e83c
00000200: c3fb b2bc 5891 3ebd 4657 9f3d c6df 10bd
00000210: 3ac5 d03c 8fe7 8d3d 62ed 663d 494a 03be
00000220: 76f5 0d3d 2b21 883d e752 a7bd 8acd 00be
00000230: 5322 3a3d d0b1 3b3d 954f d53d 3575 0a3e
00000240: a25f 0e3d dfbc cabc b570 293d b976 52bc
00000250: eb4c 573d 3c4d 623d eaef ffbd 5fc9 0bbe
00000260: ca26 0bbe 1031 01bd 15b6 ebbd a3cc f33d
00000270: 032b 693d 8220 96bc 5043 073e 722a 923d
00000280: 0aaa ce3d 07c4 883d 79c2 113c bcfc 11bd
00000290: 60cf be3d 887e 073d 2a20 3fbd aa39 71ba
000002a0: b8c7 fabd 5b5e 9cbb 038f 193d e6ba cbbd
000002b0: bc72 acbd a600 f7bd 9b56 e0bb c9c3 a73d
000002c0: 8066 2bbd 3046 cc3d 62d4 0b3d f123 f63d
000002d0: 1ecd d83c 7e07 16bd 221a a73d 7bcd e1bc
000002e0: efee dabd 3b13 b23d fb30 a73d cc5c 0c3e
000002f0: 8275 293d 3eab c13b 21e5 d0bd f042 dc3b
00000300: 6e46 3d3d 0422 0abd 5e38 89bc 1d26 7c3d
00000310: ac03 6a3d 4ea1 adbd e092 d83c 6a8c c23c
00000320: a18e 8ebd 508f dbbd c9f8 c9bc afc9 e13d
00000330: 8b62 d13d f6b4 d2bd 92d2 7abc 2d25 053e
00000340: 333d 9ebd 4a06 80bd c7c2 2abd d982 d8bd
00000350: 4f8c 7e3d 5ee4 a8bd 3455 63bb 6a0e 983d
00000360: e789 7d3d 2356 25bd 3f2a 6cbd 29cd b03d
00000370: 5d87 5ebd 2981 adbd 4938 d23c afd2 bd3c
00000380: 06da debd e4f0 8cbd e546 67bc e2b0 34bd
00000390: 1b34 143b 8fe3 023e 5aab 2ebd 5288 ec3c
000003a0: 8fd1 e63d cf9d 99bd ebeb 643d 0681 5d3d
000003b0: 1465 823d f3aa 073e 0008 f7bd 2239 0cbe
000003c0: 8df6 573d fdec ee3c 2a0a e63d 85f6 b23d
000003d0: 0d06 4f3d 57f6 b93d 80a3 05bd 8b17 b13c
000003e0: f4b7 1dbd e80a ba3c 4f1c e83d bcfa 7dbd
000003f0: fbc9 613d 062f dcbd 88ea e0bd 1a64 ecbd

fc2.weight f4 [128, 256]
-0.04728455 0.0051127 0.014749423 0.052547045 -0.04605022 0.03058058 0.005458303 0.00012869388
0.0005513206 -0.023782924 -0.055573173 0.0027436465 -0.053689763 -0.026594467 -0.061757006 -0.0033205822
0.028576575 0.0011793151 0.04234308 0.014081739 0.016983025 0.009907432 -0.030638866 0.05225703
-0.046545833 -0.042442583 0.054439306 -0.01235988 -0.024797179 0.007528834 -0.049705267 -0.009337693
0.021064594 0.05268555 -0.04012663 -0.046807192 -0.033250444 -0.027241766 -0.04878971 0.018401846
0.020281725 0.023768209 -0.007938445 -0.042056233 0.035231277 -0.05302479 -0.013040401 -0.031827003
0.018759914 -0.034662537 0.017730288 -0.03363853 0.050786003 -0.0450788 -0.05132702 0.0393703
0.012891859 -0.04146038 0.043358125 0.052002385 -0.045923635 -0.05976311 0.0055226088 0.05069974
0.009465449 -0.062436014 -0.049907126 -0.027107954 0.019694738 -0.011403471 0.014396392 -0.05013635
0.00034585595 -0.02504357 0.012440652 -0.0352014 0.058385096 -0.051276095 -0.029087141 -0.04486172
-0.014023572 0.0028739944 0.03449571 0.0310309 -0.031929657 0.05807946 0.005338125 0.030195683
0.02432695 -0.052062996 0.0054479092 0.0018599555 0.036884807 0.032194063 -0.05529236 0.053409375
-0.0040392727 -0.038316272 0.0024482831 0.016643606 -0.0074928775 0.003225021 0.032883912 0.00019577146
0.022869572 0.0014565513 -0.010331556 -0.03654214 -0.023942426 0.046876498 0.030803084 -0.05486227
0.004657626 0.041253284 0.054497868 0.035496086 0.017876618 -0.02647347 -0.005115673 -0.028124467
-0.02920933 0.06172964 -0.042278387 -0.02322653 0.040480256 -0.028191656 0.042927317 -0.04511939
-0.001419507 -0.027504466 0.0046968386 0.038066544 0.007357523 0.015789315 0.05375763 -0.041130714
0.058719583 -0.02214057 0.009225272 0.03057789 -0.0016877204 -0.053161167 -0.031219065 -0.024636634
-0.032078736 -0.04616276 0.022548623 -0.043590754 -0.002711147 -0.005997315 0.05048208 -0.03740731
-0.036832303 0.03659296 0.013566777 0.010763817 0.0059555992 -0.03229467 0.059899323 -0.031871073
0.016140446 0.023245089 -4.156679e-05 -0.015928835 0.018675007 -0.024882518 0.061062552 -0.044883013
-0.005112149 -0.03558793 -0.028600596 0.055271633 0.02993051 0.04301297 0.009718277 0.03911604
0.06221477 0.048629135 -0.0015525296 -0.030975081 -0.060791157 0.034330085 0.020651996 0.017379172
0.057978004 0.008596323 0.049635172 0.043519482 -0.03782945 -0.029041179 -0.049112424 -0.021508418
-0.009324983 0.03832203 -0.05373268 -0.04016155 -0.010154903 0.0045849606 0.027305923 -0.051294565
0.051776282 0.05735378 -0.018195115 -0.04077854 -0.011654317 0.014938265 -0.053668752 0.05209986
-0.044415988 -0.010904901 0.021092325 0.018788412 -0.050805435 -0.0011832342 -0.02606757 -0.018957004
-0.04055474 -0.011412144 0.043130703 -0.010259137 0.026878826 0.033147648 -0.04334657 0.0031133294
0.0068212673 -0.057167597 0.043163344 0.055380024 0.011059754 -0.05726216 -0.056728683 -0.008918397
0.013321243 -0.044925362 -0.057846494 -0.023828194 -0.011809446 -0.014098495 -0.026485808 -0.035070956
-0.0067254603 -0.05368986 -0.055148058 0.04029335 -0.052671 0.051056176 -0.031769484 -0.007199675
0.050750464 0.021859057 0.007403843 0.0028099641 0.0501737 -0.050424606 -0.040829234 -0.0011815354
00000000: 72ad 41bd 7088 a73b 90a7 713c 923b 573d
00000010: 289f 3cbd 2084 fa3c 90db b23b 00f2 0639
00000020: 8086 103a 68d4 c2bc b2a0 63bd c0ce 333b
00000030: cce9 5bbd a4dc d9bc eaf4 7cbd 209e 59bb
00000040: 6c19 ea3c 4093 9a3a f06f 2d3d 18b7 663c
00000050: fc1f 8b3c c852 223c 5cfe fabc 780b 563d
00000060: d8a6 3ebd 46d8 2dbd c0fb 5e3d 1881 4abc
00000070: 7423 cbbc 70b4 f63b c097 4bbd 20fd 18bc
00000080: a88f ac3c cecc 573d d25b 24bd e6b8 3fbd
00000090: 9e31 08bd 202a dfbc b8d7 47bd 78bf 963c
000000a0: dc25 a63c 8cb5 c23c 4010 02bc 2843 2cbd
000000b0: ac4e 103d 8630 59bd 68a7 55bc 085d 02bd
000000c0: 64ae 993c 4efa 0dbd 1c3f 913c 8ec8 09bd
000000d0: fc04 503d 8ca4 38bd 483c 52bd c042 213d
000000e0: 6038 533c 5cd2 29bd 4a98 313d 7400 553d
000000f0: 6c1a 3cbd 2aca 74bd 00f7 b43b 88aa 4f3d
00000100: f814 1b3c e8bc 7fbd 6a6b 4cbd 8011 debc
00000110: dc56 a13c a0d5 3abc d8de 6b3c c65b 4dbd
00000120: 0054 b539 2c28 cdbc e0d3 4b3c 582f 10bd
00000130: 3625 6f3d e206 52bd 2848 eebc ecc0 37bd
00000140: 20c3 65bc a059 3c3b 604b 0d3d 8434 fe3c
00000150: acc8 02bd bae4 6d3d 70eb ae3b f05c f73c
00000160: 5049 c73c 0240 55bd 6084 b23b c0c9 f33a
00000170: 8614 173d ecdd 033d 3e7a 62bd cac3 5a3d
00000180: e05b 84bb 86f1 1cbd 6073 203b 2c58 883c
00000190: d086 f5bb e05a 533b 48b1 063d 0048 4d39
000001a0: f858 bb3c c0e9 be3a b045 29bc 36ad 15bd
000001b0: e822 c4bc 9201 403d c056 fc3c 42b7 60bd
000001c0: 009f 983b 34f9 283d 2839 5f3d 5864 113d
000001d0: fc71 923c e4de d8bc 60a1 a7bb 4865 e6bc
000001e0: 6848 efbc 38d8 7c3d 1a2c 2dbd 9045 bebc
000001f0: a0ce 253d 30f2 e6bc 8ed4 2f3d 1ccf 38bd
00000200: c00e baba 0c51 e1bc f0e7 993b aaeb 1b3d
00000210: 6017 f13b 9858 813c f630 5c3d ae78 28bd
00000220: f283 703d 2460 b5bc 9825 173c 7c7e fa3c
00000230: 8036 ddba 86bf 59bd 20bf ffbc c4d2 c9bc
00000240: fe64 03bd 2a15 3dbd e4b7 b83c 388c 32bd
00000250: 80ad 31bb 2085 c4bb 4cc6 4e3d 6838 19bd
00000260: 78dd 16bd 80e2 153d 3047 5e3c b85a 303c
00000270: 3027 c33b 6a47 04bd fe58 753d 3e8b 02bd
00000280: f838 843c 7c6c be3c 0058 2eb8 307d 82bc
00000290: 54fc 983c 6cd6 cbbc ba1c 7a3d 40d7 37bd
000002a0: d083 a7bb a6c4 11bd cc4b eabc 8264 623d
000002b0: d430 f53c 5e2e 303d 6839 1f3c 2438 203d
000002c0: ead4 7e3d 582f 473d 407e cbba 74bf fdbc
000002d0: 2600 79bd b49d 0c3d 602e a93c c45e 8e3c
000002e0: 587a 6d3d 98d7 0c3c 404e 4b3d 7c41 323d
000002f0: 0ef3 1abd c4e7 edbc 1c2a 49bd 6c32 b0bc
00000300: d0c7 18bc 90f7 1c3d cc16 5cbd 7080 24bd
00000310: c060 26bc 703d 963b acb0 df3c 401a 52bd
00000320: 5e13 543d cceb 6a3d ec0d 95bc 6607 27bd
00000330: c0f1 3ebc a0bf 743c c4d3 5bbd aa66 553d
00000340: 8aed 35bd 78aa 32bc d0c9 ac3c 28ea 993c
00000350: 5c19 50bd c016 9bba a88b d5bc b84b 9bbc
00000360: ba1c 26bd 00fa 3abc d2a9 303d f015 28bc
00000370: fc30 dc3c d4c5 073d 2c8c 31bd 0009 4c3b
00000380: f084 df3b 9228 6abd 0ccc 303d 2ad6 623d
00000390: f833 353c ba8b 6abd 565c 68bd 781e 12bc
000003a0: 5841 5a3c a803 38bd 72f0 6cbd 5833 c3bc
000003b0: 687c 41bc 60fd 66bc c4f8 d8bc 90a6 0fbd
000003c0: 4061 dcbb e6e9 5bbd eee2 61bd a40a 253d
000003d0: 8cbd 57bd 4820 513d b820 02bd 40eb ebbb
000003e0: b8df 4f3d c411 b33c f09b f23b 6027 383b
000003f0: f082 4d3d 088a 4ebd 8e3c 27bd c0dd 9aba

fc2.bias f4 [128]
0.053621493 -0.05796364 0.04111757 0.03807392 0.020462222 -0.04610139 0.026316345 0.030494295
-0.033534937 -0.028260052 0.022211835 0.0074912086 -0.0515277 -0.00013888627 0.035726033 -0.038023055
-0.06200681 0.0533083 -0.04809907 -0.056359462 0.033975422 0.024372905 0.04810515 -0.025435671
0.055779435 -0.035901822 0.032554477 0.017886482 -0.036944643 -0.051825568 0.021670237 0.061887383
0.03780967 0.013171516 -0.052248165 0.031442866 -0.018962823 -0.01591567 0.0022273287 0.03132361
-0.0013851002 -0.0050164014 0.035581045 -0.016479172 0.021939166 -0.05497197 0.05836586 -0.04073517
-0.05297091 -0.017959118 -0.043093182 -0.006900564 -0.022176147 -0.04903888 0.0017007366 -0.011054717
-0.052049085 0.0067853183 0.019520886 0.041241392 0.035000853 -0.037012704 0.018657297 -0.041732527
0.010111362 0.03389378 -0.062075146 -0.05709579 0.024185188 0.04282538 -0.005743794 -0.021904051
0.004427612 -0.01189401 0.034226 0.05875393 -0.05125902 -0.053424306 -0.055320017 0.0010133013
-0.016976863 0.039892815 0.036375076 0.032023877 0.03394352 0.022080868 0.030470766 -0.043536603
-0.03093034 -0.012569353 0.062079214 -0.03148298 -0.052830435 0.0072038174 -0.018829599 -0.0605698
-0.053501718 0.039624758 0.053804174 -0.009779975 0.03449104 -0.023041464 0.012008987 0.020713836
0.056822516 0.031085037 0.017982952 0.060511597 -0.021545805 -0.034390666 0.0056879595 0.051087163
-0.05369872 0.03246294 0.038393788 0.012493171 0.02489692 0.006467551 0.010688961 -0.062293097
-0.0492877 -0.029362053 0.01511775 0.013213977 0.0029236749 -0.040571176 0.03948918 0.061363474
00000000: 36a2 5b3d 486b 6dbd e66a 283d 66f3 1b3d
00000010: 64a0 a73c d0d4 3cbd 6095 d73c 2ccf f93c
00000020: ee5b 09bd a081 e7bc 98f5 b53c d078 f53b
00000030: b60e 53bd 00a2 11b9 7655 123d 10be 1bbd
00000040: dafa 7dbd ce59 5a3d 8803 45bd 2ed9 66bd
00000050: d029 0b3d b0a9 c73c e809 453d 785e d0bc
00000060: fa78 643d ca0d 13bd d857 053d ac86 923c
00000070: 4453 17bd 0c47 54bd c885 b13c a07d 7d3d
00000080: 50de 1a3d 58cd 573c 2c02 56bd 3cca 003d
00000090: ec57 9bbc 9461 82bc 60f8 113b 304d 003d
000000a0: 408c b5ba a060 a4bb 6ebd 113d 54ff 86bc
000000b0: c4b9 b33c 4a2a 61bd 0a11 6f3d ecd9 26bd
000000c0: 06f8 58bd 001f 93bc 7a82 30bd 201e e2bb
000000d0: c0aa b5bc fedc 48bd 40eb de3a d81e 35bc
000000e0: 6c31 55bd 6057 de3b 44ea 9f3c bcec 283d
000000f0: 0e5d 0f3d a29a 17bd 30d7 983c baef 2abd
00000100: 20aa 253c 34d4 0a3d 8242 7ebd 46dd 69bd
00000110: 0420 c63c aa69 2f3d 7036 bcbb 2070 b3bc
00000120: 8015 913b 18df 42bc 9030 0c3d f6a7 703d
00000130: faf4 51bd 72d3 5abd 3e97 62bd c0d0 843a
00000140: 1013 8bbc a666 233d 08fe 143d 782b 033d
00000150: 5c08 0b3d f0e2 b43c d49d f93c 7053 32bd
00000160: a061 fdbc b0ef 4dbc c646 7e3d 4cf4 00bd
00000170: ba64 58bd 000e ec3b 8840 9abc 0a18 78bd
00000180: 9e24 5bbd 924d 223d c461 5c3d 303c 20bc
00000190: 7a46 0d3d 74c1 bcbc 58c1 443c 10b0 a93c
000001a0: babe 683d 0ca6 fe3c fc50 933c 02db 773d
000001b0: d480 b0bc 3add 0cbd 1062 ba3b c640 513d
000001c0: 30f3 5bbd dcf7 043d ce42 1d3d 28b0 4c3c
000001d0: a0f4 cb3c c0ed d33b c020 2f3c 0c27 7fbd
000001e0: e6e1 49bd b088 f0bc 70b0 773c 707f 583c
000001f0: 209b 3f3b f62d 26bd 68bf 213d 4458 7b3d

fc3.weight f4 [13, 128]
0.013442453 -0.026959948 0.034654718 0.05098111 -0.032878578 -0.02288833 -0.080092564 0.0062430967
0.087796845 -0.06628453 -0.0234282 0.068389624 0.011663444 0.08825279 -0.02366869 -0.037126675
0.037897233 0.044725213 -0.061887957 0.027149703 0.030661084 -0.050611883 0.06201932 0.03281127
0.06597198 -0.03599794 0.018909415 0.021726532 -0.025533097 0.07954075 0.085056424 -0.06640245
0.031825494 -0.016455235 0.05626661 -0.02141177 0.079072595 -0.033382546 -0.05348083 0.07643918
-0.03406832 -0.021898711 -0.004216339 -0.058922242 0.04466826 0.08292989 -0.007466272 0.08565802
0.014650118 0.07285384 -0.08744203 0.0134340655 0.039568514 -0.01666874 0.087688 0.031767733
0.0027872238 0.077239536 -0.039951976 -0.039960302 -0.074444935 -0.08336679 0.036244582 0.028551087
0.02596643 -0.021759458 0.08250449 -0.0459111 -0.051088333 -0.06199931 0.025476642 0.048434936
0.067844674 0.024938248 0.04231351 0.058725353 -0.05464184 0.013208664 -0.0068014474 0.0103584835
0.041744873 0.0111495275 0.07988525 -0.0625653 0.0772835 -0.027576473 0.06611957 0.020310577
-0.022019442 -0.060803793 0.00461528 0.062487908 0.0034503727 -0.052215245 -0.042234693 0.0046881204
0.008110244 0.013169931 -0.019952096 0.075617544 0.07791133 0.08115241 0.031844597 -0.050965738
-0.054555565 0.077404544 -0.040686008 -0.009451757 -0.007287074 -0.028414119 -0.030862998 -0.041341886
0.0755371 0.07258433 0.053641673 -0.08618537 -0.044186693 0.05620711 0.0470865 -0.03308085
-0.088244855 0.009919545 -0.062076196 0.021778993 0.024415215 -0.029134652 -0.05632664 -0.022146514
-0.0015346932 0.047343966 -0.022375815 -0.035664693 0.08268708 -0.052297167 -0.02560067 0.051560502
0.043007888 -0.014518536 9.725385e-06 0.054180637 0.032718945 -0.0027176288 0.026669534 -0.04255381
0.04549302 0.038661156 -0.080070004 -0.05570223 0.0012882289 0.027521785 -0.03634551 -0.05127598
-0.004791791 -0.06658061 0.087349914 -0.04487373 0.003604314 -0.06857458 -0.041423988 -0.063852064
0.009006918 0.026538057 0.066968 -0.08220452 -0.07235043 -0.064299434 -0.058005873 0.015910877
0.07198063 0.031245861 0.0048542633 0.058831185 -0.018383 0.010921366 0.06685294 -0.0364454
0.074769445 0.0032832816 0.031745996 -0.038741942 -0.023839174 0.013244773 0.08774118 0.049747176
-0.004292551 -0.05371915 -0.081204385 -0.0035495232 -0.081569046 -0.023266029 -0.04459426 -0.088261925
0.0718844 -0.00064766005 -0.047854617 -0.056764472 -0.0364379 0.055150773 0.021766888 -0.03496217
-0.03450477 -0.068054736 0.07628066 -0.026453374 -0.057224892 -0.07699256 -0.037533242 -0.06626503
-0.0358062 -0.0066214805 0.0040491107 0.07325836 -0.05853405 0.05149805 -0.052133985 0.06898594
-0.040171202 0.07103519 0.035063047 -0.041922648 0.05110381 0.041399755 0.00353395 0.05518585
-0.0063789045 0.08110433 -0.05208045 -0.07172102 -0.087487824 -0.08519304 0.060130097 -0.022929128
-0.068537645 0.030008188 0.029249944 0.06573748 -0.017000215 0.0143944975 0.022579215 -0.08349135
-0.031770714 0.06461505 0.033391356 0.009341354 0.02679273 -0.022235127 -0.080087416 0.029682824
-0.002293231 -0.058530666 -0.04950476 0.045856856 -0.0026895695 -0.087517664 -0.054160323 -0.061386388
00000000: bc3d 5c3c 1cdb dcbc 1bf2 0d3d 92d1 503d
00000010: b0ab 06bd 4f80 bbbc 9207 a4bd e492 cc3b
00000020: d5ce b33d 2fc0 87bd 7fec bfbc dc0f 8c3d
00000030: 0818 3f3c e1bd b43d d7e4 c1bc 2412 18bd
00000040: 213a 1b3d c931 373d 3a7e 7dbd 0e69 de3c
00000050: f42c fb3c 684e 4fbd f807 7e3d 1c65 063d
00000060: 511c 873d 9372 13bd ebe7 9a3c d7fb b13c
00000070: c92a d1bc 43e6 a23d 1032 ae3d 02fe 87bd
00000080: 735b 023d 21cd 86bc d177 663d bc67 afbc
00000090: d0f0 a13d 23bc 08bd b70e 5bbd 258c 9c3d
000000a0: 398b 0bbd ed64 b3bc 3729 8abb 7358 71bd
000000b0: 11f6 363d 25d7 a93d a1a7 f4bb 796d af3d
000000c0: 0c07 703c 6534 953d cf14 b3bd 8e1a 5c3c
000000d0: 9812 223d e28c 88bc c495 b33d e21e 023d
000000e0: dba9 363b c32f 9e3d afa4 23bd 6aad 23bd
000000f0: 9676 98bd 35bc aabd 3375 143d f8e3 e93c
00000100: 8db7 d43c e440 b2bc 1df8 a83d 470d 3cbd
00000110: 0042 51bd fdf2 7dbd 64b4 d03c b663 463d
00000120: 26f2 8a3d 4c4b cc3c ee50 2d3d ff89 703d
00000130: 1fd0 5fbd 2769 583c adde debb a1b6 293c
00000140: acfc 2a3d 82ac 363c e19a a33d 3c22 80bd
00000150: d046 9e3d 0ee8 e1bc b269 873d 5e62 a63c
00000160: 1e62 b4bc 660d 79bd c63b 973b 52f3 7f3d
00000170: a61f 623b a7df 55bd 49fe 2cbd ce9e 993b
00000180: d4e0 043c b2c6 573c 9472 a3bc 5fdd 9a3d
00000190: fa8f 9f3d 3c33 a63d 7b6f 023d 73c1 50bd
000001a0: a875 5fbd 4686 9e3d 5fa6 26bd 8bdb 1abc
000001b0: 68c8 eebb bac4 e8bc 66d4 fcbc 1c56 29bd
000001c0: 32b3 9a3d 18a7 943d 5fb7 5b3d f581 b0bd
000001d0: 1bfd 34bd 6d39 663d c6dd 403d c97f 07bd
000001e0: b8b9 b4bd 9685 223c 9c43 7ebd dc69 b23c
000001f0: 6b02 c83c cbab eebc c3b6 66bd 9b6c b5bc
00000200: c227 c9ba bfeb 413d 7c4d b7bc 2415 12bd
00000210: d857 a93d 8e35 56bd 7fb8 d1bc 1b31 533d
00000220: 0a29 303d 27df 6dbc 362a 2337 84ec 5d3d
00000230: 4d04 063d 3f1a 32bb 117a da3c e74c 2ebd
00000240: e456 3a3d 295b 1e3d befb a3bd 0628 64bd
00000250: cad9 a83a 5e75 e13c 08df 14bd c306 52bd
00000260: 7504 9dbb 6a5b 88bd 83e4 b23d 84cd 37bd
00000270: 5b36 6c3b d470 8cbd 33ac 29bd dfc4 82bd
00000280: c191 133c 5766 d93c 8526 893d d85a a8bd
00000290: 762c 94bd 6caf 83bd 9197 6dbd 8757 823c
000002a0: 956a 933d 52f7 ff3c 8310 9f3b f8f8 703d
000002b0: f297 96bc 87ef 323c 32ea 883d c647 15bd
000002c0: b920 993d 532c 573b 1708 023d dfaf 1ebd
000002d0: 5f4a c3bc 9b00 593c a6b1 b33d b2c3 4b3d
000002e0: 87a8 8cbb 9d08 5cbd 7c4e a6bd 1e9f 68bb
000002f0: ac0d a7bd 6698 bebc 79a8 36bd abc2 b4bd
00000300: 2138 933d bbc7 29ba 3403 44bd dd81 68bd
00000310: e83f 15bd c7e5 613d 7950 b23c 7e34 0fbd
00000320: e054 0dbd 4860 8bbd 0939 9c3d bfb4 d8bc
00000330: a664 6abd 46ae 9dbd 75bc 19bd f6b5 87bd
00000340: 86a9 12bd 01f9 d8bb 67ae 843b 7b08 963d
00000350: 66c1 6fbd 9fef 523d 728a 55bd 8048 8d3d
00000360: 8f8a 24bd e67a 913d 459e 0f3d 15b7 2bbd
00000370: 3b52 513d ca92 293d d899 673b 8f0a 623d
00000380: 2106 d1bb 071a a63d 4f52 55bd 78e2 92bd
00000390: d12c b3bd b079 aebd fa4a 763d ded5 bbbc
000003a0: 775d 8cbd bbd3 f53c 949d ef3c 5fa1 863d
000003b0: 0944 8bbc e6d6 6b3c 0cf8 b83c 83fd aabd
000003c0: 0222 02bd e554 843d 60c5 083d 7a0c 193c
000003d0: 6d7c db3c 7126 b6bc df04 a4bd 6529 f33c
000003e0: 084a 16bb dabd 6fbd 81c5 4abd 66d4 3b3d
000003f0: 7d43 30bb 763c b3bd 37d7 5dbd 4b70 7bbd

fc3.bias f4 [13]
-0.052680366 -0.08523252 0.011730332 -0.017991498 0.03043623 -0.046110917 0.052481625 0.01739727
-0.04839025 0.036450364 0.04029914 -0.048309192 0.002352458
00000000: 5ec7 57bd 638e aebd 9430 403c e862 93bc
00000010: 6755 f93c cdde 3cbd f9f6 563d b884 8e3c
00000020: db34 46bd fa4c 153d b610 253d dcdf 45bd
00000030: b22b 1a3b
