Player 1_policy_net.pth (torch, 195328 bytes, 6 tensors)

fc1.weight f4 [256, 52]
0.001996128 0.023801446 -0.016624045 0.09633985 -0.035484817 -0.056760553 0.050725155 0.0733714
-0.038035586 -0.0914026 -0.023027813 0.12257092 -0.043917574 -0.13609232 0.106033474 -0.018231256
-0.04208324 0.10657904 -0.12492076 -0.08127749 0.018162932 0.05269683 -0.0073036347 0.09457075
0.02259355 0.09680096 0.014567611 -0.07508951 -0.1304302 0.010620535 0.066954315 0.068950444
0.085449696 0.07247721 0.12672132 0.07162672 -0.12543121 0.06610925 0.08274961 -0.040299706
-0.10602216 -0.113891296 0.11357594 0.012760205 0.0005341446 -0.012568127 -0.08619575 -0.047914874
-0.04708189 0.014564338 -0.019009719 0.014871143 0.024314217 0.08897221 0.12653361 -0.0056950347
0.019326376 0.07601715 -0.11307294 -0.009135458 0.046589606 -0.021876404 0.13762031 0.054171447
0.07807902 0.030584691 -0.041763786 0.057509653 0.041724574 0.12430188 -0.116874225 0.13444367
0.12882048 -0.03352269 0.04889401 -0.06596558 -0.13776617 -0.028336724 0.009668859 0.0133316275
-0.07582426 0.09211656 0.09865319 -0.109222114 -0.06530224 0.055351768 0.009404472 0.0051521617
-0.1168491 -0.12265569 0.12990838 -0.101832196 -0.044979945 0.11525607 -0.13839786 0.12094089
-0.008391844 0.029544886 -0.059490193 0.08703467 -0.052413236 -0.11769975 0.083699554 0.076536715
-0.005315756 0.05488593 0.0529754 -0.11665074 0.025007542 -0.05778796 0.034949347 -0.0007932901
0.037091795 -0.02745952 0.113483086 -0.13315028 -0.014368161 -0.028781798 0.018996576 0.11043979
-0.034752164 0.13724543 -0.10741094 0.0068472703 -0.01075568 0.052453045 0.13651966 0.10590058
0.041393667 0.10414978 0.0048435214 -0.062023707 0.09700299 -0.080525994 0.1127543 -0.0015629734
0.11503751 -0.10089451 0.019652044 0.065186866 -0.05649716 -0.10155186 -0.020951772 -0.028641364
-0.07375978 0.06450361 -0.0017656313 -0.12618817 -0.07553493 0.029756289 -0.026134815 0.029329086
-0.07543338 0.026321784 -0.07120785 0.04619578 0.078314744 -0.06156974 0.0496523 0.101854846
-0.068369694 -0.020572526 -0.0373539 0.09872442 0.11030422 -0.09657435 0.045501146 0.10551578
0.10843735 -0.057333183 0.0862552 -0.02070443 -0.13447452 -0.01475339 -0.019771218 -0.038505476
-0.019466579 -0.117516816 -0.058065653 0.04250914 0.011836631 -0.044244647 -0.021342954 0.1227704
-0.04187007 0.036541864 0.026909936 0.028154599 0.030462293 0.12383277 0.01009269 -0.002226013
0.010234925 0.06409246 0.022517689 0.04956328 0.057832845 -0.092681386 -0.04286013 0.11256278
-0.02299303 -0.071416505 -0.078379296 0.13268797 -0.12318474 -0.10739408 0.035281416 -0.0037248281
-0.043620307 0.10820436 -0.043334384 0.11001434 -0.11547073 0.10482083 -0.051055964 -0.09007732
-0.10030083 -0.05885787 0.115987174 -0.0075189723 0.12814972 -0.010137538 -0.037460677 0.050719485
0.01271228 -0.0848421 0.10944057 -0.08311761 0.11248426 -0.06526096 0.0576118 0.038586844
-0.1341154 -0.13118522 -0.13780566 0.056174118 -0.13076937 0.109419495 0.10943737 0.10587362
0.12027635 -0.0023257963 0.10817323 0.094598524 -0.12301137 -0.040797066 -0.061756395 0.09912188
0.06603929 -0.040030077 -0.06710903 -0.026571838 -0.06406769 0.12534149 -0.073322505 -0.123853646
00000000: 78d1 023b 40fb c23c 262f 88bc d44d c53d
00000010: 8758 11bd c17d 68bd 2ec5 4f3d bf43 963d
00000020: 34cb 1bbd 4931 bbbd d3a4 bcbc 7606 fb3d
00000030: eae2 33bd c95b 0bbe 1428 d93d b759 95bc
00000040: 7a5f 2cbd 1d46 da3d 75d6 ffbd d074 a6bd
00000050: 6eca 943c a2d8 573d 5453 efbb 4fae c13d
00000060: 1c16 b93c 953f c63d fdac 6e3c 87c8 99bd
00000070: 7f8f 05be c101 2e3c 581f 893d e435 8d3d
00000080: 4000 af3d ee6e 943d 3cc3 013e 08b1 923d
00000090: 0a71 00be 4964 873d a178 a93d 4e11 25bd
000000a0: 2522 d9bd d73f e9bd 819a e83d 2e10 513c
000000b0: d605 0c3a 8cea 4dbc 6687 b0bd 6342 44bd
000000c0: f1d8 40bd 439f 6e3c 45ba 9bbc 18a6 733c
000000d0: 9c2e c73c 1037 b63d 0792 013e 6a9d babb
000000e0: 5952 9e3c e1ae 9b3d c992 e7bd e3ac 15bc
000000f0: bed4 3e3d 2536 b3bc 57ec 0c3e e1e2 5d3d
00000100: e5e7 9f3d bf8c fa3c 8110 2bbd 3e8f 6b3d
00000110: 63e7 2a3d fc91 fe3d c15b efbd 9aab 093e
00000120: 84e9 033e 174f 09bd 1645 483d f618 87bd
00000130: 9312 0dbe 6b22 e8bc 226a 1e3c e66c 5a3c
00000140: c049 9bbd 9ba7 bc3d af0a ca3d d8af dfbd
00000150: 2ebd 85bd 89b8 623d 3715 1a3c 77d3 a83b
00000160: 954e efbd e832 fbbd b406 053e 668d d0bd
00000170: e43c 38bd 600b ec3d 2bb8 0dbe dbaf f73d
00000180: f27d 09bc 1e08 f23c fdab 73bd 3c3f b23d
00000190: 43af 56bd 910c f1bd ac6a ab3d 48bf 9c3d
000001a0: cb2f aebb 12d0 603d bcfc 583d 95e6 eebd
000001b0: 9edc cc3c 11b3 6cbd 0c27 0f3d ccf4 4fba
000001c0: 91ed 173d caf2 e0bc d269 e83d 8c58 08be
000001d0: 6f68 6bbc cec7 ebbc b59e 9b3c 422e e23d
000001e0: 4958 0ebd 118a 0c3e 44fa dbbd 115f e03b
000001f0: 9738 30bc 01d9 563d cfcb 0b3e 67e2 d83d
00000200: 688c 293d 7b4c d53d 67b6 9e3b 920c 7ebd
00000210: 81a9 c63d d0ea a4bd baeb e63d afdc ccba
00000220: c998 eb3d c8a1 cebd 53fd a03c b180 853d
00000230: 9169 67bd 6cfa cfbd 0da3 abbc 4ba1 eabc
00000240: 5e0f 97bd 781a 843d c16c e7ba 7937 01be
00000250: 0fb2 9abd 76c3 f33c ae18 d6bc 8d43 f03c
00000260: d17c 9abd c8a0 d73c 6cd5 91bd c937 3d3d
00000270: 7b63 a03d 8d30 7cbd 3660 4b3d 4699 d03d
00000280: 6905 8cbd b787 a8bc 6700 19bd 0730 ca3d
00000290: 2ee7 e13d c6c8 c5bd 695f 3a3d a818 d83d
000002a0: 6714 de3d 33d6 6abd 91a6 b03d 569c a9bc
000002b0: b0b3 09be 34b8 71bc 40f7 a1bc ebb7 1dbd
000002c0: 6078 9fbc a8ac f0bd 40d6 6dbd 101e 2e3d
000002d0: 6eee 413c e039 35bd 6bd7 aebc 0c6f fb3d
000002e0: f37f 2bbd ecac 153d 3a72 dc3c 79a4 e63c
000002f0: 0f8c f93c 099c fd3d cf5b 253c 4de2 11bb
00000300: 63b0 273c e842 833d 0477 b83c de02 4b3d
00000310: 22e2 6c3d bdcf bdbd 1b8e 2fbd 5187 e63d
00000320: e15b bcbc d142 92bd 5385 a0bd 5bdf 073e
00000330: 4848 fcbd 6df1 dbbd 3f83 103d 3f1c 74bb
00000340: 35ab 32bd 3f9a dd3d 657f 31bd 334f e13d
00000350: eb7b ecbd 4eac d63d 0f20 51bd 757a b8bd
00000360: 866a cdbd f314 71bd af8a ed3d b661 f6bb
00000370: ae39 033e eb17 26bc 5e70 19bd 3cbf 4f3d
00000380: 2b47 503c b2c1 adbd 6122 e03d 9139 aabd
00000390: 265e e63d 8aa7 85bd 5afa 6b3d 3d0d 1e3d
000003a0: 8c55 09be 6b55 06be ed1c 0dbe d516 663d
000003b0: 68e8 05be 5417 e03d b320 e03d 45d4 d83d
000003c0: 7253 f63d 636c 18bb ed89 dd3d dfbc c13d
000003d0: 63ed fbbd d31a 27bd 46f4 7cbd 6a00 cb3d
000003e0: 9b3f 873d 94f6 23bd 7670 89bd 2fad d9bc
000003f0: ec35 83bd 8559 003e 1c2a 96bd fba6 fdbd

fc1.bias f4 [256]
-0.0068380293 0.111849785 -0.13372235 0.07170336 -0.028214129 -0.041314185 0.01147719 -0.041569196
0.07311813 -0.07714725 -0.1190239 0.06764063 -0.112283126 -0.004432998 0.13712049 0.077745005
-0.06628104 -0.042983588 -0.08852398 0.03453251 -0.09313127 -0.018692961 0.09871966 0.07380046
-0.114392325 0.08079732 -0.055025503 0.12835875 0.13450691 0.07453882 -0.010497608 0.08449957
-0.011235171 0.038253784 0.05126464 0.13514678 0.041933317 0.049833767 0.0820465 -0.12371394
0.066133335 0.025795922 0.015859453 -0.094670124 -0.09771376 -0.07034171 -0.03680873 0.10462327
0.048944198 -0.09300865 0.032444883 -0.13421275 -0.09815366 0.10788762 -0.05619738 0.12525962
-0.100797355 -0.08926748 0.11502025 -0.01429081 -0.08430979 -0.059222784 0.051061634 0.008270355
-0.097613014 0.054828502 0.021413278 -0.097229674 0.06469917 -0.014702325 -0.03201533 -0.026111076
-0.04039453 0.052184805 -0.12824562 -0.010101137 0.020991283 0.046685934 -0.08537628 0.09149294
-0.07762274 -0.12804279 0.069297634 0.05146227 0.08894841 -0.12444564 -0.06778692 0.06771816
-0.10318891 0.005438518 0.015119494 -0.09410265 -0.06636545 -0.03704002 -0.019489326 -0.10683945
0.01892154 -0.0007433819 0.13693723 -0.11964698 -0.07452688 -0.11683855 0.06554002 0.03505257
0.08766846 0.11355316 0.13389795 0.04880292 -0.12720057 -0.05703079 0.06410441 0.040094204
-0.11628494 0.074450344 -0.041245464 0.042079836 -0.04382753 0.12475625 0.042837746 -0.040801052
-0.018826386 0.117254384 0.091719605 -0.13602138 0.115453176 -0.074033104 -0.08529483 0.112235926
0.024151118 0.10791336 0.096311204 -0.13807455 0.01727029 -0.026891802 0.08596643 -0.05703443
-0.11364531 -0.069898084 0.12328446 0.02339585 -0.086889625 -0.12841192 0.00136792 0.066584855
0.016869932 -0.12193176 0.016768694 0.009368235 0.1378587 0.13162385 0.049275156 0.12052422
-0.05926173 0.116311565 -0.025058424 0.022303293 0.012730118 -0.10705629 -0.10333837 -0.044587854
0.004585616 0.090520374 -0.023415241 0.023421077 -0.020258794 0.08361252 0.014050725 -0.023178363
-7.4027404e-05 0.13359278 -0.06513211 0.076348886 -0.10677453 0.12033779 0.015228254 0.08576357
0.04924343 0.13750334 -0.0033877208 0.031930607 -0.11188546 -0.13520016 -0.13445267 -0.05663865
-0.12742467 -0.0011166765 0.11131561 0.07247574 -0.1162932 -0.11928387 0.015184479 0.056499604
-0.13011695 0.07049184 0.005079325 -0.00068575365 0.059228603 -0.02518446 -0.07860655 -0.12573577
-0.06702223 -0.12938043 -0.086159535 -0.0035651682 0.10639513 0.005239018 0.024533454 0.07464854
0.13040496 0.12460923 0.13351716 0.02854092 -0.10443295 -0.042884037 -0.016263364 -0.035989452
0.0076749623 -0.09640137 -0.038726266 -0.13204087 0.076219 -0.10493859 -0.054508287 -0.1287529
-0.08491064 -0.050424896 0.058442917 -0.045615427 0.13703795 -0.026152767 -0.013092022 0.075402714
0.00016605745 -0.09855595 0.06730549 -0.112652004 0.0004860218 0.053216778 0.0669887 0.075263985
0.052143063 0.11783212 -0.110173374 0.045122564 0.020950863 0.08749318 0.009576365 0.073856965
-0.015563823 0.11650133 0.050994862 -0.10784776 0.08155958 0.13178258 0.042052474 -0.00036297893
00000000: 8c11 e0bb 8011 e53d 83ee 08be 36d9 923d
00000010: 5121 e7bc 1039 29bd d30a 3c3c 7644 2abd
00000020: f5be 953d 61ff 9dbd cdc2 f3bd 2c87 8a3d
00000030: b2f4 e5bd af42 91bb 5069 0c3e c638 9f3d
00000040: 5bbe 87bd 8f0f 30bd 0f4c b5bd f671 0d3d
00000050: 9bbb bebd fb21 99bc 882d ca3d b224 973d
00000060: 8646 eabd 1179 a53d 6c62 61bd 7a70 033e
00000070: 2ebc 093e cfa7 983d 29fe 2bbc 1c0e ad3d
00000080: b913 38bc 00b0 1c3d dffa 513d eb63 0a3e
00000090: 45c2 2b3d 7e1e 4c3d ff07 a83d bc5d fdbd
000000a0: ea70 873d f851 d33c afeb 813c 69e2 c1bd
000000b0: 271e c8bd 500f 90bd c0c4 16bd ba44 d63d
000000c0: b679 483d 527b bebd ede4 043d 116f 09be
000000d0: c904 c9bd 2ff4 dc3d 392f 66bd 0f44 003e
000000e0: d86e cebd ded1 b6bd bd8f eb3d 0024 6abc
000000f0: 9caa acbd 9793 72bd 0126 513d 6280 073c
00000100: 55e9 c7bd da93 603d e66a af3c 5a20 c7bd
00000110: 0081 843d 05e2 70bc 8222 03bd e5e6 d5bc
00000120: bc74 25bd bcbf 553d d252 03be 3d7f 25bc
00000130: e9f5 ab3c c039 3f3d c2d9 aebd a760 bb3d
00000140: acf8 9ebd a61d 03be ebeb 8d3d 1aca 523d
00000150: 952a b63d 5bdd febd ded3 8abd d2af 8a3d
00000160: b554 d3bd 9835 b23b c1b7 773c e4b8 c0bd
00000170: 9cea 87bd 47b7 17bd 14a8 9fbc a4ce dabd
00000180: 5801 9b3c 84df 42ba 4639 0c3e 7a09 f5bd
00000190: 8da1 98bd 0d49 efbd d939 863d 4993 0f3d
000001a0: 868b b33d 8f8e e83d 8b1c 093e 92e5 473d
000001b0: de40 02be 1e99 69bd 2c49 833d d239 243d
000001c0: cc26 eebd 6c79 983d 01f1 28bd e85b 2c3d
000001d0: 7f84 33bd 3480 ff3d a276 2f3d 011f 27bd
000001e0: cb39 9abc 1123 f03d 7dd7 bb3d 3049 0bbe
000001f0: b772 ec3d ab9e 97bd 0eaf aebd f3db e53d
00000200: 91d8 c53c ae01 dd3d cf3e c53d 6a63 0dbe
00000210: 6c7a 8d3c 324c dcbc 2b0f b03d ef9c 69bd
00000220: dfbe e8bd ba26 8fbd 907c fc3d a7a8 bf3c
00000230: 30f3 b1bd 6a7e 03be c74b b33a a45d 883d
00000240: d032 8a3c 5cb7 f9bd 805e 893c 3a7d 193c
00000250: d52a 0d3e 67c8 063e bfd4 493d 67d5 f63d
00000260: 6ebc 72bd c234 ee3d 5347 cdbc 65b5 b63c
00000270: fc91 503c 5440 dbbd 11a3 d3bd c1a1 36bd
00000280: ef42 963b bf62 b93d 52d1 bfbc 8fdd bf3c
00000290: c5f5 a5bc 0a3d ab3d 0335 663c 8de0 bdbc
000002a0: 293f 9bb8 8ccc 083e fc63 85bd ce5c 9c3d
000002b0: 9bac dabd a973 f63d ed7f 793c d0a4 af3d
000002c0: 7bb3 493d adcd 0c3e 8604 5ebb abc9 023d
000002d0: 3424 e5bd e971 0abe f6ad 09be eefd 67bd
000002e0: 9d7b 02be 725d 92ba 70f9 e33d 296e 943d
000002f0: 212b eebd 1a4b f4bd 52c8 783c 216c 673d
00000300: 613d 05be 075e 903d 7770 a63b 26c4 33ba
00000310: b199 723d a44f cebc 79fc a0bd e1c0 00be
00000320: f342 89bd 4e7c 04be 6974 b0bd 99a5 69bb
00000330: b1e5 d93d 11ac ab3b 62fa c83c 55e1 983d
00000340: e188 053e 2033 ff3d b9b8 083e a6ce e93c
00000350: f1e0 d5bd 2ca7 2fbd bf3a 85bc ad69 13bd
00000360: 407e fb3b 156e c5bd 6f9f 1ebd b935 07be
00000370: b518 9c3d 0bea d6bd 1544 5fbd cdd7 03be
00000380: a1e5 adbd 568a 4ebd d761 6f3d 3ed7 3abd
00000390: ad53 0c3e 543e d6bc ec7f 56bc bd6c 9a3d
000003a0: b51f 2e39 b4d7 c9bd 76d7 893d 18b6 e6bd
000003b0: bed0 fe39 d6f9 593d 5f31 893d 0124 9a3d
000003c0: f793 553d f751 f13d 94a2 e1bd 70d2 383d
000003d0: 25a1 ab3c a02f b33d 30e6 1c3c 5242 973d
000003e0: 68ff 7ebc 4098 ee3d fddf 503d 49df dcbd
000003f0: b608 a73d 03f2 063e 373f 2c3d 354e beb9

fc2.weight f4 [128, 256]
0.047626145 -0.0046428666 0.010712989 0.020050846 0.04577133 -0.054790452 -0.037036225 -0.04018669
0.0002513379 0.045730233 -0.04871627 0.0008132607 0.057606593 0.03506495 -0.044967994 0.013681263
-0.024059348 0.036459863 -0.033129 0.04391402 0.032368496 -0.055972576 -0.013871297 -0.04906746
0.018572912 0.0206353 -0.03427767 -0.029587828 -0.045222297 -0.008865252 -0.019078523 -0.02869054
-0.030596517 -0.03532075 0.027813219 0.04124149 -0.017688744 -0.0076992437 0.03739357 0.0066118613
-0.049185887 0.008646145 -0.044826172 -0.020264767 0.023795784 -0.0573053 -0.03329254 -0.02555316
0.056237243 0.043545686 0.027765676 0.029722102 0.026254684 -0.018539794 0.06009847 -0.013963886
-0.05326245 0.04102709 0.020386428 0.049568094 -0.018103905 0.046702467 0.017093547 -0.015999496
0.004453741 0.03142128 0.030071273 -0.009738989 0.0030836463 0.017029844 -0.016833127 0.0049192756
0.048474528 0.013995171 0.046323918 -0.045308672 -0.03926088 0.0523327 -0.03782273 0.0021636337
-0.037274458 -0.046753146 0.03999027 -0.014895946 0.050653405 0.026429482 -0.056645393 0.019102953
-0.019202717 0.046728052 0.052664667 0.02855619 -0.014130279 0.024565697 0.044797696 -0.061007716
0.030927293 0.024766847 -0.02245991 0.0303723 0.031784974 -0.03237322 0.042427383 0.010212928
-0.05724889 -0.00837028 -0.012568548 -0.019709721 0.02423995 -0.05912409 -0.0055483654 -0.008704498
0.0020630732 0.033689365 0.033200473 -0.025387608 0.049552053 0.011734359 0.05732573 -0.012464732
0.032565914 0.014213525 -0.011041649 -0.05997847 -0.024750791 0.05917853 -0.0008160323 -0.043440215
-0.045223363 0.029450811 -0.011939444 -0.04248129 0.040391818 0.022256449 0.012324505 0.02619385
0.032026023 0.035348363 -0.035588056 0.04532867 -0.019872636 0.06001153 -0.044512212 0.05389846
-0.0037066713 -0.034377962 0.007897437 0.034531303 0.011836775 0.043126255 0.05555065 0.040737502
-0.014581963 0.00810717 0.037507705 -0.05420419 0.053748026 0.02348131 -0.028447516 0.05468116
-0.026800245 -0.015697427 0.044093177 -0.004978806 -0.017564796 -0.047937192 0.021185614 0.0023072734
0.020282336 0.026117153 -0.04112251 0.03511326 0.02295307 -0.018751256 -0.008369811 -0.014430597
0.0004858002 -0.037409812 -0.010298349 -0.019460455 -0.04697326 0.047515392 -0.008790545 0.05934316
0.030947998 -0.03942951 -0.00583528 0.0025738329 0.007720329 0.022004068 0.0019332245 -0.02289959
-0.0056978837 -0.050614968 -0.024662308 0.058632866 0.022571906 0.051328167 0.024679027 0.0057317168
0.0018243864 -0.018021539 -0.010154054 -0.017415144 0.041491657 -0.044231914 0.030360527 -0.03543195
0.019656748 0.054517426 0.005178705 -0.0050762147 0.0029562414 -0.009670548 0.0154158175 -0.0012282282
0.045228273 -0.06214969 -0.048619643 0.024697348 -0.00355044 0.0018219724 0.054035448 -0.050897755
-0.013726391 -0.020858608 -0.050830394 0.05156447 0.009456314 -0.004935682 -0.028499462 -0.053013347
0.058693483 0.055235073 0.018974707 0.018823124 -0.047634564 -0.062347963 0.008406296 -0.048354335
-0.031226635 0.001837261 0.043465234 -0.026744597 0.017733023 0.04508345 0.060450256 -0.052834503
-0.008300714 -0.009591207 0.0057534054 0.037600428 -0.028417721 0.021571718 0.010410868 -0.0002078414
00000000: a213 433d 3023 98bb 8885 2f3c ac41 a43c
00000010: b87a 3b3d f46b 60bd 4cb3 17bd cc9a 24bd
00000020: 00c6 8339 a04f 3b3d b68a 47bd 0031 553a
00000030: e4f4 6b3d 44a0 0f3d 5c30 38bd 6027 603c
00000040: 1c18 c5bc f056 153d 46b2 07bd 30df 333d
00000050: d494 043d 8043 65bd 7044 63bc f6fa 48bd
00000060: 3826 983c 5c0b a93c be66 0cbd 2c62 f2bc
00000070: 043b 39bd 903f 11bc 904a 9cbc 6c08 ebbc
00000080: 8ca5 fabc 7eac 10bd 8cd8 e33c d6ec 283d
00000090: fce7 90bc f049 fcbb 002a 193d 50a8 d83b
000000a0: 2477 49bd 90a8 0d3c a69b 37bd 4c02 a6bc
000000b0: 60ef c23c f6b8 6abd c25d 08bd dc54 d1bc
000000c0: 0659 663d f65c 323d d874 e33c c47b f33c
000000d0: 1014 d73c c4e0 97bc d029 763d c8c8 64bc
000000e0: ba29 5abd 060c 283d 7001 a73c ea07 4b3d
000000f0: a44e 94bc 164b 3f3d c407 8c3c 6011 83bc
00000100: b0f0 913b 9ab3 003d 0858 f63c 4890 1fbc
00000110: 0017 4a3b 2c82 8b3c a0e5 89bc e031 a13b
00000120: 3a8d 463d 004c 653c 26be 3d3d 9695 39bd
00000130: 04d0 20bd d05a 563d 02ec 1abd c0cb 0d3b
00000140: 1aad 18bd 3a80 3fbd d6cc 233d 200e 74bc
00000150: f279 4f3d a482 d83c 0005 68bd cc7d 9c3c
00000160: 044f 9dbc ea65 3f3d e8b6 573d acee e93c
00000170: b082 67bc 003e c93c ca7d 373d 3ae3 79bd
00000180: 3c5b fd3c d8e3 ca3c d8fd b7bc 54cf f83c
00000190: f630 023d c899 04bd 56c8 2d3d 2054 273c
000001a0: d07d 6abd 8023 09bc 50ec 4dbc 4876 a1bc
000001b0: dc92 c63c 1a2c 72bd 10cf b5bb 509d 0ebc
000001c0: a034 073b dcfd 093d 38fd 073d acf9 cfbc
000001d0: 18f7 4a3d 7841 403c 62ce 6a3d e038 4cbc
000001e0: d663 053d d8df 683c 08e8 34bc fcab 75bd
000001f0: 2cc2 cabc 3065 723d 00eb 55ba 5eee 31bd
00000200: 223c 39bd d442 f13c a89d 43bc dc00 2ebd
00000210: e471 253d 2853 b63c b8ec 493c 7c94 d63c
00000220: b82d 033d 72c9 103d c8c4 11bd 8eaa 393d
00000230: f0cb a2bc a6ce 753d 7052 36bd a2c4 5c3d
00000240: a0eb 72bb e8cf 0cbd 4064 013c b270 0d3d
00000250: 08ef 413c 28a5 303d 1489 633d 5edc 263d
00000260: 30e9 6ebc f0d3 043c aea1 193d 3605 5ebd
00000270: e426 5c3d e05b c03c c40a e9bc 5af9 5f3d
00000280: 308c dbbc e497 80bc 0c9b 343d 4025 a3bb
00000290: 0ce4 8fbc ca59 44bd 748d ad3c a035 173b
000002a0: 2427 a63c a4f3 d53c 1470 28bd ecd2 0f3d
000002b0: 1408 bc3c 3c9c 99bc 8821 09bc 506e 6cbc
000002c0: 00b3 fe39 083b 19bd 68ba 28bc 886b 9fbc
000002d0: 0867 40bd 809f 423d 3806 10bc d011 733d
000002e0: a886 fd3c d680 21bd e035 bfbb c0ad 283b
000002f0: d0fa fc3b e041 b43c 4064 fd3a ec97 bbbc
00000300: 50b5 babb a451 4fbd 9c08 cabc 0429 703d
00000310: b8e8 b83c 7c3d 523d ac2b ca3c 20d1 bb3b
00000320: 4020 ef3a e8a1 93bc 305d 26bc 34aa 8ebc
00000330: 28f3 293d 862c 35bd a4b6 f83c 1821 11bd
00000340: 3007 a13c aa4d 5f3d 20b2 a93b 6056 a6bb
00000350: 80bd 413b 3871 1ebc a092 7c3c 80fc a0ba
00000360: 4841 393d ac90 7ebd 6425 47bd 1852 ca3c
00000370: 80ae 68bb 40cf ee3a 4654 5d3d 2a7a 50bd
00000380: a8e4 60bc acdf aabc 8833 50bd 4435 533d
00000390: a8ee 1a3c 80bb a1bb b477 e9bc 8624 59bd
000003a0: 9468 703d 2c3e 623d d870 9b3c f432 9a3c
000003b0: 761c 43bd 9460 7fbd 90ba 093c 320f 46bd
000003c0: 00cf ffbc 40d0 f03a 9a08 323d 7c17 dbbc
000003d0: d844 913c 6ca9 383d b09a 773d fe68 58bd
000003e0: b8ff 07bc 7024 1dbc 1087 bc3b e802 1a3d
000003f0: 48cc e8bc 2cb7 b03c 5892 2a3c 00f0 59b9

fc2.bias f4 [128]
-0.042585038 -0.015764847 0.040286712 0.011907198 0.06201364 0.0069229677 0.0330837 -0.04865087
-0.061295524 0.017286174 -0.04675301 0.017446592 -0.031219006 0.024217427 -0.019264854 -0.061956257
0.00426694 -0.010591365 -0.007522367 0.01137723 0.04904668 0.060170576 -0.058897115 0.011485703
0.053022943 -0.03710968 0.05832053 -0.056633443 0.028010987 -0.02120658 0.0011383295 0.014845759
-0.027242035 0.054633483 -0.04000543 -0.027042605 0.04320056 -0.029322095 0.018999405 -0.05820732
0.014803886 0.020358056 -0.061299287 0.039411403 0.031451397 -0.05573751 -0.019532204 0.0071987957
0.030121282 -0.035901316 0.0071633607 -0.049860276 0.04282324 0.02221901 0.048307866 0.057647318
-0.024835587 0.013710707 0.039770916 -0.03929481 0.0012395382 0.061968938 0.018698901 0.053622954
-0.038613155 0.05855865 0.024526805 -0.005529821 -0.02538459 -0.0014369786 -0.0055213645 -0.019851848
-0.00555335 -0.0018601045 0.021243446 -0.053985305 -0.061386973 0.021537036 -0.044012047 0.04129207
0.037063226 0.050906897 0.03868164 -0.021596253 0.035759427 0.0020219162 0.012130506 -0.03334198
-0.010325879 0.018748894 -0.004128374 0.042677484 0.03059043 -0.0036379397 -0.032132782 0.05914732
0.05782076 0.01903925 0.02177041 -0.034432724 0.016206622 -0.01143647 0.02140975 0.056004263
-0.01792743 0.04408201 -0.028813027 -0.048044503 0.042040676 0.029405355 0.016260259 0.029794604
-0.058774717 0.0065422803 -0.011945061 -0.049252987 -0.04309176 0.021206267 0.0025495887 -0.021316148
0.05093515 0.04315956 0.0309463 0.02444055 -0.010554202 -0.008860879 0.061996154 0.00223165
00000000: a66d 2ebd 4825 81bc ae03 253d 6816 433c
00000010: 0402 7e3d 10da e23b c682 073d 2246 47bd
00000020: 0411 7bbd bc9b 8d3c 1680 3fbd 28ec 8e3c
00000030: 00bf ffbc a063 c63c 54d1 9dbc d8c5 7dbd
00000040: b0d1 8b3b 6887 2dbc 307e f6bb 9067 3a3c
00000050: 2ce5 483d 6c75 763d 1a3e 71bd 882e 3c3c
00000060: 962e 593d 5200 18bd 82e1 6e3d 78f8 67bd
00000070: 4c77 e53c 6cb9 adbc 0034 953a a03b 733c
00000080: b02a dfbc 5cc7 5f3d bcdc 23bd 7488 ddbc
00000090: 12f3 303d e434 f0bc a4a4 9b3c cc6a 6ebd
000000a0: 008c 723c f0c5 a63c f614 7bbd da6d 213d
000000b0: 2ed3 003d 044d 64bd 0002 a0bc e0e3 eb3b
000000c0: e8c0 f63c 420d 13bd a0ba ea3b 4a3a 4cbd
000000d0: 6c67 2f3d a404 b63c 78de 453d 981f 6c3d
000000e0: 0074 cbbc e0a2 603c d4e6 223d 98f3 20bd
000000f0: 0078 a23a 24d3 7d3d 702e 993c bea3 5b3d
00000100: d428 1ebd 32db 6f3d 70ec c83c 8033 b5bb
00000110: 58f3 cfbc 0059 bcba 90ec b4bb 58a0 a2bc
00000120: e0f8 b5bb c0ce f3ba bc06 ae3c b21f 5dbd
00000130: e870 7bbd 706e b03c fa45 34bd e021 293d
00000140: 9ccf 173d c083 503d a470 1e3d a0ea b0bc
00000150: 7a78 123d 2082 043b 08bf 463c 9a91 08bd
00000160: e02d 29bc 4897 993c 5047 87bb 96ce 2e3d
00000170: c898 fa3c 806a 6ebb aa9d 03bd 7644 723d
00000180: 76d5 6c3d 34f8 9b3c dc57 b23c 5409 0dbd
00000190: c0c3 843c 0860 3bbc 8063 af3c ba64 653d
000001a0: 8cdc 92bc 568f 343d 4c09 ecbc 50ca 44bd
000001b0: d832 2c3d 80e3 f03c 3c34 853c d013 f43c
000001c0: c2bd 70bd a060 d63b 38b5 43bc 80bd 49bd
000001d0: fc80 30bd c4b8 ad3c 0017 273b 349f aebc
000001e0: 60a1 503d 14c8 303d 1883 fd3c 8c37 c83c
000001f0: 88eb 2cbc 382d 11bc aeef 7d3d e040 123b

fc3.weight f4 [13, 128]
-0.06808539 0.07577386 0.04025614 0.07265067 0.041412745 0.083557166 -0.006748606 0.031644706
-0.04584102 0.026023792 0.078085266 0.054513976 -0.06253749 0.015252575 0.04451902 -0.06872286
0.05407586 -0.06996595 0.03528242 0.020487383 -0.036914498 -0.07371974 0.060292426 -0.030904703
-0.05905021 0.06301613 -0.019111162 -0.02866562 0.023921782 0.028778194 -0.008920169 0.010583379
0.016154286 0.070673354 0.01498507 -0.085002825 0.024729272 0.041180443 -0.036077585 0.06740027
-0.060431648 -0.077119015 -0.07824639 -0.022758318 0.0012601065 -0.038406126 0.022344679 -0.04973293
0.06773 -0.05475925 -0.013284792 0.06841447 -0.084260724 0.035211764 0.060629 -0.07629236
-0.025868418 -0.0055037355 0.08596009 0.020468965 0.05812928 0.015638536 0.022378627 0.034338344
0.0252793 0.084770754 0.03098689 -0.03901044 0.040652614 -0.063546956 -0.041506417 0.063382834
0.02044335 0.051474873 -0.0879208 0.08321183 0.010669296 -0.05058979 -0.044740807 -0.08755295
0.022432301 -0.04884516 0.009608712 0.059327114 0.08004376 -0.072284624 -0.06311297 0.02024702
-0.035496064 0.049487785 -0.042259086 -0.08616401 0.049671516 0.037713 0.043659635 -0.07578586
-0.06617351 0.05523477 0.041657366 -0.084853694 -0.071418695 0.08273009 -0.033948444 0.016794907
-0.058329742 0.03493608 -0.06106035 0.01430346 0.01376731 0.07465385 -0.038270023 0.061813496
0.051497 -0.030651864 0.07086068 -0.07712182 -0.057562932 -0.087377794 0.06252344 -0.054455645
0.07984913 -0.027678415 0.07014122 0.06360583 0.014382602 -0.05313041 -0.07362222 -0.0035525262
0.006147044 -0.047908247 -0.012394461 0.002871138 0.001670132 0.04554073 -0.0010153913 0.023114754
-0.07628678 -0.03879843 -0.0314905 -0.07954897 -0.03678516 -0.0020080023 0.062842615 -0.015391333
-0.028866755 -0.07436719 0.030055687 0.03464926 -0.02544617 0.06313281 0.010945716 -0.08472688
0.023427958 -0.021614715 -0.018778896 -0.044426106 0.059448875 -0.03991683 0.08091849 -0.0023910538
0.06168421 0.057917796 -0.060827427 -0.018964017 -0.008655129 0.08661881 0.06383354 -0.01333993
0.07812335 0.018376932 -0.08305559 0.080699794 0.0003738004 -0.005546736 -0.03710015 -0.02418719
0.040587984 0.083080225 0.028886639 0.07306566 -0.008883491 0.034851912 0.038149294 -0.056740277
0.07956367 0.026621824 -0.079629734 0.08273588 0.04444404 0.0861881 -0.06824948 -0.013654926
0.07962221 -0.032296266 -0.08457908 0.05576972 -0.028111126 -0.050702564 0.0778565 -0.08649539
0.0060233218 0.024287343 0.012928387 -0.073373385 -0.07997268 0.08502581 0.00014075993 0.04279392
-0.049445987 -0.035076976 -0.027035706 -0.05874237 0.06368572 0.01228609 -0.031166235 0.0026908654
0.06412768 -0.046168637 -0.04319509 -0.040359978 0.05202478 -0.04400486 0.0108578075 -0.0202751
-0.027648838 0.07276758 -0.047357157 -0.013542688 0.013155601 0.07165931 0.04874032 -0.038127713
0.021706965 -0.011782752 -0.05251105 -0.014255634 -0.06254426 -0.063907236 -0.046635468 -0.068057284
0.056927748 -0.062780984 -0.045402862 -0.036879968 0.06259612 0.06899018 -0.07222377 -0.046300493
0.04276095 -0.0034491506 0.07597098 0.06654548 0.0024216524 -0.003412177 -0.019666152 0.012737958
00000000: 5a70 8bbd 532f 9b3d 9fe3 243d e0c9 943d
00000010: 69a0 293d 0520 ab3d 6923 ddbb e19d 013d
00000020: cbc3 3bbd d92f d53c 2beb 9f3d 0c4a 5f3d
00000030: a813 80bd f0e5 793c 9359 363d 92be 8cbd
00000040: a67e 5d3d 4f4a 8fbd 4d84 103d 28d5 a73c
00000050: a833 17bd 60fa 96bd 31f5 763d dc2b fdbc
00000060: a2de 71bd 9a0e 813d 038f 9cbc 2ad4 eabc
00000070: 9df7 c33c 3fc0 eb3c e725 12bc e965 2d3c
00000080: fe55 843c 31bd 903d f083 753c f615 aebd
00000090: 0b95 ca3c d3ac 283d 17c6 13bd 2709 8a3d
000000a0: 2d87 77bd 93f0 9dbd a53f a0bd a76f babc
000000b0: 282a a53a be4f 1dbd 300c b73c c2b4 4bbd
000000c0: 07b6 8a3d 3c4b 60bd 75a8 59bc e31c 8c3d
000000d0: e390 acbd 363a 103d 1d56 783d 2b3f 9cbd
000000e0: 01ea d3bc ae58 b4bb d80b b03d 88ae a73c
000000f0: f818 6e3d 631c 803c 6253 b73c 5da6 0c3d
00000100: 8916 cf3c 4a9c ad3d 38d8 fd3c 69c9 1fbd
00000110: 5b83 263d e824 82bd a202 2abd dcce 813d
00000120: d078 a73c 51d7 523d d20f b4bd f76a aa3d
00000130: 45ce 2e3c 3d37 4fbd 2342 37bd f64e b3bd
00000140: f2c3 b73c dd11 48bd dc6d 1d3c fd00 733d
00000150: fced a33d f609 94bd 5f41 81bd 14dd a53c
00000160: 5264 11bd b4b3 4a3d dd17 2dbd c276 b0bd
00000170: 5c74 4b3d f278 1a3d 72d4 323d 9e35 9bbd
00000180: fa85 87bd db3d 623d eaa0 2a3d c6c7 adbd
00000190: f743 92bd 656e a93d 860d 0bbd 7995 893c
000001a0: 2beb 6ebd 2319 0f3d 6b1a 7abd 0f59 6a3c
000001b0: 4990 613c 1ee4 983d 07c1 1cbd 2630 7d3d
000001c0: 85ee 523d 9e19 fbbc 671f 913d 0bf2 9dbd
000001d0: 1cc7 6bbd 21f3 b2bd 4a0c 803d e20c 5fbd
000001e0: f187 a33d d8bd e2bc 33a6 8f3d c643 823d
000001f0: 01a5 6b3c 469f 59bd 3fc7 96bd 80d1 68bb
00000200: 246d c93b 703b 44bd 2312 4bbc b429 3c3b
00000210: 55e8 da3a eb88 3a3d e116 85ba 275b bd3c
00000220: 3e3c 9cbd 1aeb 1ebd 2ffc 00bd 92ea a2bd
00000230: 09ac 16bd b098 03bb a1b3 803d ee2b 7cbc
00000240: f979 ecbc d34d 98bd 5837 f63c 62ec 0d3d
00000250: 7c74 d0bc c64b 813d a955 333c 4985 adbd
00000260: fdeb bf3c 5811 b1bc 33d6 99bc 26f8 35bd
00000270: aa80 733d d47f 23bd 98b8 a53d 3ab3 1cbb
00000280: 95a8 7c3d 363b 6d3d 2e26 79bd 6d5a 9bbc
00000290: 3ece 0dbc 3465 b13d 29bb 823d b98f 5abc
000002a0: 23ff 9f3d 388b 963c 0d19 aabd ef45 a53d
000002b0: a4fa c339 65c1 b5bb 54f6 17bd 3724 c6bc
000002c0: 963f 263d f725 aa3d aca3 ec3c 73a3 953d
000002d0: 108c 11bc e1c0 0e3d 6f42 1c3d 7e68 68bd
000002e0: 47f2 a23d 0316 da3c ea14 a3bd 6e71 a93d
000002f0: f40a 363d 6383 b03d 62c6 8bbd e9b8 5fbc
00000300: f810 a33d 1749 04bd cc37 adbd ca6e 643d
00000310: 4e49 e6bc 7ead 4fbd 3b73 9f3d 7f24 b1bd
00000320: 495f c53b 40f6 c63c 96d1 533c c944 96bd
00000330: b7c8 a3bd 0322 ae3d f598 1339 ad48 2f3d
00000340: e087 4abd e0ac 0fbd fc79 ddbc d79b 70bd
00000350: a96d 823d 994b 493c 5550 ffbc 3b59 303b
00000360: 6055 833d 531b 3dbd 56ed 30bd 8150 25bd
00000370: f017 553d 713e 34bd f2e4 313c f717 a6bc
00000380: d17f e2bc 2b07 953d 94f9 41bd 27e2 5dbc
00000390: 978a 573c 1ec2 923d eea3 473d ce2b 1cbd
000003a0: ced2 b13c 720c 41bc d415 57bd 7690 69bc
000003b0: 3417 80bd cce1 82bd d504 3fbd 9e61 8bbd
000003c0: 122d 693d 5193 80bd 5af8 39bd 730f 17bd
000003d0: 6532 803d b94a 8d3d 0eea 93bd 96a5 3dbd
000003e0: 1b26 2f3d 250b 62bb ac96 9b3d ff48 883d
000003f0: 96b4 1e3b d59e 5fbb e91a a1bc deb2 503c

fc3.bias f4 [13]
-0.05480014 -0.06376486 0.032310225 0.033663794 0.08821867 -0.07720607 -0.021168496 0.07358949
-0.038492747 -0.067677714 -0.07465652 0.026172254 -0.037866678
00000000: 1d76 60bd 2797 82bd ba57 043d 0ce3 093d
00000010: fdab b43d 371e 9ebd 8e69 adbc 16b6 963d
00000020: 92aa 1dbd 9d9a 8abd 84e5 98bd 3267 d63c
00000030: 171a 1bbd
