Player 4_policy_net.pth (torch, 195328 bytes, 6 tensors)

fc1.weight f4 [256, 52]
0	0xbdb77ee4	-0.08959749
1	0xbdc4388f	-0.095811
2	0xbb92e460	-0.004482791
3	0xbca2f5e4	-0.01989264
4	0xbe0c40b1	-0.13696553
5	0xbd49148f	-0.04909187
6	0xbe05d97f	-0.1307125
7	0x3d8aa990	0.06770623
8	0xbdf22452	-0.11823334
9	0x3dac4a80	0.08412647
10	0x3de8c51a	0.11365719
11	0x3d20c6b4	0.039251998
12	0x3df1261a	0.117748454
13	0x3cb2c37f	0.021821735
14	0xbe08f681	-0.13375284
15	0x3b8422ba	0.00403246
16	0x3d537578	0.0516257
17	0x3c9d4311	0.019197019
18	0xbb77cff4	-0.0037813159
19	0xbd3ffa1c	-0.046869382
20	0xbcb68c1b	-0.022283604
21	0x3d52eede	0.051497333
22	0xbd577e5b	-0.052610736
23	0x3d71af31	0.059004966
24	0x3d509d57	0.0509313
25	0x3d64f128	0.055894047
26	0x3db6188e	0.08891402
27	0x3e058329	0.13038315
28	0xbd4a271a	-0.049353696
29	0x3dbf8ea0	0.093533754
30	0x3cc13e09	0.023589151
31	0x3dad6728	0.08466941
32	0xbcf031d6	-0.029320639
33	0x3c011795	0.007879158
34	0x3da4ce6b	0.080471836
35	0x3df1a138	0.11798328
36	0x3ddec87f	0.10878085
37	0xbd6c00ae	-0.057617836
38	0x3bd3bc79	0.0064616767
39	0xbde95201	-0.11392594
40	0xbdb2e1b5	-0.087344564
41	0x3dc0b7ca	0.09410055
42	0x3d9ea580	0.0774641
43	0x3db7c186	0.089724585
44	0xbe0ab85d	-0.13546892
45	0x3db19a7a	0.08672042
46	0xbbbd6113	-0.0057793944
47	0xbcdfb21b	-0.027306607
48	0xbd920fba	-0.07131906
49	0x3d8f82b0	0.070073485
50	0xbc19155c	-0.009343471
51	0xbda4445a	-0.080208495
52	0xbda1cd94	-0.07900539
53	0xbdacea9a	-0.08443184
54	0x3d0e901a	0.034805395
55	0xbd991468	-0.07474595
56	0xbe07a0f1	-0.13244988
57	0xbb78df7a	-0.0037975
58	0xbbb0918c	-0.0053884443
59	0x3e083a10	0.13303399
60	0x3d7deb53	0.061992
61	0x3c972f3c	0.01845514
62	0x3ce35bb9	0.027753698
63	0x3dec8dde	0.115504965
64	0x3d47dff5	0.048797566
65	0xbd436b3b	-0.047709685
66	0xbd2decbf	-0.042462107
67	0xbde05173	-0.10953035
68	0xbe0977be	-0.13424584
69	0xbd9ef6bf	-0.07761907
70	0x3d64fe59	0.055906627
71	0x3d611193	0.0549484
72	0x3dba816c	0.091067165
73	0xbdfdaf71	-0.123869784
74	0x3d6d3724	0.057913914
75	0x3d8c0b95	0.068381466
76	0xbdc68ee1	-0.09695221
77	0xbdb59c9b	-0.08867761
78	0xbdca54b3	-0.09879436
79	0x3dd8439f	0.10559773
80	0x3d6b137e	0.057391636
81	0x3c402219	0.0117268795
82	0xbde028d8	-0.1094529
83	0xbd91dee0	-0.07122588
84	0xbd851ec9	-0.065000124
85	0x3dd100be	0.1020522
86	0x3c882c3d	0.016622657
87	0x3dbf1f6d	0.09332166
88	0x3da693fe	0.08133696
89	0x3dc6d830	0.09709203
90	0x3dc92a48	0.09822518
91	0xbbabb630	-0.0052402243
92	0x3dbdedf1	0.09273899
93	0xbd235f64	-0.039885893
94	0x3d196b83	0.037456047
95	0xbdfa5c78	-0.12224668
96	0x3dad3c9e	0.084588274
97	0xbd575cb1	-0.05257863
98	0xbd99ade9	-0.07503874
99	0xbe0b7723	-0.13619666
100	0x3c3c1986	0.011480695
101	0x3d9fa930	0.07795942
102	0xbdcac54c	-0.09900913
103	0x3baf7aac	0.0053552
104	0x3d670e20	0.056409955
105	0xbda4a829	-0.080398865
106	0xbca91ca7	-0.020643545
107	0xbe0801d7	-0.13281952
108	0xbdd2ba0d	-0.102893926
109	0x3df4b67f	0.11948871
110	0xbce33b95	-0.027738372
111	0x3cf5e1f5	0.030014971
112	0xbd505c3b	-0.050869208
113	0x3d42ce38	0.047559947
114	0xbc09a056	-0.0084000435
115	0x3d622c6c	0.055218145
116	0x3de9d085	0.11416725
117	0xbdee0b9d	-0.11623309
118	0xbd15d7fb	-0.03658293
119	0xbde76499	-0.11298484
120	0x3dacd081	0.084382065
121	0x3d9c6ae1	0.07637573
122	0xbd3fc8b4	-0.046822265
123	0x3d6e1769	0.058127794
124	0xbbff5a08	-0.007792715
125	0x3d9ba9df	0.0760076
126	0x3d7f1938	0.06227991
127	0xbd9bf65c	-0.07615349
128	0x3cfbb8d7	0.030727787
129	0xbdd2b54f	-0.10288488
130	0x3dc8b8e3	0.09800889
131	0xbd9e3e56	-0.077267334
132	0x3de6be25	0.11266736
133	0x3c74b460	0.014935583
134	0xbc75ef3c	-0.015010651
135	0xbd2a998f	-0.04165035
136	0x3e02b9e6	0.12766227
137	0xbcc00869	-0.02344151
138	0xbca1ceee	-0.019751992
139	0xbe0a5ba8	-0.13511527
140	0x3cfcc8fd	0.030857557
141	0x3d04dd74	0.032437757
142	0x3c8bd619	0.017069863
143	0xbe097421	-0.13423206
144	0xbd3e5a9f	-0.04647314
145	0x3d83a564	0.0642803
146	0xbdace284	-0.08441642
147	0x3d7b3c30	0.061336696
148	0xbdf05bbb	-0.11736246
149	0x3dc68c50	0.09694731
150	0x3d8cf651	0.068829186
151	0x3d24f7e4	0.04027547
152	0x3d9386f6	0.07203476
153	0xbc58098d	-0.013185871
154	0xbd233459	-0.039844844
155	0xb9b8f535	-0.00035277908
156	0xbd003bb2	-0.03130693
157	0x3d8988fb	0.0671558
158	0xbd7dcf4b	-0.061965268
159	0xbd534eba	-0.05158875
160	0xbd92f848	-0.07176262
161	0xbe041592	-0.12898853
162	0x3de3c144	0.11120847
163	0xbdaed407	-0.08536535
164	0xbba617da	-0.0050687613
165	0xbdfebbe6	-0.124381825
166	0x3d846c5d	0.06465981
167	0x3d50583e	0.050865404
168	0xbdcd2659	-0.1001708
169	0xbc4c3f7f	-0.0124663105
170	0xbc9424f5	-0.018084029
171	0x3e0c9f0e	0.1373255
172	0xbdf0c93e	-0.11757134
173	0xbdd789d5	-0.10524336
174	0xbdde1911	-0.10844625
175	0xbd25a868	-0.040443808
176	0x3d71995e	0.058984153
177	0xbd7c1da3	-0.0615517
178	0xbdd7b800	-0.10533142
179	0x3d594528	0.05304447
180	0xbe011250	-0.12604642
181	0x3e086fde	0.13323924
182	0x3dbfacc8	0.09359127
183	0xbd3b9bb2	-0.04580278
184	0x3d055abb	0.03255723
185	0xbd4cd89c	-0.050011262
186	0x3dd0a1bc	0.101870984
187	0xbd5f5220	-0.05452168
188	0x3deed37b	0.116614304
189	0x3dee9d7c	0.116511315
190	0x3bbe22f1	0.005802505
191	0x3d130188	0.035890132
192	0xbd865683	-0.065594696
193	0x3dd79bf7	0.10527795
194	0x3dafb067	0.08578568
195	0xbc31fb25	-0.0108631
196	0x3d8039a4	0.06260994
197	0xbe063d92	-0.13109425
198	0xbd5546d0	-0.052069485
199	0xbdf06160	-0.11737323
200	0x3d86501b	0.06558248
201	0x3df2c627	0.11854201
202	0xbd6d5a80	-0.057947636
203	0x39c6de62	0.0003793119
204	0xbbf740b3	-0.0075455545
205	0xbdb94a71	-0.09047402
206	0x3e082bea	0.13298002
207	0xbdfd1dc1	-0.12359191
208	0xbdb03837	-0.08604472
209	0x3dea4176	0.11438267
210	0xbd70158b	-0.058614295
211	0xbda76cdf	-0.081750624
212	0xbda329b7	-0.07966941
213	0x3d24bd49	0.04021958
214	0xbc45017b	-0.012024279
215	0xbb29db3a	-0.0025918023
216	0x3d79e02f	0.061004814
217	0xbde3c2de	-0.11121152
218	0xbdb00fe1	-0.08596779
219	0xbae4260c	-0.0017406358
220	0xbd94dcad	-0.07268653
221	0x3dd6265d	0.10456536
222	0xbd24f22c	-0.040270016
223	0x3dfbaa09	0.12288291
224	0x3e0468ba	0.12930575
225	0x3c8b561a	0.01700883
226	0xbd5dab83	-0.054118644
227	0xbd8ed01c	-0.069732875
228	0xbbc07e75	-0.00587445
229	0xbbcdda52	-0.0062821293
230	0x3d1f4d93	0.03889234
231	0x3cf4009e	0.02978545
232	0xbcab42b5	-0.020905832
233	0x3d9758d4	0.073899895
234	0xbe089948	-0.13339722
235	0x3bc698a1	0.0060606753
236	0x3b97e933	0.004635954
237	0x3dd52493	0.104073666
238	0x3caa5476	0.020792227
239	0x3d95f029	0.073211975
240	0x3e096906	0.1341897
241	0xbd978e91	-0.07400239
242	0xbdb2b0f9	-0.08725161
243	0xbdc7b7e1	-0.09751869
244	0xbd76be6a	-0.060240187
245	0xbdca1e10	-0.09869015
246	0xbd2acb91	-0.041698042
247	0xbd82bc97	-0.06383627
248	0x3ca68fe0	0.020332277
249	0x3d087ed2	0.03332407
250	0x3d9c096d	0.07618985
251	0x3d3089b2	0.043100066
252	0xbd26280f	-0.040565547
253	0x3ceb5800	0.028728485
254	0xbd596a7b	-0.053080063
255	0x3dad2148	0.084536135

fc1.bias f4 [256]
0	0xbd06ba52	-0.032892533
1	0xbdcb851c	-0.09937498
2	0x3d87e6ba	0.066358045
3	0xbc8d99c3	-0.017285233
4	0x3d8ad699	0.067792125
5	0x3be35725	0.0069378787
6	0x3d8d33d1	0.06894649
7	0x3db2bd3d	0.087275006
8	0xbc7cb19f	-0.015423208
9	0xbc493639	-0.012280994
10	0x3e0166cb	0.12636869
11	0x3d8f70f2	0.070039645
12	0x3d01bbfb	0.031673413
13	0x3e0d6f52	0.13811997
14	0xbd92671e	-0.07148574
15	0x3de8ba49	0.11363656
16	0xbdccb8df	-0.09996199
17	0xbcef1036	-0.029182535
18	0xbd70724d	-0.058702756
19	0xbdba333c	-0.090918034
20	0xbd98c0d7	-0.07458656
21	0xbd3d8d5d	-0.046277393
22	0xbd9f995f	-0.07792925
23	0x3daf8f70	0.085722804
24	0xbd7a31ea	-0.061082758
25	0xbde9492c	-0.113909096
26	0x3c9ca57f	0.019121883
27	0xbc890147	-0.016724242
28	0xbc817e8c	-0.015807413
29	0xbd04ee37	-0.032453742
30	0xbd3d1b83	-0.046168815
31	0xbdf61218	-0.1201517
32	0x3da242fe	0.07922934
33	0x3dfd50e0	0.12368941
34	0x3d87dfbc	0.06634471
35	0xbdc9a297	-0.09845465
36	0x3da7afa0	0.08187795
37	0x3db9a8cd	0.09065399
38	0xbdef6652	-0.11689438
39	0x3da9b2c9	0.08286054
40	0x3d92de79	0.071713395
41	0x3dc439ab	0.09581312
42	0xbe0875f5	-0.13326247
43	0xbd943018	-0.07235736
44	0x3db1b4f5	0.08677093
45	0x3d889f6b	0.066710316
46	0xbce6b2b0	-0.028161377
47	0xbdf7dd8f	-0.12102806
48	0xbd1edc62	-0.038784392
49	0xbd86c3dd	-0.06580327
50	0x3e06b386	0.1315442
51	0x3d99feed	0.07519326
52	0xbd52fb97	-0.051509466
53	0xbcb7e0a8	-0.022445992
54	0xbcbaad54	-0.022787727
55	0x3d220280	0.039553165
56	0x3c8096af	0.015696852
57	0x3deabeab	0.11462148
58	0x3b90c692	0.0044182027
59	0xbc9acbae	-0.01889595
60	0xbddacb0f	-0.106832616
61	0xbd0235af	-0.031789478
62	0x3d38801d	0.045044053
63	0x3e07dcbf	0.13267802
64	0x3da2d28c	0.07950315
65	0x3e090d12	0.13383892
66	0x3e0aaf8a	0.13543525
67	0xbd47255a	-0.048619606
68	0xbdcab6ce	-0.098981485
69	0x3d606d82	0.054791935
70	0x3d826089	0.06366069
71	0x3d26c50e	0.04071527
72	0xbcce44d3	-0.025179302
73	0xbdff7e7f	-0.12475299
74	0x3dddf4e8	0.10837728
75	0xbd2cee5d	-0.04221951
76	0x3d553743	0.052054655
77	0xbd9c4ce6	-0.07631855
78	0xbdee40e0	-0.11633468
79	0x3d96ff22	0.073728815
80	0xbdcea94d	-0.10090885
81	0x3da82d9c	0.08211824
82	0x3dfc2589	0.12311847
83	0xbdc61b89	-0.09673221
84	0xbdfa4f7a	-0.1222219
85	0xbdf7e19e	-0.1210358
86	0xbd3827e6	-0.044959925
87	0xbd83ea16	-0.06441133
88	0x3dc2222c	0.09479174
89	0xbd92e615	-0.07172791
90	0x3dd4ba08	0.10387045
91	0xbcd41ceb	-0.025892695
92	0x3aaa3ecb	0.0012988684
93	0x3da071f7	0.07834237
94	0xbdaf804a	-0.08569391
95	0xbc93305e	-0.0179674
96	0xbdf9f6fa	-0.1220531
97	0x3cc4f62e	0.024043169
98	0x3ddbd64e	0.10734235
99	0xbdb71701	-0.089399345
100	0x3d6260f2	0.055268236
101	0xbde848b8	-0.11341995
102	0x3d2a8e8d	0.041639853
103	0xbd6a461e	-0.057195775
104	0x3d84577c	0.06461999
105	0xbd1ba4a3	-0.037998807
106	0xbdb0fce2	-0.086419836
107	0xb8b4f88f	-8.6293665e-05
108	0xbd0ab362	-0.03386248
109	0xbc990e1d	-0.018683488
110	0x3d2ceeef	0.042220052
111	0x3e05c4d1	0.13063361
112	0xbd8827d6	-0.06648223
113	0xbc63bbe4	-0.013899777
114	0xbd2e4036	-0.042541705
115	0xbd29d8a0	-0.041466355
116	0x3d87bbb6	0.066276
117	0x3d90a3cc	0.07062492
118	0xbdef0c49	-0.11672265
119	0x3c8143e3	0.015779441
120	0x3dc7c48b	0.097542845
121	0xbd2130f2	-0.03935332
122	0x3dd08b8e	0.10182868
123	0xbbeb8472	-0.0071874196
124	0xbdf36b69	-0.11885721
125	0xbcac1015	-0.021003762
126	0xbde03a8b	-0.10948666
127	0xbd8f7b1d	-0.07005904
128	0xbaf95f56	-0.0019025605
129	0x3d857ec0	0.06518316
130	0xbdc1ce1a	-0.09463139
131	0x3e0175b1	0.12642552
132	0xbd477dbd	-0.048703898
133	0x3da06ba3	0.0783303
134	0x3dc7c6c3	0.09754708
135	0xbdc3c4f4	-0.0955905
136	0x3d8c8201	0.06860734
137	0x3d8d8265	0.069096364
138	0x3dc9d817	0.09855669
139	0x3d7b285b	0.061317783
140	0xbd74b6a9	-0.05974451
141	0xbd393aa6	-0.045221947
142	0x3dfb4196	0.12268369
143	0xbdd023dc	-0.1016309
144	0x3c917186	0.017754328
145	0xbe0692b3	-0.13141899
146	0x3cf958da	0.030437876
147	0x3e02b09f	0.12762688
148	0xbc19a085	-0.00937665
149	0x3c2d5052	0.010578232
150	0xbc4d35ec	-0.012525063
151	0x3dd84380	0.105597496
152	0x3d4edda5	0.050504345
153	0x3d2ad8b9	0.04171059
154	0xbafd60fa	-0.001933127
155	0xbd5422f8	-0.05179116
156	0x3db29be7	0.08721142
157	0xbbc6cbf1	-0.006066792
158	0x3deb9af0	0.11504161
159	0xbd876072	-0.06610192
160	0xbc1a937b	-0.009434576
161	0x3d923182	0.07138349
162	0x3da15e65	0.078793325
163	0xbe024ca6	-0.12724552
164	0x3d5a8fa3	0.05335964
165	0x3bc77543	0.0060869767
166	0x3c33832e	0.010956569
167	0xbc2ea269	-0.010658839
168	0xbd51d20c	-0.051225707
169	0xbe0710ad	-0.13189955
170	0xbdddc1eb	-0.108280025
171	0xbd87b79f	-0.0662682
172	0x3dc64d12	0.09682669
173	0x3de92782	0.11384489
174	0xbdd9f029	-0.1064151
175	0x3e07ae58	0.132501
176	0x3d3d6b18	0.04624471
177	0x3da24683	0.07923605
178	0xbc24bce3	-0.0100548
179	0x3d780763	0.06055392
180	0xbdf379e9	-0.11888487
181	0xbd9d0ada	-0.076680854
182	0xbd2ce116	-0.042206846
183	0xbd22d85f	-0.03975713
184	0xbc005b8a	-0.007834325
185	0x3aab59b1	0.0013072995
186	0x3e00d349	0.12580599
187	0xbe007ef2	-0.12548426
188	0x3b02c6a7	0.0019954832
189	0x3c8b5baf	0.017011492
190	0xbe0ce168	-0.1375786
191	0xbd1c1bd8	-0.03811249
192	0x3cdd5164	0.02701635
193	0x3d40afff	0.047042843
194	0xbd13a2e1	-0.036044005
195	0x3c7968f9	0.015222781
196	0xbd11b206	-0.035570167
197	0xbbda1b91	-0.006656118
198	0xbd8c00e1	-0.06836105
199	0x3d524385	0.051333923
200	0x3dfba4b5	0.12287275
201	0x3dd99741	0.106245525
202	0xbdbb9734	-0.09159699
203	0xbc366dbc	-0.011134561
204	0xbdfa396e	-0.12217985
205	0x3db47c9f	0.08812832
206	0x3d71b892	0.05901391
207	0xbd2e821d	-0.042604554
208	0xbd9e5125	-0.07730321
209	0x3dec4fe6	0.11538677
210	0xbda5b545	-0.08091215
211	0xbd3bcf32	-0.045851894
212	0x3d617dc7	0.05505159
213	0x3d3330d7	0.04374775
214	0x3e094719	0.13406028
215	0x3cae18bd	0.02125203
216	0xbdb2cb12	-0.08730139
217	0xbdfdfeeb	-0.12402137
218	0x3d9354a2	0.07193877
219	0x3da3d248	0.07999092
220	0xbd78a818	-0.06070718
221	0x3e092aa0	0.13395166
222	0xbcb9bb3d	-0.02267229
223	0x3d926062	0.0714729
224	0x3da5d25b	0.08096763
225	0x3dfc38bb	0.12315508
226	0xbd9b80d7	-0.075929336
227	0xbe0b2d45	-0.13591488
228	0x3a52be24	0.00080391974
229	0xbde2fbd8	-0.11083192
230	0x3dd1a15b	0.10235854
231	0x3e085433	0.1331337
232	0xbd77d141	-0.060502294
233	0xbe0a1fca	-0.13488689
234	0xbdafc0ec	-0.08581719
235	0x3dee1aa0	0.11626172
236	0x3d60d6fc	0.054892525
237	0xbde48cb6	-0.11159651
238	0xbd57e016	-0.05270394
239	0xbcddd992	-0.027081285
240	0x3dcbbc39	0.0994801
241	0x3c9005a4	0.017580815
242	0x3d4bdf9a	0.04977379
243	0x3d541297	0.05177554
244	0x3d495acc	0.049158856
245	0xbd338c09	-0.04383472
246	0xbd39fec1	-0.045408968
247	0xbd6e71d8	-0.05821404
248	0xbd0e2507	-0.03470328
249	0xbe07f947	-0.13278686
250	0x3d13e7f0	0.036109865
251	0xbd692b4a	-0.05692605
252	0x3ca104ea	0.019655664
253	0x3d9f1dc4	0.07769349
254	0x3dd5ef4d	0.104460336
255	0x3cbcb5ac	0.023035847

fc2.weight f4 [128, 256]
0	0xbd1dbc0a	-0.038509406
1	0x3c366f58	0.011134945
2	0x3d4e086e	0.050301008
3	0xbc8c2388	-0.017106786
4	0xbd122ba0	-0.035686135
5	0x3cce62e8	0.025193647
6	0x3c74d660	0.014943689
7	0xbca20dec	-0.01978203
8	0xbd0a65ac	-0.033788368
9	0x3d06c67a	0.032904126
10	0x3b9f6190	0.0048639253
11	0x3c022830	0.007944152
12	0xbd63971c	-0.05556403
13	0x3c9a76d0	0.018855482
14	0x3d109c7e	0.035305493
15	0xbd0f69bc	-0.035012946
16	0xbca30084	-0.019897707
17	0x3d0712ce	0.032976918
18	0xbb688d60	-0.0035484657
19	0x3d6d70e4	0.05796899
20	0xbd312f7e	-0.043258183
21	0x3c573a68	0.013136484
22	0x3d350de6	0.044202708
23	0xbd4a794a	-0.049432077
24	0xbd14d4d2	-0.036335774
25	0x3d69028c	0.056887195
26	0x3d47396e	0.048638754
27	0x3c7c12a0	0.0153853
28	0xbac782c0	-0.0015221462
29	0x3cc67328	0.024224833
30	0x3d3c38b2	0.045952506
31	0x3cd96f98	0.02654247
32	0x3d537c92	0.05163247
33	0xbbaa4bc0	-0.0051970184
34	0xbd5d0060	-0.053955436
35	0xbbfa8db0	-0.007646285
36	0xbc94a180	-0.018143415
37	0xbd2c6008	-0.04208377
38	0x3d410eea	0.047133364
39	0x3cdbb968	0.026821807
40	0x3c94a06c	0.018142901
41	0x3d320f18	0.043471426
42	0x3d40a276	0.047029935
43	0x3ce45270	0.02787134
44	0xbd426c92	-0.047466822
45	0x3ca8158c	0.020518087
46	0xbd49ee6a	-0.049299635
47	0xbc8a4414	-0.016878165
48	0x3d3658ce	0.044518284
49	0xbd04e2d8	-0.032442898
50	0xbbd3be60	-0.0064619035
51	0xbd2397a2	-0.03993953
52	0x3c91c1cc	0.017792605
53	0x3c34b500	0.011029482
54	0xbd289ae6	-0.041163348
55	0xbcd2600c	-0.025680564
56	0xbd1593c8	-0.03651789
57	0x3ce13e08	0.0274954
58	0xbd15f9d8	-0.036615223
59	0x3d00dcbe	0.031460516
60	0x3d231a52	0.039820023
61	0xbca27690	-0.019831926
62	0xbcaa3568	-0.02077742
63	0xbcb7ab3c	-0.022420518
64	0xbd2f1046	-0.04274013
65	0xbd2562f4	-0.040377572
66	0x3cc12068	0.023575023
67	0x3d64523e	0.055742495
68	0x3a2d1c00	0.00066035986
69	0xba972480	-0.0011531264
70	0x3d3a63dc	0.04550539
71	0xbd75890c	-0.05994515
72	0x3d3f8474	0.046757177
73	0xbd44525a	-0.0479301
74	0x3d482360	0.04886186
75	0x3d7fbb70	0.062434614
76	0x3c91b8ac	0.017788254
77	0x3cb82e48	0.022483006
78	0x3d138f58	0.036025375
79	0x3c7a16a8	0.015264191
80	0xbcc64314	-0.024201907
81	0xbd228d9c	-0.03968583
82	0xbc9e4ee4	-0.019324727
83	0xbcf8f370	-0.030389518
84	0x3c9b1890	0.01893261
85	0xbd4a1dc8	-0.049344808
86	0xbd149be0	-0.036281466
87	0x3cd9f714	0.026607074
88	0xbd687fae	-0.05676239
89	0xbd4bb346	-0.049731515
90	0xbd0c544e	-0.034260087
91	0xbd63607c	-0.055511937
92	0x3c3612e0	0.011112899
93	0x3c140a90	0.009035721
94	0x3b6f08e0	0.0036473796
95	0x3b9c7aa0	0.00477536
96	0x3a6d3800	0.0009049177
97	0xbd426cb2	-0.04746694
98	0xbc91f868	-0.017818645
99	0xbd400fa8	-0.04688993
100	0xbbb2ce20	-0.005456701
101	0x3d0ce2da	0.03439603
102	0x3c9f3e8c	0.019439004
103	0x3c0b7278	0.008511178
104	0x3ca12f68	0.019675925
105	0x3ceebb6c	0.029142104
106	0x3c2e6288	0.010643609
107	0xbc1e0c20	-0.0096464455
108	0xbb1c9160	-0.0023890361
109	0xbd0ad3c4	-0.03389336
110	0xbc84f7b4	-0.016231395
111	0xbd567802	-0.052360542
112	0x3c382308	0.011238821
113	0x3d11b97c	0.035577282
114	0xbc4c8290	-0.0124823
115	0x3d424af2	0.047434755
116	0x3d551362	0.052020438
117	0xbc6fca50	-0.014635637
118	0xbd0f3dde	-0.03497111
119	0xbd473d52	-0.048642464
120	0xbd2b3f54	-0.04180844
121	0x3c1dbb68	0.009627201
122	0x3cc0aadc	0.023518972
123	0x3d394664	0.045233145
124	0xbd26ba00	-0.040704727
125	0x3d142dd6	0.036176525
126	0xbd1b86dc	-0.03797041
127	0x3c95cbc4	0.01828564
128	0x3ce04264	0.027375408
129	0x3d723b62	0.059138663
130	0xbd21e51c	-0.039525136
131	0x3d5b88ac	0.053597137
132	0xbc7c4818	-0.015398048
133	0xbc443330	-0.011975095
134	0xbc6fdba0	-0.014639765
135	0xbd7109bc	-0.058847174
136	0xbd4c9950	-0.049950898
137	0x3b169900	0.0022979379
138	0xbd7733ee	-0.06035226
139	0x3ce0f354	0.027459778
140	0x3d7c1df8	0.061552018
141	0x3d450562	0.048100837
142	0xbd188954	-0.03724034
143	0x3d4ed1fc	0.050493225
144	0x3b49f640	0.0030816942
145	0xbd7ec590	-0.06220013
146	0xbccb124c	-0.024788998
147	0x3c4d5f78	0.012534969
148	0x3d5fe1a6	0.054658554
149	0xbd519608	-0.05116847
150	0x3cfa1e94	0.030532159
151	0x3cad4d84	0.021155126
152	0x3d7e24b6	0.06204673
153	0x3d0015b0	0.031270683
154	0xbc7d8218	-0.015472911
155	0x3c733a20	0.014845401
156	0xbd2cf8f2	-0.0422296
157	0xbd7fbc4e	-0.06243544
158	0x39f3df00	0.0004651472
159	0x3cf65268	0.030068591
160	0xbcd4a748	-0.025958672
161	0x3d107a96	0.035273157
162	0xbc82988c	-0.01594188
163	0xb9c4d400	-0.00037541986
164	0x3cba5630	0.022746176
165	0x3d0e8b24	0.034800664
166	0xbc1d3af0	-0.009596571
167	0xbd5d3aa2	-0.054010995
168	0xbc55c8f0	-0.0130483955
169	0xbc0ca500	-0.008584261
170	0xbd580e74	-0.05274816
171	0x3d2e273a	0.042517878
172	0xbd0ec2a2	-0.034853585
173	0x3d0b5c0a	0.034023322
174	0xbcd69358	-0.026193306
175	0x3d4c464c	0.049871728
176	0xbd5ec192	-0.05438382
177	0xbc75ce08	-0.015002735
178	0xbd02046c	-0.0317425
179	0x3d2f3490	0.042774737
180	0x3d238388	0.03992036
181	0xbd3e39a8	-0.046441704
182	0x3cee956c	0.029123984
183	0xbaed7940	-0.00181178
184	0xbd45ad12	-0.048260756
185	0xbcde75b8	-0.027155742
186	0xbd0012f4	-0.031268075
187	0x3bbf5e00	0.005840063
188	0x3d73a130	0.059479892
189	0x3cb5d630	0.02219686
190	0xbcddb970	-0.027065963
191	0xbc5cd7e8	-0.01347921
192	0xbce176a8	-0.0275224
193	0x3cbe1ec4	0.02320803
194	0x3d4a9230	0.04945582
195	0xbcad6a84	-0.021168955
196	0x3d1cfa42	0.038324602
197	0xbc8052e4	-0.015664525
198	0x3d4b1d06	0.049588226
199	0x3d02b4e0	0.031910777
200	0x3d3aaeec	0.045576975
201	0x3d585b22	0.052821286
202	0x3c6a7258	0.014309488
203	0xbc708b38	-0.01468163
204	0x3bf98d00	0.0076156855
205	0x3d157ba4	0.036494866
206	0x3c54b470	0.012982473
207	0xbd7b019c	-0.06128083
208	0xbcdb4f0c	-0.02677109
209	0xbd0d0444	-0.034427896
210	0xbcad9dd4	-0.021193422
211	0xbd3b70c4	-0.04576184
212	0x3cf290f8	0.029610142
213	0xbd2350b4	-0.039871886
214	0xbc08fc88	-0.008360989
215	0x3c45b8c0	0.012067974
216	0xbcdb1734	-0.026744463
217	0x3d3b484e	0.045723252
218	0x3cbed61c	0.023295455
219	0xbd21f578	-0.039540738
220	0xbd602c60	-0.05472982
221	0xbd666c60	-0.0562557
222	0x3d610cee	0.05494397
223	0xbb40ab60	-0.0029399022
224	0x3cee8620	0.02911669
225	0x3d50fc84	0.051022068
226	0xbcb5e604	-0.022204407
227	0xbd4e13d2	-0.05031187
228	0x3d5f97d2	0.054588147
229	0xbcbcf384	-0.023065336
230	0xbd3c0c14	-0.045909956
231	0xbc1d6da0	-0.009608656
232	0x3d56f4ee	0.052479677
233	0xbc3467e8	-0.011011101
234	0x3a153180	0.0005691275
235	0xbcab8ae0	-0.020940244
236	0xb9857c00	-0.00025460124
237	0x3cfae31c	0.030625872
238	0xbd3ce1ac	-0.046113655
239	0x3cb2f3d4	0.021844782
240	0x3d1ecfd8	0.038772434
241	0x3ae31340	0.0017324463
242	0xbd3d620c	-0.046236083
243	0x3d579b20	0.052638173
244	0x3c79cc00	0.015246391
245	0x3cc42714	0.023944415
246	0xbd7b7910	-0.06139475
247	0xbcd1de6c	-0.025618754
248	0x3cc8f630	0.024531454
249	0x3d6948b6	0.05695411
250	0xbc8f95dc	-0.017527513
251	0x3c4ed888	0.012624867
252	0x3cbe19fc	0.02320575
253	0xbd02a80c	-0.031898543
254	0xbcc861c4	-0.02446068
255	0x3b5ea040	0.0033970028

fc2.bias f4 [128]
0	0xbcd59a5c	-0.02607458
1	0xbd573f4a	-0.05255059
2	0x3c9a46f8	0.018832669
3	0x3d2be7ce	0.041969113
4	0xbcb2e4ec	-0.021837674
5	0x3d28f5aa	0.04124991
6	0x3c49aa98	0.012308739
7	0xbd7a46de	-0.06110274
8	0x3d5a7698	0.053335756
9	0x3c94f128	0.018181399
10	0xbd784ab8	-0.060618132
11	0xbac547c0	-0.001505129
12	0x3d5178d2	0.051140614
13	0x3d18a2e4	0.03726472
14	0xbcc23fb4	-0.023712017
15	0x3d57ea50	0.052713692
16	0xbd395e80	-0.045256138
17	0x3b92d160	0.004480526
18	0xbccd3030	-0.025047392
19	0x3d102996	0.03519591
20	0xb8e79000	-0.000110417604
21	0xbd7ef8b6	-0.062248908
22	0xbd586f58	-0.05284056
23	0xbd387e9a	-0.04504261
24	0x3ce48778	0.027896628
25	0x3bad5910	0.005290158
26	0xbcace478	-0.021105036
27	0xbd2716b2	-0.04079313
28	0x3cb37fa8	0.021911457
29	0xbc94d514	-0.01816801
30	0x3d52f6fe	0.05150508
31	0x3c8b3bbc	0.016996257
32	0xbbe162d0	-0.0068782344
33	0x3d3f23da	0.04666505
34	0x3d747e02	0.059690483
35	0x3cffccbc	0.031225555
36	0x3b349300	0.002755344
37	0xbc399530	-0.011327073
38	0x3d30a2ac	0.043123886
39	0xbc843768	-0.016139701
40	0xbc0098c0	-0.007848918
41	0x3d7bc48c	0.06146674
42	0x3d6a792e	0.057244472
43	0x3a208600	0.0006123483
44	0xbd30fb8e	-0.04320865
45	0x3d2f27ea	0.042762674
46	0xbd297748	-0.04137352
47	0x3ce243e4	0.027620263
48	0x3d264e4c	0.040602013
49	0x3d168854	0.036751106
50	0xbcd5fda4	-0.026121922
51	0x3c06d3a0	0.008229166
52	0x3d646a74	0.055765584
53	0x3ccca5c0	0.02498138
54	0x3d45976c	0.04824011
55	0x3cd6e288	0.026231065
56	0xbcd34780	-0.02579093
57	0xbcec4758	-0.028842613
58	0xbc1d3878	-0.009595983
59	0xbcd42070	-0.025894374
60	0xbc303b20	-0.010756284
61	0xbd0ab00a	-0.03385929
62	0xbd2311b2	-0.039811797
63	0x3cf82bb0	0.03029427
64	0xbcb015c0	-0.021494746
65	0x3d104b66	0.035228156
66	0x3d45423a	0.04815886
67	0xbbf12a30	-0.0073597655
68	0x3cbdde70	0.023177356
69	0xbd6e3e1a	-0.058164693
70	0x3ab2da40	0.0013645366
71	0xbd1541a0	-0.036439538
72	0x3d4759d6	0.04866966
73	0xbc8c3fb0	-0.017120212
74	0x3c32df70	0.010917529
75	0xbd3a7b12	-0.045527525
76	0x3c167c60	0.009184927
77	0xbbfbba20	-0.0076821
78	0x3c0db708	0.008649595
79	0xbcc92c10	-0.024557143
80	0xbcff6830	-0.03117761
81	0x3a814a80	0.0009864122
82	0xbc50be50	-0.012740687
83	0xbcb1305c	-0.021629505
84	0xbd0856b8	-0.033285826
85	0x3c9472cc	0.018121146
86	0xbd44160e	-0.047872595
87	0x3cb7ba44	0.022427686
88	0x3c143c70	0.009047613
89	0xbc4f4a70	-0.012652025
90	0x3d5a90fe	0.05336093
91	0xbd0a5950	-0.03377658
92	0x3d40b648	0.047048837
93	0x3d26d96c	0.040734693
94	0xbc151038	-0.009098105
95	0x3c82a1bc	0.015946262
96	0xbd7656aa	-0.060141243
97	0x3d3258c0	0.04354167
98	0xbcdf02c0	-0.027222991
99	0x3d752fd0	0.05986005
100	0xbd1ca702	-0.03824521
101	0xbd395d76	-0.045255147
102	0xbbb57800	-0.0055379868
103	0x3d503200	0.050828934
104	0xbd41c99c	-0.04731141
105	0x3d71c35e	0.059024207
106	0xbd31de18	-0.043424696
107	0xbcee31c0	-0.029076457
108	0x3cca0780	0.02466178
109	0x3d00a5fe	0.031408302
110	0x3d43d706	0.047812484
111	0xbd71987c	-0.05898331
112	0x3cff08bc	0.031132095
113	0xbd3a7f34	-0.045531467
114	0xbd2ab47c	-0.04167603
115	0xbd2fcf00	-0.04292202
116	0x3d5486c0	0.05188632
117	0xbd2c9374	-0.04213281
118	0x3d35f8d2	0.044426747
119	0xbcfe95ac	-0.031077228
120	0x3cf0adf4	0.029379822
121	0xb95d7600	-0.00021120161
122	0x3d70d0d6	0.05879291
123	0x3cd8614c	0.026413582
124	0xbd022b1e	-0.0317794
125	0x3cc640ac	0.02420076
126	0xbd7ba3b0	-0.0614354
127	0xbd6903f8	-0.05688855

fc3.weight f4 [13, 128]
0	0xbcee4981	-0.029087784
1	0xbc4c5423	-0.012471232
2	0xbd24b74c	-0.040213868
3	0x3d137a33	0.03600521
4	0x3aa283b0	0.0012398865
5	0x3d93b6ea	0.072126225
6	0xbda8d715	-0.08244149
7	0x3dabf9bc	0.083972424
8	0x3d9b3caa	0.0757993
9	0x3bddc07a	0.0067673298
10	0x3db2c50e	0.087289914
11	0xb99ea3f8	-0.00030258275
12	0x3c59ff13	0.013305443
13	0x3c611e21	0.013740093
14	0xbd9bf5e5	-0.0761526
15	0xbca506b1	-0.020144792
16	0x3d151be9	0.03640357
17	0xbcdadda9	-0.026717024
18	0x3dabe2e4	0.08392885
19	0xbd50a4d0	-0.050938427
20	0x3d392d96	0.04520949
21	0x3d354e25	0.044263978
22	0x3da74cac	0.08168921
23	0x3d91c549	0.07117707
24	0x3d82c5c7	0.06385379
25	0xbd9f3535	-0.0777382
26	0xbd55186a	-0.052025236
27	0x3d468a5f	0.048471805
28	0x3cd0c2a5	0.025483439
29	0xbda5e5e0	-0.08100486
30	0x3b6f0d16	0.0036476306
31	0xbd7c3c43	-0.061580908
32	0xbda4e0ef	-0.08050715
33	0x3c628015	0.013824482
34	0x3c8ac96b	0.016941747
35	0x3cef9167	0.029244138
36	0xbd8366f5	-0.06416122
37	0xbda2b91b	-0.07945462
38	0x3da1cf8a	0.07900913
39	0xbce6c66b	-0.028170785
40	0x3cb0a528	0.021563128
41	0x3c76326a	0.015026668
42	0x3c7b1210	0.015324131
43	0xbb94d10e	-0.004541523
44	0x3d08295f	0.03324258
45	0x3d016f5b	0.031600337
46	0xbdb28370	-0.08716476
47	0xbb2ebddf	-0.0026663465
48	0x3d5a06f7	0.0532293
49	0x3bcdea31	0.0062840213
50	0xbc669a88	-0.014074929
51	0xbce39ba1	-0.02778417
52	0x3da64c79	0.08120055
53	0x3cf33e8a	0.029692907
54	0x3d35f478	0.044422597
55	0x3d524f77	0.051345315
56	0x3ce3867c	0.027774088
57	0x3c84ba2f	0.01620206
58	0x3d23f2a2	0.040026315
59	0xbda5b91c	-0.080919474
60	0xbcacd357	-0.021096868
61	0xbc5bc926	-0.013414657
62	0x3cac8f20	0.021064341
63	0xbd072f8a	-0.03300432
64	0x3da7d445	0.08194784
65	0xbd8fe40e	-0.0702592
66	0x3c971959	0.018444704
67	0x3d4b1a61	0.049585704
68	0xbd259606	-0.040426277
69	0xbd9a5f87	-0.07537752
70	0x3d1cbb95	0.03826483
71	0x3d759b1b	0.059962373
72	0xbd80a44b	-0.062813364
73	0xbc8f6b92	-0.017507348
74	0xbd2f41ea	-0.04278747
75	0x3d78fb42	0.060786493
76	0xbd7831dd	-0.06059443
77	0xbcf868d4	-0.030323423
78	0xbcfb11f9	-0.030648218
79	0xbdb3c086	-0.08776955
80	0xbd2c5c0f	-0.04207998
81	0x3d9181cb	0.07104834
82	0xbd4111f2	-0.047136255
83	0x3d0be7c9	0.034156594
84	0x3c93ded4	0.018050589
85	0x3c5057bd	0.012716231
86	0x398c86c4	0.0002680329
87	0x3da97afc	0.082754105
88	0x3ca3ac9b	0.019979766
89	0x3cd259b2	0.025677536
90	0xbd81035f	-0.06299471
91	0xbd649792	-0.05580861
92	0x3d62551a	0.05525694
93	0xbce5521a	-0.02799325
94	0x3d59cda5	0.053174634
95	0x3d142bcb	0.036174577
96	0x3d65b13b	0.056077223
97	0xbda8c92b	-0.08241495
98	0xbce7d38f	-0.028299121
99	0x3da819a7	0.08208018
100	0x3d303118	0.04301557
101	0x3c823832	0.015895937
102	0x3d38720a	0.04503063
103	0xbd9e10f8	-0.0771808
104	0x3ba12c36	0.0049186004
105	0xbd5bb376	-0.053637944
106	0x3d1be2a2	0.03805793
107	0x3bef098d	0.0072948397
108	0x3dabacf1	0.08382595
109	0x3db4de6e	0.088314876
110	0x3d4e4d6b	0.0503668
111	0xbd25d89d	-0.04048978
112	0x3d4abb8a	0.049495257
113	0x3cdf1cb4	0.027235366
114	0x3da4d73e	0.08048867
115	0xbd4e715f	-0.050401088
116	0xbc87f004	-0.01659394
117	0x3c966d03	0.018362528
118	0x3d151fe6	0.036407374
119	0x3d5d0041	0.05395532
120	0xbb8836b5	-0.004156912
121	0x3ccb99e1	0.024853649
122	0x3d3c5227	0.045976784
123	0x3d9b3691	0.07578767
124	0x3d4efd69	0.05053464
125	0xbd67d2e0	-0.05659759
126	0xba0aac4c	-0.00052899565
127	0xbcee6745	-0.029101977
128	0x3db024b8	0.086007535
129	0x3d6778b8	0.05651161
130	0x3d4a7923	0.04943193
131	0xbd317933	-0.043328475
132	0xbd3a32b0	-0.045458496
133	0xbc0b6f04	-0.008510355
134	0x3d81695a	0.06318922
135	0x3da2b4e0	0.079446554
136	0x3c2f0b91	0.01068391
137	0xbc240964	-0.0100120045
138	0xbd41f7bf	-0.04735541
139	0x3d5849d4	0.052804783
140	0x3d9dbc0b	0.07701882
141	0x3dab32ed	0.08359323
142	0x3bf9792d	0.007613322
143	0x3d57da87	0.05269864
144	0x3d8475a3	0.0646775
145	0x3d9dc471	0.07703484
146	0x3d11e915	0.035622675
147	0x3d449c75	0.04800077
148	0xbd67ae84	-0.056562915
149	0xbda37653	-0.07981553
150	0xbd5c83e1	-0.053836707
151	0xbdb17747	-0.086653285
152	0xbd55de35	-0.052213866
153	0x3d7ecd21	0.062207345
154	0xbc6468d3	-0.013941008
155	0xbd8900f7	-0.06689637
156	0xbdad8128	-0.084719
157	0xbd5b8a48	-0.053598672
158	0xbdaa35f9	-0.08311076
159	0xbd66250e	-0.05618768
160	0xbd165854	-0.03670533
161	0xbd19a254	-0.037508324
162	0xbd8680a6	-0.065675065
163	0xbd6ae558	-0.057347625
164	0xbc3b00da	-0.011413777
165	0x3d92980e	0.071579084
166	0x3d8861f2	0.066593066
167	0xbd7106c4	-0.058844343
168	0xbd8531c4	-0.06503633
169	0x3c874069	0.016510205
170	0xbd6ab786	-0.057303928
171	0x3d8de7dd	0.0692899
172	0xbd36842b	-0.04455964
173	0xbd377507	-0.04478934
174	0x3d71b0ed	0.05900662
175	0x3cd236bc	0.025660865
176	0xbdaa858c	-0.08326253
177	0x3d7ccd9b	0.06171952
178	0xbd002389	-0.03128389
179	0xbcdaa983	-0.026692158
180	0x3c67aeec	0.014140826
181	0xbc934d79	-0.017981278
182	0x3ccdff89	0.025146263
183	0x3da6d548	0.08146149
184	0x3d223da1	0.039609555
185	0x3d84b0ab	0.06479009
186	0x3d82c359	0.06384916
187	0xbd6fcc26	-0.0585443
188	0x3d1cc214	0.038271025
189	0xbd3f4dc3	-0.04670502
190	0xbc96f642	-0.018427972
191	0xbdb4aaa2	-0.08821608
192	0x3c9b947f	0.018991707
193	0x3c4943b0	0.012284204
194	0x3d00e68a	0.03146986
195	0xbdacc772	-0.08436479
196	0xbd9820e5	-0.07428149
197	0xbbcb4f09	-0.00620449
198	0x3d4b80e3	0.049683463
199	0xbca70210	-0.020386726
200	0x3c8608c1	0.016361596
201	0x3d442278	0.047884434
202	0x3d7f11d2	0.062272854
203	0x3c84876d	0.016177857
204	0xbd90a9f7	-0.07063668
205	0x3d7ab89f	0.061211225
206	0x3d39ca6f	0.04535907
207	0xba67126e	-0.0008814697
208	0xbdace00b	-0.0844117
209	0xbd003005	-0.031295795
210	0xbd0d4d5d	-0.034497607
211	0xbc362108	-0.011116274
212	0x3d62e8f1	0.05539793
213	0x3d521255	0.051287014
214	0xbdb243fc	-0.08704373
215	0xbcc8c233	-0.024506664
216	0xbc025f38	-0.007957272
217	0xbc6d8669	-0.014497378
218	0xbc9240ee	-0.017853227
219	0xbda6e1b2	-0.08148517
220	0x3da53441	0.08066607
221	0xbd514263	-0.051088702
222	0x3d0f3341	0.03496099
223	0x3db19d80	0.08672619
224	0x3da278d6	0.07933204
225	0xbd2bb0cc	-0.041916654
226	0x3d6a2311	0.05716235
227	0x3aec96e0	0.0018050335
228	0xbbc74e2c	-0.006082317
229	0x3d46cf8c	0.048537776
230	0x3cb23e60	0.021758258
231	0x3ce36af3	0.027760958
232	0x3d40894f	0.047005948
233	0x3dab8448	0.0837484
234	0xbd437be4	-0.047725573
235	0x3d49a244	0.049227014
236	0xbc950c03	-0.018194204
237	0xbcaf54ff	-0.021402834
238	0x3d8f58f5	0.06999389
239	0xbd0d5598	-0.034505457
240	0x3d56afc1	0.052413706
241	0x3d927d2d	0.07152782
242	0x3c8a66a5	0.016894648
243	0xbd644479	-0.055729363
244	0xbcec3059	-0.028831648
245	0xbd7d574d	-0.061850835
246	0xbdaba8f6	-0.08381836
247	0x3d18e57a	0.03732822
248	0xbc2adc36	-0.010428479
249	0xbd89b895	-0.06724659
250	0x3c9d7bdf	0.019224105
251	0xbd238935	-0.039925773
252	0x3d88c13e	0.06677483
253	0xbd26c743	-0.040717375
254	0x3d67190f	0.056420382
255	0xbd54d633	-0.05196209

fc3.bias f4 [13]
0	0xbcb96770	-0.02263233
1	0x3d964855	0.07338015
2	0xbda31845	-0.079636134
3	0x3da0c60e	0.07850276
4	0xbc004f52	-0.007831411
5	0xbd6add80	-0.057340145
6	0xbc7ffa0f	-0.015623583
7	0x3c941508	0.018076435
8	0x3d6f699e	0.058450334
9	0x3d37cba3	0.044871937
10	0x3da68d05	0.08132366
11	0xbcb70dfa	-0.022345532
12	0xbc4b92eb	-0.012425165
