Player 2_policy_net.pth (torch, 195328 bytes, 6 tensors)

fc1.weight f4 [256, 52]
0.12054877 0.045548327 0.043946654 -0.13674295 -0.097590566 0.011183197 -0.10338833 0.06640746
0.019524934 -0.034458317 -0.06742539 0.12836793 0.08873993 -0.025146438 -0.11019715 -0.06716686
0.048268165 0.09590945 -0.073473275 -0.12772247 0.070595115 -0.10706298 0.12536316 -0.10309048
0.042256735 0.06318662 -0.056014244 -0.10553703 -0.07242482 -0.06472559 0.038914528 -0.017941048
0.08197799 -0.061438546 0.13501655 -0.035011075 0.06408001 0.056819588 -0.04493255 -0.08792853
0.10688795 -0.0766653 0.0356091 -0.096077554 -0.078983754 0.0703019 0.12967613 0.11177045
-0.008641699 -0.08058862 -0.021024609 -0.12699957 -0.042768613 -0.12585962 0.015152986 -0.021710247
-0.0874807 0.0058510085 0.13371715 0.12206631 0.12306523 -0.011259654 -0.0021061937 -0.13785407
-0.05964506 0.044070657 0.10870182 -0.08339671 -0.120442025 -0.12833108 -0.07855003 0.13149339
0.047064416 -0.06597258 0.1070126 0.069642015 -0.05025449 -0.10488085 -0.07087575 0.098924614
0.026101967 -0.063750766 0.075773895 0.06506445 0.10147829 0.05590388 0.089786015 -0.08619079
0.014142293 -0.0640756 -0.09251096 -0.12479169 0.04249386 0.09585198 0.013805962 -0.099058785
-0.053066507 0.05345329 0.042653553 -0.05115548 0.033445276 -0.05792259 -0.12918037 0.026335059
-0.039482262 -0.014046427 -0.049779825 -0.071839444 -0.015262226 0.03412293 0.112586245 0.11668828
-0.12695204 0.07893267 0.033318944 -0.06703153 -0.073512405 -0.016476702 -0.11629145 0.0647773
0.09715935 0.13315481 -0.0085471235 0.096460916 -0.020512551 -0.05355157 -0.108678594 -0.09838741
0.021861956 0.0362648 0.06183429 0.024595894 -0.033892218 -0.022685135 0.12441024 0.04267617
0.13452524 -0.10020849 -0.046126943 -0.0104803825 0.064243585 0.099039294 0.08166593 -0.08695264
0.009346877 -0.11994317 -0.07278023 -0.0070151626 -0.123006664 -0.039497554 0.110577084 0.075102076
0.1350156 -0.046256218 0.032434136 0.055423763 0.060943034 -0.022288183 -0.1268657 0.012187542
0.10339639 -0.052874215 -0.0018074721 -0.064416885 0.02028784 -0.027696036 0.1251747 0.02177915
-0.12657268 -0.053657304 0.10427709 0.003353005 0.1150178 -0.04082102 0.05664925 0.009958785
-0.105337985 0.07909701 -0.018041378 -0.13421185 0.085711785 -0.12472991 0.0012423974 0.06528979
0.116563715 0.05301197 -0.08712996 -0.0022187391 0.024016157 -0.09698362 0.058130324 -0.06819617
0.124319516 0.10785288 -0.05113186 -0.014789049 -0.0084888 -0.004841637 -0.027495394 0.030185377
0.13181883 -0.01740368 0.034694783 0.08084303 -0.065654404 0.112067804 -0.13787614 0.044831563
-0.08942962 -0.1337701 -0.13245182 -0.12835212 0.0837953 -0.059936754 0.06990995 0.11155963
0.122978576 -0.06639655 0.12698346 -0.03562495 0.102373205 -0.09473945 0.03746805 -0.04438748
-0.018935692 0.10011955 0.08573612 0.0761517 0.028421266 0.09644491 0.003913798 0.06922511
0.07047809 -0.04862331 0.12687874 -0.13175641 0.07882935 -0.017923757 0.04925388 -0.12714748
0.048244078 0.0123347705 -0.0039521176 -0.019856635 0.029730763 0.048482973 0.05808997 -0.019789139
-0.07670593 0.028972125 0.02037858 -0.009424195 -0.09732038 -0.08234767 0.13072433 -0.05538579
00000000: 46e2 f63d e290 3a3d 6801 343d 5806 0cbe
00000010: 90dd c7bd ba39 373c 43bd d3bd a200 883d
00000020: c1f2 9f3c 2a24 0dbd 5316 8abd e272 033e
00000030: 48bd b53d e7ff cdbc 0baf e1bd c78e 89bd
00000040: d7b4 453d 2c6c c43d 2879 96bd aec9 02be
00000050: 2c94 903d d643 dbbd 335f 003e 1a21 d3bd
00000060: 6615 2d3d fd67 813d 316f 65bd cc23 d8bd
00000070: 7753 94bd da8e 84bd d764 1f3d 1bf9 92bc
00000080: 14e4 a73d fca6 7bbd c741 0a3e c667 0fbd
00000090: 613c 833d a8bb 683d 320b 38bd e013 b4bd
000000a0: 12e8 da3d b202 9dbd d9da 113d 4fc4 c4bd
000000b0: 3cc2 a1bd 71fa 8f3d d2c9 043e e8e7 e43d
000000c0: ea95 0dbc a50b a5bd cd3b acbc 2d0c 02be
000000d0: 242e 2fbd 58e1 00be 3b44 783c b0d9 b1bc
000000e0: 1529 b3bd d1b9 bf3b 26ed 083e e7fd f93d
000000f0: a009 fc3d 697a 38bc 1108 0abb 9e29 0dbe
00000100: 614e 74bd 6f83 343d 0f9f de3d e5cb aabd
00000110: 4faa f6bd 3969 03be d7de a0bd 34a6 063e
00000120: 9ec6 403d a21c 87bd 6c29 db3d 79a0 8e3d
00000130: a7d7 4dbd c5cb d6bd 4e27 91bd fd98 ca3d
00000140: cbd3 d53c c38f 82bd 582f 9b3d 8340 853d
00000150: dad3 cf3d 78fb 643d bbe1 b73d cc84 b0bd
00000160: 13b5 673c 113a 83bd 6376 bdbd c992 ffbd
00000170: 0b0e 2e3d 0b4e c43d 6732 623c 55df cabd
00000180: 445c 59bd d6f1 5a3d 7eb5 2e3d 6988 51bd
00000190: eafd 083d 3d40 6dbd dc47 04be 9fbc d73c
000001a0: 27b8 21bd fc22 66bc eee5 4bbd 8f20 93bd
000001b0: 6a0e 7abc 7cc4 0b3d 9e93 e63d 44fa ee3d
000001c0: b7ff 01be 74a7 a13d 7279 083d d447 89bd
000001d0: ac8d 96bd 26fa 86bc 362a eebd f6a9 843d
000001e0: 7bfb c63d bc59 083e 3c09 0cbc 4d8d c53d
000001f0: f009 a8bc e458 5bbd e292 debd 577f c9bd
00000200: d817 b33c 668a 143d f445 7d3d 547d c93c
00000210: 91d2 0abd 2dd6 b9bc ccca fe3d 35cd 2e3d
00000220: fcc0 093e 1c3a cdbd 9bef 3cbd e9b5 2bbc
00000230: 2492 833d 1dd5 ca3d 7840 a73d 3a14 b2bd
00000240: a523 193c c4a4 f5bd cd0d 95bd 73df e5bb
00000250: ebea fbbd 30c8 21bd 3d76 e23d 1ecf 993d
00000260: 8841 0a3e 2977 3dbd a8d9 043d 0704 633d
00000270: 679f 793d b595 b6bc 15e9 01be 42ae 473c
00000280: 7dc1 d33d a292 58bd b3e8 ecba 00ed 83bd
00000290: af32 a63c cce2 e2bc cc2d 003e 306a b23c
000002a0: 459c 01be c3c7 5bbd 3a8f d53d 17be 5b3b
000002b0: 748e eb3d f133 27bd 0b09 683d 2c2a 233c
000002c0: 71bb d7bd 9dfd a13d 83cb 93bc d56e 09be
000002d0: a989 af3d 6572 ffbd f0d7 a23a a7b6 853d
000002e0: f5b8 ee3d 1423 593d 3171 b2bd 4468 11bb
000002f0: 88bd c43c 599f c6bd 101a 6e3d 6faa 8bbd
00000300: 3b9b fe3d f9e1 dc3d a46f 51bd c44d 72bc
00000310: 9c14 0bbc 98a6 9ebb 053e e1bc 5347 f73c
00000320: 84fb 063e 2a92 8ebc 1e1c 0e3d 0891 a53d
00000330: d175 86bd ce83 e53d 672f 0dbe 4da1 373d
00000340: e026 b7bd 07fb 08be 73a1 07be bd6e 03be
00000350: df9c ab3d 3e80 75bd f32c 8f3d 6079 e43d
00000360: 31dc fb3d eafa 87bd f407 023e 78eb 11bd
00000370: 0ba9 d13d c206 c2bd 1978 193d a5cf 35bd
00000380: 061f 9bbc 7b0b cd3d 6b96 af3d 6cf5 9b3d
00000390: b7d3 e83c e984 c53d 513f 803b e5c5 8d3d
000003a0: d156 903d 3c29 47bd 80ec 013e 27eb 06be
000003b0: 4871 a13d d8d4 92bc 70be 493d f332 02be
000003c0: 959b 453d c717 4a3c c480 81bb 62aa a2bc
000003d0: ee8d f33c 1596 463d c0ef 6d3d d51c a2bc
000003e0: 0018 9dbd f356 ed3c fbf0 a63c f067 1abc
000003f0: e84f c7bd e5a5 a8bd 99dc 053e 36dc 62bd

fc1.bias f4 [256]
-0.11294289 -0.008302757 -0.089676894 -0.076860346 0.017477063 -0.054434676 0.13734828 0.011269705
0.109782636 -0.002005964 0.12626752 0.031205244 0.11024021 0.09831414 0.120588936 0.036491524
-0.040713567 -0.08093908 -0.13258941 0.040748283 -0.113474205 -0.09823699 0.047569532 -0.00064902095
0.03869818 -0.0033762315 -0.112534896 0.07279706 -0.116801634 0.038097117 -0.042517982 -0.06243659
0.08469704 -0.059601136 0.06874289 0.050732594 -0.09806978 0.008749071 -0.029642684 0.045401778
-0.07008114 -0.054886907 -0.10190287 -0.11467412 -0.085451014 -0.10483998 0.023856033 0.03057679
-0.0038870338 0.12263281 0.02940984 -0.09469133 -0.0071644243 -0.11638569 -0.024957336 -0.10038369
0.094144836 -0.07232433 -0.07966911 -0.107963726 0.12160934 0.052957598 0.033491034 0.12068842
0.04590904 0.12859319 -0.09483053 -0.04411663 0.11282551 0.11986589 0.015541308 -0.031134723
0.070308164 -0.02708712 -0.060550217 0.017919607 0.046649545 0.037861943 0.100819916 0.078833714
-0.018874029 0.10817703 0.043134123 0.08606238 -0.12139449 -0.10710124 0.014675974 0.02360464
-0.09197688 -0.06033374 -0.058302302 0.1091116 0.120396264 0.08279367 0.04874812 -0.06506437
0.0030026063 -0.059309587 -0.0560745 -0.108037375 -0.13698998 0.051368505 0.05765865 -0.014830724
-0.0021895117 -0.12896076 0.12625302 -0.13496453 -0.09677243 0.031335033 -0.123135276 -0.039692063
0.10514343 0.100714065 -0.09218941 0.055064537 -0.12183717 -0.11974478 0.0940371 -0.10554849
0.01583884 -0.12928511 0.10045557 0.060192876 0.009897404 -0.04723155 -0.029960401 0.11129823
-0.07663947 0.09392145 -0.0077403765 0.024356967 0.06943987 0.079369016 0.09997085 0.09421797
-0.11820796 -0.026673455 0.03247943 -0.081767865 -0.07059369 0.04370409 -0.10628495 0.0043211305
-0.12867442 0.09041181 0.03709206 0.11618153 -0.068861075 0.1360447 0.019088557 0.035913706
-0.03636096 -0.09939983 -0.118709624 0.020226475 0.11775262 0.038422834 -0.09821811 0.031265583
0.027763136 -0.024819613 0.010170883 -0.12340778 0.04068692 -0.077721566 0.13366528 -0.040601302
-0.091389425 -0.12903634 0.04713848 0.06848186 0.08303557 0.007844475 -0.10627027 0.046298817
-0.07339301 0.1318443 0.10081765 0.11460537 0.051452614 -0.10501764 -0.0633236 0.053624455
-0.13554117 -0.027667305 0.0027639929 0.004168728 -0.04106755 0.11150174 0.08716532 0.034301024
-0.008702419 0.010072075 -0.013964679 0.029591817 -0.057368264 -0.13029829 0.11424448 0.022261534
-0.033893295 -0.005898734 -0.013408317 0.0070025823 -0.11469536 0.005381832 -0.07709007 -0.024235213
-0.03694695 -0.08835936 0.027761996 -0.02477202 -0.124604665 0.120381154 0.0049236324 0.056593817
-0.09594608 0.023176033 -0.06925976 -0.046714615 0.086213306 -0.05318601 -0.033096746 0.11840705
0.06136971 -0.09293628 0.036390435 0.020733574 0.0635615 0.122646876 0.048528783 0.12583241
0.04910361 -0.05449673 0.005197259 0.019176817 -0.10435016 0.06097013 -0.13612911 -0.06985857
-0.062190242 -0.090023905 0.025426628 0.114450864 0.06793023 0.08701505 -0.069480374 -0.02029756
0.06438462 -0.051803164 0.03263147 -0.092138164 0.0142844785 0.0521548 -0.028672295 -0.116005056
00000000: 9a4e e7bd 4908 08bc 85a8 b7bd f568 9dbd
00000010: 0f2c 8f3c e5f6 5ebd 07a5 0c3e 92a4 383c
00000020: b8d5 e03d 7e76 03bb 464c 013e 24a2 ff3c
00000030: 9fc5 e13d ed58 c93d 55f7 f63d 2378 153d
00000040: 45c3 26bd 63c3 a5bd 85c5 07be ace7 263d
00000050: 2a65 e8bd 7a30 c9bd 45d8 423d 0f23 2aba
00000060: fc81 1e3d c443 5dbb b278 e6bd a016 953d
00000070: b235 efbd b90b 1c3d 5627 2ebd 83bd 7fbd
00000080: a475 ad3d 5220 74bd 13c9 8c3d fbcc 4f3d
00000090: cfd8 c8bd 4358 0f3c 37d5 f2bc 37f7 393d
000000a0: b386 8fbd 18d1 60bd 74b2 d0bd 44da eabd
000000b0: f100 afbd 58b6 d6bd ba6d c33c 2d7c fa3c
000000c0: 9bbd 7ebb e926 fb3d e8ec f03c 87ed c1bd
000000d0: 8cc3 eabb 9f5b eebd 5473 ccbc f795 cdbd
000000e0: 02cf c03d c71e 94bd 8f29 a3bd 161c ddbd
000000f0: 510e f93d 11ea 583d e52d 093d 7e2b f73d
00000100: 1e0b 3c3d efad 033e 8236 c2bd a4b3 34bd
00000110: 1011 e73d 3f7c f53d f8a0 7e3c 3f0e ffbc
00000120: bafd 8f3d cfe5 ddbc 8103 78bd 24cc 923c
00000130: 9813 3f3d 2015 1b3d ac7a ce3d 9273 a13d
00000140: b59d 9abc eb8b dd3d 68ad 303d 7941 b03d
00000150: ad9d f8bd e557 dbbd 7f73 703c 855e c13c
00000160: 605e bcbd 8320 77bd 65ce 6ebd e775 df3d
00000170: 5192 f63d ba8f a93d 1cac 473d 7840 85bd
00000180: 60c7 443b 9cee 72bd 60ae 65bd b342 ddbd
00000190: 1a47 0cbe c867 523d 7a2b 6c3d 91fc 72bc
000001a0: e97d 0fbb 4a0e 04be 7948 013e 2434 0abe
000001b0: a030 c6bd 2a59 003d 592e fcbd 2594 22bd
000001c0: 7055 d73d 2d43 ce3d cdcd bcbd 5a8b 613d
000001d0: c485 f9bd c03c f5bd 8696 c03d cf29 d8bd
000001e0: 74c0 813c 5163 04be a6bb cd3d ce8c 763d
000001f0: b928 223c df75 41bd 846f f5bc 54f0 e33d
00000200: 28f5 9cbd e459 c03d fca2 fdbb 4388 c73c
00000210: 7e36 8e3d 398c a23d 84bd cc3d 5af5 c03d
00000220: 0417 f2bd 4a82 dabc 2709 053d e975 a7bd
00000230: 6d93 90bd 0f03 333d edab d9bd 4598 8d3b
00000240: 3ac3 03be d429 b93d d8ed 173d 95f0 ed3d
00000250: 0907 8dbd 4d4f 0b3e 9b5f 9c3c 401a 133d
00000260: 3bef 14bd 2392 cbbd 081e f3bd feb1 a53c
00000270: 4928 f13d 4361 1d3d 9426 c9bd 5710 003d
00000280: 846f e33c 8052 cbbc c6a3 263c 38bd fcbd
00000290: 54a7 263d 7c2c 9fbd 8ddf 083e 8d4d 26bd
000002a0: 612a bbbd 1a22 04be 4714 413d 3840 8c3d
000002b0: 8e0e aa3d 1d86 003c 3aa4 d9bd d4a3 3d3d
000002c0: 134f 96bd 3102 073e 7c79 ce3d 38b6 ea3d
000002d0: fabf 523d 7d13 d7bd ceaf 81bd 51a5 5b3d
000002e0: 4ecb 0abe 8ba6 e2bc 1b24 353b d399 883b
000002f0: 7336 28bd 065b e43d bb83 b23d 3b7f 0c3d
00000300: 9794 0ebc 5805 253c 1ccc 64bc 8a6a f23c
00000310: fcfa 6abd ea6c 05be 03f9 e93d d25d b63c
00000320: b2d3 0abd 2b4a c1bb 8fae 5bbc eb75 e53b
00000330: 67e5 eabd 145a b03b 66e1 9dbd ed88 c6bc
00000340: af55 17bd c1f5 b4bd 206d e33c b1ee cabc
00000350: bb30 ffbd 658a f63d 6c56 a13b ebce 673d
00000360: 617f c4bd aadb bd3c 10d8 8dbd d357 3fbd
00000370: 9a90 b03d 93d9 59bd 7490 07bd 657f f23d
00000380: ce5e 7b3d 6055 bebd 230e 153d 75d9 a93c
00000390: 882c 823d 492e fb3d 1ec6 463d 36da 003e
000003a0: de20 493d f737 5fbd c54d aa3b b318 9d3c
000003b0: 89b5 d5bd d1bb 793d 6e65 0bbe 0312 8fbd
000003c0: 32bb 7ebd 745e b8bd 814b d03c 3765 ea3d
000003d0: 011f 8b3d f234 b23d ba4b 8ebd 1247 a6bc
000003e0: 15dc 833d 8e2f 54bd 94a8 053d efb2 bcbd
000003f0: 7209 6a3c 46a0 553d 29e2 eabc 0f94 edbd

fc2.weight f4 [128, 256]
0.051561713 0.04940097 -0.028956443 -0.04523337 0.061888546 0.05226551 0.014157213 0.060526393
-0.019289084 0.038071685 0.046789274 0.043597296 0.05272796 0.039954685 0.062443264 -0.0555602
0.019047603 -0.0076562315 -0.02209711 -0.06196457 0.05595643 -0.03025277 0.0146372095 0.003283836
0.008959673 0.016103119 -0.05998254 0.04630693 0.017639056 0.025780454 0.026211523 -0.058685392
-0.019368902 -0.009527177 0.0001327917 0.030772552 -0.050457492 -0.017906003 0.053869843 0.03337592
0.026754722 0.032147795 0.011496596 0.031559676 0.021692641 -0.02956482 0.039795704 0.02475661
0.031289868 0.046942174 -0.049888626 -0.04577355 -0.030359164 0.018874966 0.059113145 -0.00465104
0.009834237 0.01096867 -0.003668867 -0.059903108 0.031049907 -0.061454616 -0.013198607 -0.038316153
-0.024230972 -0.03830392 -0.017599799 0.034095757 -0.059378967 0.021926738 -0.0440789 -0.060793355
-0.062433966 0.044247024 -0.009423502 -0.03935208 -0.048562147 -0.023927785 -0.039859615 -0.015960306
-0.0013674423 0.03285922 -0.016278408 0.011636853 -0.014363244 -0.041233465 -0.030607134 0.002308391
0.0318612 0.034263767 -0.021967888 -0.015332751 0.009469077 0.027989298 0.03655809 -0.008638158
-0.0022494718 0.02815517 0.060445726 -0.013137475 -0.012318529 0.03257803 0.046031922 -0.026614152
0.02588576 0.057165824 0.057261378 0.059382565 -0.061057292 0.042215705 -0.035068013 -0.05343029
0.05960186 0.036540605 0.008802399 -0.012534864 -0.0006686449 -0.049667582 0.05999653 -0.020419918
0.0483331 0.045150287 -0.0027779043 -0.00963261 -0.013441414 0.03788899 -0.032051988 -0.02357404
0.03935051 -0.035217173 0.046115614 0.018483505 0.0012083948 -0.056315802 0.027440138 0.031697668
-0.012203775 0.031051777 0.024649106 -0.04999771 -0.060188703 -0.054311447 0.0009284094 -0.054475464
0.060601346 0.041320503 0.03107731 -0.06176061 -0.009055361 0.036178127 -0.025362529 -0.060206212
0.0056068525 0.058034495 0.058036216 0.027784504 -0.0025096163 0.03275291 -0.046147175 0.009833597
0.02266913 -0.021459341 0.05170054 0.0018712953 0.04689894 -0.02751869 -0.03163138 0.037984714
0.0156921 0.030583926 -0.035206072 0.05835505 0.002636157 -0.020616628 -0.00094563514 -0.0046717525
-0.025049895 -0.03669422 0.024859093 0.029568963 0.038253404 -0.021423161 -0.031754874 -0.040507555
0.062427178 0.013815828 0.019643053 -0.021530867 0.008845195 -0.016493507 0.010068178 0.0026759803
0.055383384 -0.024431668 0.031162359 0.021317862 0.024159566 -0.04208231 0.03962349 -0.027385026
0.0046180636 -0.05604715 -0.057215616 -0.011157341 -0.055610515 -0.009825349 -0.060748838 0.018318556
-0.060670078 0.041692927 0.061901003 -0.043038398 -0.011336021 -0.031659424 -0.0059780627 0.05264128
-0.014432393 0.04422372 -0.001912728 -0.046057895 -0.02080585 0.031342983 -0.060303837 0.04763758
0.060773462 0.05953309 0.0018755421 -0.01927647 0.0019144863 -0.05903539 0.050268948 -0.0028494075
-0.023473926 0.056390077 0.05318436 -0.05688388 -0.05877521 -0.030826755 0.018642485 0.05357685
-0.005534135 -0.026015714 0.059032537 -0.029417902 -0.050995596 0.012610853 0.028672628 -0.043209873
-0.0014352351 -0.01096794 -0.023067482 -0.020467356 0.04104369 -0.038696803 0.019086346 0.028897949
00000000: 6032 533d ac58 4a3d 1036 edbc a046 39bd
00000010: d87e 7d3d 5c14 563d a8f3 673c 86ea 773d
00000020: 2404 9ebc 0ef1 1b3d 1ca6 3f3d 1493 323d
00000030: 46f9 573d 86a7 233d 82c4 7f3d 1893 63bd
00000040: b809 9c3c 20e1 fabb 0005 b5bc 90ce 7dbd
00000050: 9232 653d a8d4 f7bc e8d0 6f3c a035 573b
00000060: 98cb 123c b0ea 833c 40b0 75bd 56ac 3d3d
00000070: c87f 903c 8831 d33c 8cb9 d63c 1860 70bd
00000080: 88ab 9ebc e017 1cbc 003e 0b39 b816 fc3c
00000090: 84ac 4ebd 9caf 92bc a0a6 5c3d 30b5 083d
000000a0: b82c db3c 68ad 033d 385c 3c3c b844 013d
000000b0: c4b4 b13c ec31 f2bc d200 233d 60ce ca3c
000000c0: ce29 003d 7046 403d 0458 4cbd 0c7d 3bbd
000000d0: c8b3 f8bc ac9f 9a3c a020 723d c067 98bb
000000e0: c81f 213c f0b5 333c 6071 70bb f65c 75bd
000000f0: 605c fe3c d6b7 7bbd f83e 58bc 66f1 1cbd
00000100: 0880 c6bc 92e4 1cbd 742d 90bc fea7 0b3d
00000110: 5c37 73bd b49f b33c 148c 34bd 7402 79bd
00000120: c2ba 7fbd 5e3c 353d 0865 1abc a62f 21bd
00000130: 1ae9 46bd 3404 c4bc d643 23bd 30bf 82bc
00000140: c03b b3ba 6497 063d 4c5a 85bc 80a8 3e3c
00000150: d053 6bbc 6ce4 28bd d0bb fabc 6048 173b
00000160: e480 023d 2a58 0c3d 00f6 b3bc 3836 7bbc
00000170: 3024 1b3c d049 e53c f0bd 153d 1087 0dbc
00000180: e06b 13bb aca5 e63c f095 773d 903e 57bc
00000190: a8d3 49bc 8a70 053d f88b 3c3d ec05 dabc
000001a0: 600e d43c b626 6a3d e88a 6a3d 223b 733d
000001b0: 3617 7abd 60ea 2c3d 7aa3 0fbd b8d9 5abd
000001c0: 1421 743d 9aab 153d f037 103c 085f 4dbc
000001d0: 0048 2fba 3c70 4bbd ecbe 753d ac47 a7bc
000001e0: eef8 453d 82ef 383d 800d 36bb 18d2 1dbc
000001f0: 6039 5cbc 7c31 1b3d f248 03bd 581e c1bc
00000200: 002e 213d e23f 10bd bae3 3c3d b86a 973c
00000210: 0063 9e3a 66ab 66bd 24ca e03c 6ad5 013d
00000220: 58f2 47bc 4c60 fe3c ecec c93c 66ca 4cbd
00000230: 6e88 76bd ae75 5ebd 8060 733a aa21 5fbd
00000240: 1e39 783d b03f 293d d895 fe3c b2f8 7cbd
00000250: f05c 14bc 842f 143d 14c5 cfbc ca9a 76bd
00000260: b0b9 b73b 94b5 6d3d 62b7 6d3d 549c e33c
00000270: 6078 24bb ea27 063d d204 3dbd 181d 213c
00000280: 9cb4 b93c 80cb afbc f2c3 533d 4046 f53a
00000290: 1a19 403d e06e e1bc e88f 01bd dc95 1b3d
000002a0: b88c 803c 248b fa3c 3e34 10bd b405 6f3d
000002b0: 60c3 2c3b 34e4 a8bc 80e4 77ba 8015 99bb
000002c0: 7035 cdbc ae4c 16bd 4ca5 cb3c 9c3a f23c
000002d0: 9aaf 1c3d a07f afbc 6611 02bd 40eb 25bd
000002e0: a4b3 7f3d c85b 623c 78ea a03c 8061 b0bc
000002f0: 70eb 103c 641d 87bc 00f5 243c 805f 2f3b
00000300: b0d9 623d ec24 c8bc 3448 ff3c cca2 ae3c
00000310: 48ea c53c 805e 2cbd 3e4c 223d 9056 e0bc
00000320: 2053 973b b291 65bd ec5a 6abd 48cd 36bc
00000330: dac7 63bd 80fa 20bc c6d3 78bd cc10 963c
00000340: 3081 78bd 34c6 2a3d e88b 7d3d 0849 30bd
00000350: b8ba 39bc 50ad 01bd a0e3 c3bb 629e 573d
00000360: d875 6cbc ee23 353d 80b4 faba 34a7 3cbd
00000370: 0871 aabc 8061 003d 2801 77bd a01f 433d
00000380: 98ed 783d f8d8 733d c0d4 f53a b0e9 9dbc
00000390: 80ef fa3a 18cf 71bd d0e6 4d3d 20bd 3abb
000003a0: 644c c0bc 48f9 663d d8d7 593d 12ff 68bd
000003b0: 46be 70bd 6488 fcbc 20b8 983c 6673 5b3d
000003c0: b057 b5bb e81e d5bc 1acc 713d d0fd f0bc
000003d0: c2e0 50bd c09d 4e3c dce2 ea3c d6fc 30bd
000003e0: 801e bcba e0b2 33bc 04f8 bcbc 28ab a7bc
000003f0: 6e1d 283d 8a80 1ebd f85a 9c3c 64bb ec3c

fc2.bias f4 [128]
-0.049200132 -0.025891796 0.016886726 0.051865652 -0.018432751 -0.019594677 0.0413095 -0.033058763
-0.020029157 -0.020593949 -0.017743833 0.044921756 0.031683482 0.025105558 0.048907615 -0.05529335
0.017572053 -0.053190194 0.04755713 -0.04254525 0.009924084 -0.009261623 -0.04724878 -0.038962245
-0.006745249 0.05514282 -0.007373117 -0.047870822 0.021420583 -0.042142063 0.020212203 -0.0007854849
0.02334515 -0.01601202 0.045961358 0.04108099 0.014559731 0.060176626 0.011233166 -0.024726473
-0.047666892 0.062205352 -0.014226995 -0.029451847 -0.016028538 -0.01755564 -0.027621634 -0.050636217
0.04116147 0.04046735 0.029352635 -0.013294533 0.04265491 0.0035629198 -0.0065577105 -0.036646843
-0.0062528327 -0.020029396 -0.007854126 -0.03608168 0.060427032 -0.03362347 -0.022978514 -0.03577692
-0.040362537 -0.02760826 -0.0032466277 -0.05563353 0.0491751 -0.05515281 -0.022197291 -0.0018848628
0.024052292 -0.046080843 0.026354916 -0.02101843 0.020083055 0.0033100173 0.043918677 -0.058365166
-0.05756647 0.0099834725 -0.015444569 -0.0036998168 -0.05559875 -0.0028847903 0.04312425 -0.016199224
-0.007974595 0.0614395 -0.016274497 0.035567224 -0.06067588 0.052529067 0.028753474 0.03154423
-0.036806025 -0.06170828 -0.04493463 -0.05808401 -0.015239619 -0.011672854 0.038320817 -0.047199935
-0.061187983 -0.04762774 0.04498273 -0.034466006 -0.025885776 -0.034363292 -0.044952385 -0.016783647
0.038666487 -0.03867589 0.05228658 -0.024386056 0.033145852 0.03289797 -0.020230927 0.05395945
0.02211482 -0.017635189 -0.0054115653 -0.0029277802 -0.030420706 -0.026157275 0.052997388 0.054868884
00000000: 1486 49bd 081b d4bc 0856 8a3c 1471 543d
00000010: 4800 97bc 0485 a0bc 2634 293d a068 07bd
00000020: 3014 a4bc a4b4 a8bc 845b 91bc e0ff 373d
00000030: 8ac6 013d 2caa cd3c 5a53 483d 487b 62bd
00000040: 44f3 8f3c f6dd 59bd 44cb 423d ee43 2ebd
00000050: a098 223c 10be 17bc f087 41bd e096 1fbd
00000060: 4007 ddbb 70dd 613d 309a f1bb 3214 44bd
00000070: 387a af3c 289d 2cbd 1094 a53c 00e9 4dba
00000080: 543e bf3c a42b 83bc fa41 3c3d 8a44 283d
00000090: f08b 6e3c c47b 763d 500b 383c 2c8f cabc
000000a0: 5c3e 43bd 0acb 7e3d 5818 69bc 0045 f1bc
000000b0: 484e 83bc d8d0 8fbc c446 e2bc ec67 4fbd
000000c0: ee98 283d 18c1 253d f074 f03c 50d1 59bc
000000d0: eab6 2e3d e07f 693b 10e2 d6bb 001b 16bd
000000e0: 90e4 ccbb b014 a4bc 98ae 00bc 62ca 13bd
000000f0: 5682 773d c4b8 09bd 703d bcbc d28a 12bd
00000100: 3053 25bd b82a e2bc 60c5 54bb fcdf 63bd
00000110: d46b 493d eae7 61bd 18d7 b5bc 800d f7ba
00000120: 5009 c53c 44bf 3cbd 44e6 d73c d82e acbc
00000130: 3885 a43c e0ec 583b 12e4 333d 5010 6fbd
00000140: d2ca 6bbd b891 233c 380b 7dbc a078 72bb
00000150: 84bb 63bd c00e 3dbb 0ea3 303d 3cb4 84bc
00000160: e0a7 02bc fca7 7b3d 1852 85bc f0ae 113d
00000170: 4687 78bd b828 573d 688c eb3c 8634 013d
00000180: eac1 16bd d2c1 7cbd 600d 38bd 80e9 6dbd
00000190: 98af 79bc 803f 3fbc 4af6 1c3d b854 41bd
000001a0: 40a0 7abd 4e15 43bd d03f 383d 3a2c 0dbd
000001b0: 680e d4bc 86c0 0cbd fe1f 38bd dc7d 89bc
000001c0: c060 1e3d 9c6a 1ebd 742a 563d 44c5 c7bc
000001d0: f2c3 073d 06c0 063d 54bb a5bc 9604 5d3d
000001e0: 242a b53c ac77 90bc 8053 b1bb 00e0 3fbb
000001f0: d834 f9bc c847 d6bc ca13 593d 32be 603d

fc3.weight f4 [13, 128]
-0.044399627 -0.039856188 0.0111432895 0.026791709 0.021940658 -0.05761415 -0.018445548 -0.0015734788
0.014423905 0.0035639058 -0.06611306 0.029679041 0.02737757 -0.046030752 0.0001803569 -0.05430616
0.065370195 -0.08080243 0.03505876 -0.005962915 0.07432692 -0.06370277 -0.0018902756 0.021547081
0.040058672 0.025060853 0.010585666 -0.009814526 0.08758688 0.035077896 -0.05392352 0.038949862
0.042420696 0.071682625 -0.08209142 -0.02204158 -0.031302936 -0.060065866 0.06286024 0.083367206
0.07592089 -0.009099926 0.047465917 -0.06406972 0.070533425 -0.04149645 -0.040655535 -0.037514698
-0.0029511012 -0.081202455 -0.037836142 0.022070523 -0.04521479 -0.088061854 -0.05014044 0.05599601
-0.05830891 -0.08238508 0.013553351 0.010340929 -0.027090508 0.0013512174 -0.030152634 0.033243284
-0.04493405 -0.07121801 0.07182242 -0.028404593 -0.08037912 0.08289483 -0.0012231015 0.03564677
0.045857456 -0.019972654 -0.016213682 0.03197575 -0.016954908 0.06481484 -0.08137742 0.003239649
0.042254765 -0.0065227197 0.08344571 0.025105318 -0.043900408 0.037560113 -0.0083412295 -0.02818561
-0.06388565 0.046990585 -0.057183105 -0.031544756 0.060085904 0.052579425 -0.08434219 -0.046693683
-0.06286602 0.08741565 0.013714363 -0.060758147 -0.011762595 0.013232741 -0.06078056 -0.034444585
-0.079529196 -0.007879079 0.03233287 -0.049663328 0.015158146 0.058301862 -0.0022148064 -0.016959617
-0.07399094 0.020495212 0.07935594 0.05026318 -0.06926833 0.08631654 -0.08620336 0.022611372
-0.075949915 0.073095985 0.016397864 -0.018565845 -0.06796453 0.08012592 -0.037657335 0.028670667
-0.038358353 -0.01762694 0.055708483 -0.005439978 0.016444404 0.048180643 0.053199477 0.034597673
-0.06071662 -0.0037553157 -0.019766934 0.0078024245 -0.016063428 -0.013368064 -0.07739085 0.005526558
-0.03638276 -0.023946859 -0.06334066 -0.017757384 0.06764163 0.009523343 0.0632071 0.07309943
-0.05237553 -0.05194148 -0.05405127 -0.051355682 0.052153688 0.0629662 -0.037601322 0.06897584
0.066409916 0.016171882 0.08807983 0.08614304 -0.0055791256 -0.0813342 0.042539362 0.030244494
0.015960643 -0.033561368 -0.062523015 -0.08774054 0.073913746 -0.045681145 0.04423828 -0.023141718
-0.019304067 -0.021926487 -0.04087646 -0.0832181 -0.002644504 0.052937843 -0.08224037 -0.06881791
-0.022976438 0.038272202 0.017237376 -0.035854187 -0.027995601 -0.037409153 -0.027969744 -0.0058265277
0.06062881 0.052073844 -0.060504846 -0.048004396 0.018244559 -0.053744733 -0.047581095 0.017528126
0.08332662 -0.071193114 0.087202586 0.032982543 -0.08006905 -0.06402962 -0.0044023227 -0.022993308
0.06367667 0.00052693044 -0.030747874 0.0020387168 0.0032705849 -0.07043618 0.05232669 0.021179466
0.08309816 0.04921065 0.02246663 0.03645063 0.075537436 0.03534829 -0.08130908 -0.06981569
0.07593645 0.041389417 -0.003387184 -0.06038696 0.050865944 -0.071518205 0.031916186 0.050080825
-0.045989588 0.08123715 -0.0018909816 0.017371003 -0.014861864 -0.056890447 0.08190616 0.039303485
-0.012559582 0.07392567 -0.068632655 0.08514738 -0.002070938 -0.071245834 0.0059754853 -0.031669922
-0.049163297 0.040388133 -0.033362348 -0.052154817 0.025949804 -0.04965556 0.032424003 -0.02343489
00000000: 62dc 35bd 3e40 23bd 5892 363c 497a db3c
00000010: e5bc b33c d1fc 6bbd 1e1b 97bc 303d ceba
00000020: 3e52 6c3c 6b90 693b 4966 87bd 7621 f33c
00000030: ed46 e03c be8a 3cbd 301e 3d39 2370 5ebd
00000040: cfe0 853d bf7b a5bd c699 0f3d 8e64 c3bb
00000050: b638 983d 9976 82bd 20c3 f7ba 8183 b03c
00000060: 9014 243d 6b4c cd3c 806f 2d3c 1bcd 20bc
00000070: c060 b33d d7ad 0f3d e9de 5cbd e489 1f3d
00000080: 53c1 2d3d 57ce 923d 8c1f a8bd 8b90 b4bc
00000090: 8237 00bd a007 76bd dfbc 803d 6dbc aa3d
000000a0: 697c 9b3d db17 15bc 9f6b 423d fc36 83bd
000000b0: d473 903d 2ef8 29bd 6b86 26bd 03a9 19bd
000000c0: 4367 41bb 794d a6bd 12fa 1abd 3ecd b43c
000000d0: 2533 39bd c659 b4bd 1060 4dbd 125c 653d
000000e0: 53d5 6ebd 82b9 a8bd e00e 5e3c 006d 293c
000000f0: eaec ddbc 551b b13a a802 f7bc 1c2a 083d
00000100: c40c 38bd bfda 91bd a217 933d c0b0 e8bc
00000110: cf9d a4bd c4c4 a93d 7a50 a0ba 5902 123d
00000120: 07d5 3b3d b19d a3bc 8ed2 84bc 01f9 023d
00000130: 05e5 8abc a5bd 843d 34a9 a6bd 4b50 543b
00000140: 5513 2d3d 8abc d5bb 96e5 aa3d aba9 cd3c
00000150: ead0 33bd a2d8 193d a7a9 08bc 82e5 e6bc
00000160: 7bd6 82bd 3379 403d d538 6abd 1335 01bd
00000170: a31c 763d 865d 573d 99bb acbd e041 3fbd
00000180: e6bf 80bd fa06 b33d 35b2 603c 89dd 78bd
00000190: e6b7 40bc 23ce 583c 09f5 78bd c415 0dbd
000001a0: 34e0 a2bd 4117 01bc 796f 043d c66b 4bbd
000001b0: df59 783c efcd 6e3d 4926 11bb e5ee 8abc
000001c0: 9088 97bd 93e5 a73c 5e85 a23d c4e0 4d3d
000001d0: 8edc 8dbd bac6 b03d 638b b0bd 7c3b b93c
000001e0: a18b 9bbd 59b3 953d d054 863c 6617 98bc
000001f0: fd30 8bbd 0f19 a43d 943e 1abd bfde ea3c
00000200: a61d 1dbd 5f66 90bc 942e 643d d841 b2bb
00000210: 6ab6 863c 1159 453d b2e7 593d 4ab6 0d3d
00000220: feb1 78bd be1b 76bb 44ee a1bc 7bab ff3b
00000230: 7397 83bc b905 5bbc 187f 9ebd 2118 b53b
00000240: 1706 15bd 342c c4bc bfb8 81bd ef77 91bc
00000250: b287 8a3d cc07 1c3c b972 813d 27b5 953d
00000260: b987 56bd 97c0 54bd dd64 5dbd 565a 52bd
00000270: 1b9f 553d 6cf4 803d d803 1abd 3543 8d3d
00000280: ec01 883d e57a 843c 3363 b43d c36b b03d
00000290: 19d1 b6bb 8c92 a6bd c13d 2e3d 4dc3 f73c
000002a0: e5bf 823c a577 09bd 110c 80bd 50b1 b3bd
000002b0: 1760 973d 271c 3bbd 3333 353d b393 bdbc
000002c0: 9023 9ebc 2d9f b3bc 136e 27bd 406e aabd
000002d0: 6a4f 2dbb 5ad5 583d a46d a8bd 68f0 8cbd
000002e0: 1539 bcbc 50c3 1c3d 6635 8d3c d7db 12bd
000002f0: 0857 e5bc 573a 19bd ce20 e5bc 75ec bebb
00000300: ea55 783d 624b 553d eed3 77bd 42a0 44bd
00000310: 9d75 953c 7023 5cbd 65e4 42bd 2597 8f3c
00000320: 26a7 aa3d b2cd 91bd 4597 b23d b418 073d
00000330: 3efb a3bd f621 83bd 5c41 90bb 765c bcbc
00000340: ea68 823d b421 0a3a f7e2 fbbc fe9b 053b
00000350: 4f57 563b d840 90bd 8354 563d 8f80 ad3c
00000360: 5e2f aa3d 1b91 493d f00b b83c 414d 153d
00000370: 5fb3 9a3d 5ec9 103d 6085 a6bd 87fb 8ebd
00000380: 9284 9b3d f387 293d 85fb 5dbb 5158 77bd
00000390: cf58 503d 2378 92bd 8cba 023d 8d21 4d3d
000003a0: 945f 3cbd aa5f a63d d0da f7ba a24d 8e3c
000003b0: 2d7f 73bc f505 69bd 6bbe a73d b1fc 203d
000003c0: b4c6 4dbc 5766 973d 478f 8cbd c061 ae3d
000003d0: 93b8 07bb 56e9 91bd 01ce c33b 52b8 01bd
000003e0: 745f 49bd 076e 253d f5a6 08bd 4aa0 55bd
000003f0: af94 d43c a163 4bbd 08cf 043d 87fa bfbc

fc3.bias f4 [13]
-0.0051184185 0.05027848 -0.04250708 -0.054451324 -0.021693077 0.01776752 0.07056027 -0.023261542
0.049232386 0.0794478 -0.062233455 -0.018504564 -0.07331386
00000000: 68b8 a7bb cff0 4d3d e71b 2ebd 5a08 5fbd
00000010: aeb5 b1bc 318d 913c e781 903d fd8e bebc
00000020: e6a7 493d 87b5 a23d 82e8 7ebd e296 97bc
00000030: 9425 96bd
